scripts/dof3sphere_sat.pt (torch, 111511 bytes, 5 tensors)

weight f4 [500, 3]
000000 12 97 fe 3c 2a 80 1f c0 52 61 a6 bf 97 db e8 3c
       0.031077895 -2.4921975 -1.299845 0.028425021
000010 1d 8a 69 be 00 62 28 be a8 35 2e 3b 28 52 21 bf
       -0.22806592 -0.16443634 0.0026582275 -0.63015985
000020 d3 54 ab 3d 0b 16 74 bf c1 1b 06 3e db f8 11 3e
       0.08365788 -0.95346135 0.13096525 0.14255087
000030 90 fd c9 3b 0d 2a 05 bf cd 55 aa 3d 55 0c 8b 3f
       0.00616426 -0.5201729 0.083171465 1.0863138
000040 d2 d1 9d 3e 36 e7 f1 3d f5 1f fb 3e 1a 09 39 bf
       0.30824143 0.11811678 0.4904782 -0.7227951
000050 cc 19 a5 3e c2 81 cd 3e 6d 9d c6 bf e4 4d bf bf
       0.32246244 0.4013806 -1.5516793 -1.4945645
000060 1a e0 82 bf 68 eb 12 3f 0c f2 cf 3d 38 5f a2 3f
       -1.022464 0.5739045 0.10153589 1.2685308
000070 69 6c cf 3e bb 6a 3e 3e 75 9e 6c 3f 89 8a 6b 3e
       0.40512398 0.18595402 0.92429286 0.23002066
000080 21 77 af 3d ea 5c 95 3f 9f da eb bf af 1f 9e bf
       0.08567644 1.166898 -1.8426093 -1.2353419
000090 a4 6e f8 b8 a7 e8 26 c0 94 33 eb bf ae 33 c7 3e
       -0.0001184617 -2.60795 -1.8375115 0.38906616
0000a0 c1 2e 8a be d0 56 77 bf 11 37 87 bf 86 d3 5a 3f
       -0.26988795 -0.9661684 -1.056368 0.8547901
0000b0 8d 91 07 3f 18 7e 7e be 7c e8 ed 3f ad c7 d8 be
       0.5295647 -0.24852788 1.8586574 -0.4233984
0000c0 68 a3 17 bf 60 ef b8 bf 0b e5 6a bf b6 44 b1 bc
       -0.59233713 -1.4448051 -0.9175574 -0.02163921
0000d0 a7 f5 eb be 38 2a 53 3d a0 02 d5 3e e1 2f 5f 3f
       -0.46085855 0.051553935 0.41603565 0.8718243
0000e0 13 fe c6 3e 43 dd c2 be 31 eb 8d 3f d0 67 07 3f
       0.38865718 -0.38059434 1.10874 0.5289278
0000f0 d6 d5 f9 be 45 8c 8f be 65 d3 89 be d6 92 ed 3e
       -0.48795956 -0.28036705 -0.26919094 0.4640109
000100 89 2c 9f bf 0e 01 39 bf 8d 64 64 3f d9 42 03 3f
       -1.2435466 -0.72267234 0.8921593 0.51273876
000110 18 0a ab 3e 76 47 ca 3c b7 c7 e7 be 2f 9f 7d 3d
       0.33406138 0.024692278 -0.45269558 0.061919387
000120 56 6a e7 bf 50 17 b9 be 6f d2 2f be a3 b1 d8 3e
       -1.8079326 -0.361506 -0.17170118 0.42323026
000130 85 13 30 3f ea 5a 68 3e 97 bf f7 3c 5f dd e6 be
       0.68779784 0.22690931 0.030242724 -0.45090768
000140 82 22 45 be 78 16 fd 3e c0 79 72 bd fc 1d 43 be
       -0.19251445 0.49431205 -0.05919814 -0.19054407
000150 97 ec 09 bf ba 4f 3b 3f b4 0a 82 3d 8c 8b c2 bb
       -0.5387663 0.7316853 0.06349698 -0.0059370454
000160 7e 7d c1 be e6 4a 01 be ee a2 28 3f a8 4a 1a 3f
       -0.37791055 -0.12626228 0.6587361 0.60270166
000170 e3 34 74 3e 0a 74 00 bf 05 38 61 3f ef ee 08 3f
       0.238483 -0.5017706 0.87976104 0.53489584
000180 44 55 94 3d d6 db 28 bf 8f a7 4e 3d fe ea c2 3c
       0.072428256 -0.65960443 0.050452765 0.023793694
000190 cc 23 9f be db 07 13 3d a2 c3 8b bf 69 3b 58 3e
       -0.31081998 0.035896163 -1.0919077 0.21116413
0001a0 f0 37 0a 3e 81 c5 ae bf 5d ff a9 be 46 b3 c9 bd
       0.13497901 -1.3654023 -0.3320264 -0.09848647
0001b0 2d ef fc bd 60 ee 6b be 16 23 07 bd 66 43 32 bf
       -0.12350307 -0.23040152 -0.032992445 -0.6963409
0001c0 b6 06 0a 3f 72 28 7c 3e a0 0a 22 3f 15 85 39 3f
       0.5391649 0.24624804 0.6329746 0.7246869
0001d0 ec 0d 89 3e 8e ba 51 3f fd 96 30 3f 50 47 16 3f
       0.26768434 0.81925285 0.6898039 0.58702564
0001e0 32 cd 9f 3f ba 3d 0f be 69 6d 37 bd 70 ca 02 bf
       1.2484496 -0.1398839 -0.044782076 -0.51090145
0001f0 92 8b eb bf 05 59 51 bc c5 d6 26 3e c9 65 17 c0
       -1.8401968 -0.012777572 0.16292866 -2.3655875
000200 09 e8 80 be 1b 03 9e 3e a2 48 08 3f ff 33 69 3e
       -0.2517703 0.30861744 0.5323583 0.22773741
000210 db bd 04 bf f6 4c 03 3f e2 40 30 3f d6 fe 85 bf
       -0.51852196 0.5128931 0.68849003 -1.0468395
000220 b5 a9 16 be 60 60 ea bd 5a 09 e8 be ed 68 1a 3f
       -0.14713176 -0.11444163 -0.45319635 0.60316354
000230 e3 ac 03 3f 6d 59 81 3f e4 00 3a 3f 63 f0 e9 3e
       0.5143568 1.0105416 0.7265761 0.45691213
000240 e4 e1 71 3f 58 07 7a 3e 9b 93 97 3d 14 ea 31 bf
       0.94485307 0.24416864 0.074012004 -0.694978
000250 e2 c8 63 3f 6c a7 dd 3e 7c 95 be 3e 40 b7 70 3f
       0.889784 0.43291795 0.37223423 0.9402962
000260 86 7a 17 3f 54 42 08 bf 9b d9 11 3f 1a 45 58 3e
       0.5917133 -0.5322621 0.56972665 0.2112011
000270 1d a9 41 3e 9e 05 7c be 53 8e d3 bd d5 da 6c 3d
       0.18912168 -0.24611518 -0.103298806 0.057825882
000280 7f 9a 51 3f 38 c3 cf 3e db 83 fd bb dd 8c f7 3a
       0.8187637 0.40578628 -0.0077366657 0.0018886585
000290 80 c7 58 3a 2d 14 07 be 92 62 77 3f e2 e4 ef 3e
       0.0008269474 -0.1319129 0.9663478 0.4685431
0002a0 b7 bc 6b bf 28 2a 1d 3f 1f 76 97 3e c9 08 f6 bd
       -0.9208483 0.6139245 0.29582307 -0.120133944
0002b0 ce 27 48 3f 61 73 83 3e d2 d7 68 3f f3 ae c3 bf
       0.7818574 0.25673965 0.90954316 -1.5287765
0002c0 f4 64 2e bf ff 4b 3a 3f 74 d1 bb 3f 64 68 3b be
       -0.6812279 0.7277221 1.4673295 -0.1830154
0002d0 31 0f e8 be 94 fb 49 3f 5e 50 bb 3e e3 3d 01 3c
       -0.4532409 0.788995 0.36584753 0.00788829
0002e0 bf d4 5a be 2d 66 8d bd 1e 7e 8a be 73 0d 0a 3f
       -0.21370219 -0.06904254 -0.27049345 0.5392677
0002f0 5c 4a c6 3e f1 e1 7b bd e8 0f 8e bd e8 e4 a1 3d
       0.38728607 -0.06149477 -0.069366276 0.079049885
000300 b2 09 9b be c7 7e 4c 3f db 93 8a 3e b2 6d 7b 3e
       -0.30280834 0.79880947 0.2706593 0.24553564
000310 94 3c 34 3f 95 a7 e9 bd ea 6b 7b bf 81 d8 d4 3e
       0.70404935 -0.11408917 -0.9821154 0.4157143
000320 de b8 df 3c 50 42 a1 bf 82 93 ed 3d 4c 94 2a 3d
       0.027309831 -1.2598362 0.116004005 0.041645333
000330 ae 81 2d 3d 60 7f ae bf 87 3c d5 bf 70 c0 84 bf
       0.04236 -1.3632622 -1.6659096 -1.0371227
000340 6d 4a b1 be 44 cc f4 bd c0 e7 bf 3e c0 85 79 3f
       -0.34627095 -0.11953023 0.374815 0.9746971
000350 25 57 45 3e 2f 8e 9d 3e ee 32 3a 3f a2 aa d3 bd
       0.19271524 0.3077254 0.7273396 -0.1033528
000360 48 ed d1 be 66 a8 3f 3f 88 06 ea 3e 0d 56 9a 3c
       -0.41001344 0.7486633 0.45708108 0.01883986
000370 d6 cd 52 be 87 9b 7a 3f 03 ec f5 be 02 83 c8 bf
       -0.20586333 0.97893566 -0.48031625 -1.566498
000380 0c 17 2a bf 41 e7 d4 3e cf 65 cc bf 96 cb 33 bf
       -0.66441417 0.41582683 -1.596857 -0.7023252
000390 f6 cc a8 3f 0b e8 a8 be 27 07 8e bf c5 ed 3d 3d
       1.3187549 -0.32989535 -1.1095933 0.046369333
0003a0 b4 b8 57 3f 85 a2 d4 3e 4b b4 cf bc d4 db df bf
       0.8426621 0.41530243 -0.025354525 -1.7488961
0003b0 3d 7c e2 3d b1 3a 93 bf 0c 56 42 3d 7e b1 87 3f
       0.11058853 -1.1502286 0.047445342 1.0601041
0003c0 8b db 82 be 76 74 9b bf 2a e7 b5 3e 39 43 9e 3f
       -0.25558123 -1.2144916 0.35527927 1.2364265
0003d0 ff be 1b be ae f3 8c bf e3 3d ba 3e 7e 64 5b 3f
       -0.15209578 -1.1011865 0.3637534 0.85700214
0003e0 ae af f7 bd 47 cc 30 3f fc 95 a6 3f 9c 87 c3 3f
       -0.12094055 0.690617 1.3014522 1.527576
0003f0 a7 9a 6b bf a6 ec 09 40 b6 b4 da 3f f5 0b 33 3e
       -0.92032856 2.1550689 1.7086399 0.1748503

bias f4 [500]
000000 df f8 dd bf 73 31 5d 3f 1b 1e 8e 3f 8a c0 4b 3d
       -1.7341574 0.8640358 1.1102937 0.049744166
000010 83 8e 71 3f ee a7 7a 3e 40 9d 82 3f ec f6 c5 bf
       0.9435808 0.24478123 1.0204239 -1.546598
000020 44 68 e4 3e 2a 1e 02 3f 10 0d 1f 3e ae be 5c 3e
       0.44610798 0.50827277 0.15532327 0.21557114
000030 81 95 5d bf 9d be 21 3f 35 1e bd 3f 9c ac c0 3e
       -0.8655625 0.6318148 1.4774843 0.3763169
000040 01 99 d8 bf 79 c9 71 3f e3 bd 15 3f b8 65 d7 3f
       -1.6921693 0.9444805 0.5849287 1.6827917
000050 79 44 0b 3f 40 00 ba bf 35 c1 12 3f a0 eb 5e 3f
       0.54401356 -1.4531326 0.5732606 0.87078285
000060 48 24 82 3f 39 b4 95 3e f5 96 9f 3f 69 53 8f 3f
       1.0167322 0.2923906 1.2467943 1.119733
000070 9a aa 3d 3f d3 61 87 3f 7f 37 11 3f b5 19 2d 3f
       0.7408844 1.0576729 0.56725305 0.6761735
000080 ee 0f a3 3f 56 13 2f 3f 8d 7f 60 3e 20 49 32 bd
       1.2739236 0.6838888 0.21923657 -0.04352677
000090 b5 68 56 3f 72 3d 0c 3f b9 22 44 3f de c8 c7 3d
       0.8375352 0.5478126 0.7661548 0.09755109
0000a0 f2 bd 8d bc 3e e0 40 3f e6 07 b9 3e 4e 75 06 3f
       -0.017302487 0.75342166 0.3613884 0.5252274
0000b0 db 3b 07 3f ef 37 2f be 38 93 a8 3e 2f 27 9f 3f
       0.5282571 -0.1711118 0.3292482 1.2433833
0000c0 2b 5f 3a 3e ce fb f5 3a c8 ad a8 3e 73 07 0d 3f
       0.18200366 0.001876706 0.32945085 0.5508949
0000d0 e4 49 81 3f 06 96 5b 3f ed 12 98 bc 3d 5a 80 3f
       1.0100675 0.8577579 -0.018563712 1.0027539
0000e0 7e 0f 14 3f d5 a3 9f 3e e8 12 c1 bf af c4 36 bf
       0.5783614 0.3117968 -1.5083895 -0.71393865
0000f0 8d 43 bf 3e c8 0c 2e 3f e6 ec 0c 3f b3 48 ba be
       0.37356225 0.6798825 0.5504898 -0.3638359
000100 ce 8d 84 3e 54 b2 64 3f 66 3f d4 3e 4f df b8 bc
       0.25889438 0.8933461 0.4145462 -0.02256742
000110 99 42 02 c0 7c f4 a1 be cc 21 c5 3e 7b 8e 68 3f
       -2.0353148 -0.3163184 0.38502347 0.9084241
000120 c9 ef fd 3e cd 84 95 3f 1f af dc bf 9e 0b 2b 3f
       0.49597004 1.1681153 -1.7240943 0.668146
000130 f3 8e b1 be b7 c6 61 3f 14 a9 a7 bf cc f8 33 bf
       -0.34679374 0.8819384 -1.3098474 -0.7030151
000140 81 57 7c 3f 32 45 1d 3e 51 47 89 3f 5c 24 49 3f
       0.9857102 0.15358427 1.0724889 0.78571105
000150 de 27 1d 3f 25 c7 96 3f 02 70 86 3f f5 41 4f 3e
       0.6138896 1.1779524 1.0502932 0.20240004
000160 5f 7b 94 3f 41 0b 47 3f a2 3d 54 3f 47 1f 38 3f
       1.160015 0.7775155 0.82906544 0.71922725
000170 3a 3e 86 3f 4a e7 44 3f 04 ac aa 3e bb 48 37 3f
       1.048774 0.7691542 0.33334363 0.7159535
000180 90 2e 81 3f 71 a1 6d 3f 30 5e 6f 3f 95 6f cf 3e
       1.0092335 0.92824465 0.93503094 0.40514818
000190 a4 3e fd 3f fb 31 16 3f f5 3e 82 3f 49 81 8b 3f
       1.9784741 0.58670014 1.0175463 1.089883
0001a0 76 1d a2 3f e1 3b 81 3f 39 c1 4c 3f 1c cf 5e 3f
       1.2665241 1.0096399 0.79982334 0.87034774
0001b0 25 89 a3 3e b9 bf 97 bf 4e 2d d4 3e 11 5e b2 3e
       0.3194057 -1.1855384 0.41440815 0.34837392
0001c0 6e bb 36 3f fe ff 3f 3f c4 e3 0e 3f 1b 24 80 3f
       0.71379745 0.7499999 0.5581629 1.0011019
0001d0 35 d6 5e 3f 80 26 f3 3e da cd b8 3e 27 61 4c 3f
       0.87045604 0.4749031 0.36094552 0.7983574
0001e0 99 34 96 3e 88 cc 40 3f d4 b7 a3 3f a4 59 8d 3e
       0.29337004 0.7531209 1.2790475 0.27607453
0001f0 4b ec 8b 3f d4 18 49 3f 81 1f 38 3f d6 d7 0e 3f
       1.0931486 0.7855351 0.7192307 0.5579809
000200 5a 68 62 3f 1a 96 60 3f 29 64 a2 bf cf f0 90 bf
       0.8844048 0.87729037 -1.2686816 -1.1323489
000210 91 29 58 3f 72 86 97 3e a9 ed 06 3f bf 26 c5 3f
       0.84438425 0.2959476 0.5270639 1.5402449
000220 e0 92 26 3f db 2a e7 3e 33 76 30 3f 70 25 88 3f
       0.65067863 0.45149884 0.6893036 1.0636425
000230 9e 01 35 3f 1a 3f 28 3f 1a c6 dd 3e dd 50 0a 3f
       0.7070559 0.65721285 0.43315202 0.5402964
000240 0a e4 93 3e 56 22 98 3f 90 79 1d 3f e3 28 65 3f
       0.28884917 1.1885478 0.61513615 0.89515513
000250 5c 43 46 3d 38 4e 49 be 8c 7f 1e 3e 42 4c 96 3f
       0.048404083 -0.19658744 0.15478343 1.1742022
000260 fa 83 6e 3e f8 a4 fc be 97 55 8f 3f 35 c6 0a 3f
       0.23292533 -0.4934461 1.1197995 0.5420869
000270 f1 e3 da 3e b3 96 36 3f 96 42 8e 3f d4 f5 10 3f
       0.4275203 0.713237 1.111407 0.56625104
000280 ee 13 ab be ce 7c 41 3f 0f 1b 1c 3f 99 b6 82 3f
       -0.33413643 0.7558106 0.6097879 1.0211974
000290 fc bc 90 3f 56 f8 f8 3f 86 fb 57 bf e8 74 13 be
       1.1307673 1.9450786 -0.8436817 -0.14400065
0002a0 62 a3 95 3f 48 9c 1c 3f 11 ee 8c 3e 01 62 94 3f
       1.1690485 0.61175966 0.2752538 1.1592408
0002b0 49 f4 6e 3f 36 9a 5a 3f 9e 60 9d 3f 03 03 80 3e
       0.933415 0.8539156 1.229511 0.25002298
0002c0 7c 06 2b 3f c9 fe 55 3f b1 26 3e 3f e8 ef 2e 3f
       0.6680677 0.83591896 0.7427779 0.6833482
0002d0 52 fa 30 3f 30 87 59 3f 98 cf 83 3f 8c 91 1b 3f
       0.6913196 0.84971905 1.0297728 0.6076896
0002e0 86 e2 de bf 79 7e 47 3f f7 4b 1b 3f 7d 1b 64 be
       -1.741288 0.77927357 0.6066279 -0.22276111
0002f0 a7 4b 8f 3f 2d 5a 20 3e 4b e6 18 bf a4 37 b2 3f
       1.1194962 0.156594 -0.597264 1.392323
000300 6e a7 d7 3f 5c 3d 85 3e 33 db e0 be 90 22 40 3f
       1.684797 0.26023376 -0.43917236 0.7505274
000310 3d 6d cc 3f 1c ff e8 bf cc cd 90 3f 1f ec 9f 3f
       1.5970837 -1.8202853 1.1312804 1.2493933
000320 fb 2e a3 3e b8 0b 8b bf a0 6d 81 3f f7 0b 92 3f
       0.3187178 -1.0862951 1.011158 1.1409901
000330 58 fe 97 3f 0f 5e c5 3f f1 39 1f 3f d3 2b 77 3f
       1.1874495 1.541933 0.62197787 0.96551245
000340 ba 91 33 3f 39 81 8c 3f 95 41 f8 be 44 58 82 3f
       0.70144236 1.0976936 -0.48487535 1.0183187
000350 76 b2 4e 3f 82 7e 14 3f ae 38 76 3f bf d7 2e 3e
       0.8074106 0.58005536 0.96180236 0.17074488
000360 4c 27 ba 3e a0 8b 88 3f 2f b8 a4 3f 59 27 9b 3f
       0.36358106 1.066761 1.2868708 1.2121383
000370 95 a0 bd be 00 03 1d 3f b9 ff 42 3f b4 32 0e 3e
       -0.37036577 0.613327 0.7617145 0.13886529
000380 9d 60 90 3d 9c 70 5a 3d 52 d5 92 3e 6f e4 20 3f
       0.070496775 0.05333005 0.28678375 0.6284856
000390 69 9e 96 3e 4d 1c e8 3e cc 08 a9 3f d3 35 65 3f
       0.29417732 0.45334092 1.320581 0.89535254
0003a0 ab 8e bf 3e 70 10 80 3f d5 fd 4e 3f 44 1f ec bf
       0.37413535 1.0005016 0.80856067 -1.8447042
0003b0 97 85 1f 3f 39 ac 41 3f 56 09 ea 3e 43 21 88 3f
       0.62313217 0.75653416 0.45710248 1.0635151
0003c0 90 a5 95 3f f9 6e f1 3e fb 7d 16 3f 13 69 d2 3d
       1.1691151 0.47154978 0.5878598 0.102739476
0003d0 da 51 6d 3f 93 11 54 bf a2 3e 31 3f d4 8d bd 3e
       0.9270302 -0.82839316 0.69236195 0.3702227
0003e0 c6 86 36 3f fa a2 67 3f d4 71 1c bf 11 4c 44 3f
       0.712994 0.9048306 -0.6111119 0.7667857
0003f0 6d 0f 9f 3f 51 54 dd bf 75 20 47 3f 36 6d 2f 3f
       1.2426583 -1.7291356 0.777839 0.6852602

weight f4 [50, 500]
000000 ef 47 1f c0 45 d6 44 3e 39 8d 92 3e 25 fe 2a bc
       -2.4887655 0.19222362 0.2862337 -0.010436569
000010 6c 39 d6 3e ce ee 42 3e 21 c5 9e 3e 06 ac f3 3f
       0.41840684 0.1903641 0.31009772 1.9036872
000020 f7 9a 1e 3e cd ab 5e 3e 01 4d 14 3e 64 99 91 bf
       0.15488802 0.21745224 0.144825 -1.1374936
000030 c7 8b 0a c0 b9 37 b1 3e b1 22 37 bf 85 c0 76 bf
       -2.1647813 0.34612826 -0.7153731 -0.9638751
000040 16 f0 f5 3f db cb 85 3e 99 6c 9a 3e 3c 5e 75 bf
       1.9213893 0.26132092 0.30160978 -0.95846915
000050 8f b7 c6 3e 81 d4 e5 3f af 7b 7e 3e 8f 2d db 3e
       0.3881192 1.7955476 0.24851869 0.42808196
000060 d3 20 6f bf 54 20 d4 3d d6 b6 c3 3e 7f 04 3f 3e
       -0.9340946 0.103577286 0.3822543 0.18654059
000070 22 a3 48 3e 37 9f 63 3e 17 ed 62 3e 45 67 8d 3e
       0.1959348 0.22228704 0.22160755 0.2761785
000080 16 f8 94 3e 3a c6 47 3e b9 a0 43 3e 6c 5c b0 3d
       0.29095525 0.19509211 0.1910428 0.08611378
000090 86 af 08 3e 3f f8 3c 3e 64 2d 60 3e 2a ce 3c 3e
       0.13348207 0.18454073 0.21892315 0.1843802
0000a0 d2 72 87 3d 85 2e 96 bf eb 82 ab bf 36 2d a4 3e
       0.06613697 -1.1732947 -1.3399328 0.32065743
0000b0 ec a2 d4 3e 2f 07 80 3e ca 84 d9 3e 70 3a 1b bf
       0.4153055 0.2500548 0.42484123 -0.60636044
0000c0 cf bf 94 3e 39 c6 1b 3f 72 eb b4 3e c6 8d a8 3e
       0.29052588 0.6084934 0.3533588 0.32920665
0000d0 50 04 2c 3e 50 fe 8c 3e 20 8f c0 ba c9 16 da 3e
       0.1679852 0.27537775 -0.0014691092 0.4259551
0000e0 75 ae 84 3e 5f d6 e6 3e 35 f2 ea 3f ae 20 68 bf
       0.2591435 0.45085427 1.8355166 -0.90674865
0000f0 93 c5 31 3e 11 0b 8f 3c e1 4a 6c 3e 9e ae 50 bb
       0.17360525 0.017461332 0.23075439 -0.0031842361
000100 34 0d 91 3e f1 dc 15 3f fc cf bf 3d 56 44 e0 3d
       0.28330386 0.58540255 0.09365842 0.10950534
000110 03 ed 0a c0 35 b9 90 3e 22 58 88 3e dd 9d 19 3f
       -2.170716 0.28266302 0.2662974 0.60006505
000120 01 7c a0 3e 3d b1 40 3f 50 56 0a 40 00 45 58 3f
       0.31344607 0.75270444 2.161518 0.84480286
000130 9b 60 3c bf 5f 47 cc 3e b1 c5 ba bf 5e 11 08 bf
       -0.7358491 0.39898202 -1.4591581 -0.531515
000140 f0 07 00 3f 5b b0 1e bf d7 c0 0c 3f 99 41 53 bf
       0.5001211 -0.6198785 0.5498175 -0.8252197
000150 a9 ff fd bf 56 ba fb 3e 03 4a 88 3e 52 e2 d2 3d
       -1.9843646 0.491656 0.26618966 0.102970734
000160 79 65 e5 3e a1 c1 17 bf 5a 75 d1 3e 9e e1 92 3e
       0.4480398 -0.5927983 0.40909845 0.28687757
000170 1f 66 ad bf a4 e0 8d 3e 6e 67 a2 3e 0f a9 cb 3e
       -1.354679 0.2771045 0.31719536 0.3977742
000180 67 24 09 3f a0 ca 02 3e c8 97 bf 3e c1 d3 1e 3e
       0.5357117 0.12772608 0.37420487 0.15510465
000190 5f 27 91 bf 7a 79 87 3e 70 0b b8 3e 85 05 84 3e
       -1.134014 0.26459867 0.35946226 0.2578546
0001a0 d3 c2 e7 be d5 23 38 3e eb 6c ae 3e 40 1d 76 3e
       -0.45265827 0.17982419 0.34067473 0.24034595
0001b0 51 48 56 bf b9 24 c9 3f 58 46 bb 3d 1b 77 bb 3e
       -0.83704096 1.5714332 0.091442764 0.36614308
0001c0 6a d2 47 be df a3 88 3e 6c 20 e8 3e d0 cf ed 3e
       -0.1951386 0.26687524 0.45337236 0.4644761
0001d0 6a 16 37 3e 8a 8d 6f 3e 1e d8 d7 3e c5 64 90 bf
       0.17879644 0.23393837 0.42157072 -1.1280752
0001e0 19 5a 5b 3e 0c c8 30 3e 25 66 10 bf 3a 9e ff 3e
       0.21421088 0.17263812 -0.5640586 0.49925405
0001f0 0c f2 aa 3e 1c fd 35 3e 1d ac 8c 3e 6a c8 4a 3e
       0.33387792 0.17772335 0.27475062 0.19803014
000200 ec 39 f6 3e 54 b1 5f 3e eb 26 c6 bf a5 fa 0d c0
       0.48091066 0.21844989 -1.5480627 -2.2184231
000210 f1 71 e2 3e 2d 54 9c 3e 3d 7c 2f 3e 3e 8d 51 bf
       0.44227555 0.3053297 0.17137237 -0.81856143
000220 43 de a8 3e 60 60 b2 3e 1c 3d 67 3e 0a 1b f5 3e
       0.32982072 0.34839153 0.22581905 0.47872192
000230 f5 f4 96 3e ba 86 7d 3e e8 31 41 3e 78 88 09 bf
       0.29483762 0.24758425 0.18866694 -0.5372386
000240 bd 77 d6 3e 10 37 95 3e be 36 8d 3e 9c 27 8b 3e
       0.41888228 0.29143572 0.27580827 0.27178657
000250 38 e3 fa be 8c f5 01 3f 3d 7b c9 3d 6b 45 fb 3e
       -0.4900148 0.507653 0.09837959 0.490764
000260 ce b8 a8 bf a8 cf c6 3e 11 c0 9d 3e 04 35 aa 3e
       -1.3181398 0.38830304 0.30810598 0.33243573
000270 9f 38 83 3f b5 02 63 3e cb 74 39 3e df ff 48 3e
       1.0251654 0.22169001 0.18110959 0.19628857
000280 0b b8 8e 3f bb eb 12 3e 84 3e ac 3e 84 a2 18 3f
       1.1149915 0.14347737 0.33641446 0.5962298
000290 0d cb 3f 3e e8 02 bb bf 8b 88 21 bf 8c ef 47 3e
       0.18729801 -1.4610262 -0.63098973 0.19524974
0002a0 74 17 c9 3e 50 a6 83 3e 67 e8 09 3f 35 fe e8 3e
       0.39275706 0.25712824 0.5387024 0.45506445
0002b0 85 4f 04 3e ad 67 84 3e 1f c4 e8 3e 7e c5 24 3e
       0.1292096 0.25860348 0.4546213 0.16090962
0002c0 a8 60 93 3e 43 7f d2 3e 1c 91 71 3e 2a 8c 41 3e
       0.2878468 0.41112718 0.23590511 0.18901125
0002d0 16 96 29 3f 75 58 cc 3c 8f e8 f6 3e 15 ce 9f bc
       0.6624464 0.024944523 0.48224303 -0.019507447
0002e0 48 ed 20 c0 2d 1a fe 3d f9 f2 ab 3e b8 39 c2 3f
       -2.5144825 0.124073364 0.3358381 1.5173864
0002f0 14 04 e3 3e 1d 16 68 3d ea 1e df 3e a7 c1 38 3f
       0.4433905 0.056661714 0.43578273 0.7217049
000300 09 f5 87 bf 2c d7 89 3e 7f d3 f8 3b b9 2f 9d 3e
       -1.0621654 0.26921976 0.0075935717 0.30700472
000310 04 20 69 bf 00 23 c1 bf a6 25 f1 3e b8 2e 49 bf
       -0.91064477 -1.5088806 0.47099036 -0.7858691
000320 12 9a d3 3d ec 41 a8 bf 41 00 b2 3e ac 0e fa 3e
       0.10332121 -1.3145118 0.3476582 0.4883932
000330 ae c3 95 3e 7b af 9a bf 20 3b 0c c0 07 2f 89 3d
       0.29250854 -1.2084802 -2.1911087 0.06698423
000340 94 45 ac 3e cd c8 f4 3e 0f 4c a0 3e 82 ef f2 3e
       0.33646834 0.4780945 0.31308028 0.47448355
000350 fd d2 f1 3e 61 d5 56 3e e7 4b 85 3e 55 09 56 3e
       0.47231284 0.20979835 0.2603447 0.20901997
000360 e8 8b 92 3e 44 8f e6 3e 22 66 d8 3e ca eb c1 3e
       0.28622365 0.45031178 0.4226542 0.37875205
000370 20 43 33 bf 21 61 a9 3e 53 e0 67 3e ef 79 9c bf
       -0.700243 0.33081916 0.22644167 -1.2224711
000380 8f 47 c0 3e 2d 59 66 3f 3c 36 eb 3e ad 64 45 3e
       0.37554595 0.8997982 0.45939815 0.19276686
000390 6c 19 ed 3e cc 8c 06 bf 32 62 84 bf fb 45 b1 3d
       0.46308458 -0.5255859 -1.0342467 0.08655926
0003a0 9c 47 de 3d d7 01 9b 3d 1e 2a 25 3f cf 66 0c 40
       0.10853502 0.0756871 0.6451739 2.193775
0003b0 ed cf 92 3e cc 23 6e 3e 1c 2b 4b 3e 0d f2 b6 3e
       0.2867426 0.23255843 0.19840664 0.35731545
0003c0 e5 d5 35 bf fa cd d3 3d 91 a3 b9 3e 95 83 83 3e
       -0.710295 0.10342021 0.36257604 0.25686327
0003d0 04 8a 1b 3f 64 07 0d c0 98 51 88 3e c8 08 2c bf
       0.6075747 -2.203576 0.2662475 -0.672009
0003e0 3e 64 71 3e f6 ed 5b 3e fe 87 34 3f 4e ef 1d 3e
       0.23573396 0.21477494 0.7052001 0.15423319
0003f0 8f cd 8f 3e 0c 78 0b 40 1c 49 20 3f 26 ec 95 3e
       0.28086516 2.179202 0.62611556 0.2928173

bias f4 [50]
000000 19 24 73 3e 04 d1 23 3e 1f a6 01 bd ec 4f 45 3e
       0.23744239 0.15997702 -0.031652566 0.19268769
000010 89 20 4b bd b5 51 71 3e be 5c 92 bc 4c 8d 63 bd
       -0.049591575 0.23566325 -0.017866489 -0.055554673
000020 9b a9 7b bc 0a 46 20 bd c6 d9 37 bd 3a 92 8c bc
       -0.015360261 -0.039129294 -0.04488542 -0.01715957
000030 de d7 69 3e 15 23 40 3a 64 c0 6d 3e df 83 4a 3e
       0.22836253 0.00073294464 0.23217922 0.19776867
000040 74 e2 54 3e 7e 4d 62 3e 6b 40 a1 3b 2b 78 47 bc
       0.2078951 0.22099873 0.0049210093 -0.012174646
000050 a6 2c aa bc ea b3 30 3f c3 9f 29 bd d9 ea 7d 3e
       -0.020773243 0.6902453 -0.041412126 0.24796619
000060 83 57 6b 3e fc 57 78 3e 95 0f 46 bd de 7a b5 3c
       0.22982602 0.24252313 -0.048354704 0.022153314
000070 12 55 59 bd 33 30 5b 3e 5b 5b 49 3e 48 81 cb bc
       -0.053059645 0.21405105 0.19663756 -0.02484192
000080 61 8d 5e 3e 9a 92 50 3e 0f 0f 4d bc 19 bf 5d 3e
       0.2173362 0.20368424 -0.012515797 0.21654929
000090 01 a2 6d bc 9f 6b 51 3e 3a 8d 4f 3e 9c 57 1d bd
       -0.014503957 0.2045121 0.20268717 -0.03841363
0000a0 43 a2 72 3c 42 35 2b 3c 47 ba 59 3e d2 0e 42 bd
       0.014809194 0.010449709 0.21262465 -0.047377415
0000b0 54 85 30 3e 7e c8 61 3e 83 0b 48 3e b2 14 aa bb
       0.1723836 0.22049138 0.19535641 -0.0051904554
0000c0 7b 35 89 3e 71 a3 71 3e
       0.26798615 0.23597504

weight f4 [1, 50]
000000 ca 1c bf 3f fb 75 d1 3f 77 60 44 bd d8 a7 b1 3f
       1.4930661 1.636413 -0.04794356 1.3879347
000010 03 f5 61 bc 19 d9 c9 3f 5b 1e ca bd f5 2b 98 bb
       -0.0137913255 1.5769378 -0.09869071 -0.004643912
000020 3e da 4a bd ac 25 a0 bc 02 85 99 bd ad 49 a5 bd
       -0.04952454 -0.019549213 -0.07496072 -0.08070693
000030 6c 96 b6 3f e6 3e e7 bd c3 12 c5 3f 8b 06 ad 3f
       1.4264655 -0.11291294 1.5396351 1.3517622
000040 15 1a c1 3f 85 8f a7 3f 64 f4 5c bd 24 f6 5c 3c
       1.5086085 1.3090674 -0.053944007 0.013486419
000050 ca b2 e5 bd 76 51 02 40 49 71 3a bb 46 4b ad 3f
       -0.11215742 2.036222 -0.002844887 1.3538597
000060 d9 e6 b8 3f f8 89 bb 3f 30 f5 a0 3b b1 11 cd bd
       1.4445449 1.465148 0.004912041 -0.1001314
000070 75 74 9f 3b 17 a3 bd 3f 80 8f a3 3f 0a c3 e7 bc
       0.0048661777 1.4815396 1.2778168 -0.028291244
000080 7f 18 af 3f 11 a1 af 3f 8b 72 44 bc 84 08 ba 3f
       1.3679351 1.3721029 -0.0119902 1.4533849
000090 f2 a1 89 bd 5b 4e c5 3f 6e a1 c9 3f a6 fc c5 bc
       -0.06720342 1.5414537 1.575239 -0.024168324
0000a0 eb a2 e7 bd 69 9d f9 bd bf b7 b9 3f ca 37 7e bd
       -0.11310371 -0.12188227 1.45092 -0.062064923
0000b0 a0 ba c0 3f ff 5e a6 3f 73 49 af 3f dc 80 12 3b
       1.5056953 1.299774 1.369429 0.0022354638
0000c0 af 31 a9 3f b4 52 bc 3f
       1.3218287 1.4712739
