scripts/dof3.pt (torch, 17487 bytes, 7 tensors)

weight f4 [40, 3]
0	0xc0533ba2	-3.3005147
1	0x403b1647	2.9232347
2	0x3fb1f04d	1.3901459
3	0xbfa6a1e3	-1.3018154
4	0x401382ad	2.3048508
5	0x4007c224	2.1212244
6	0xbd3bf2ad	-0.04588573
7	0xc05fe5aa	-3.4983926
8	0xc0525828	-3.2866306
9	0xbf61e46c	-0.8823917
10	0x40ed93ab	7.424276
11	0xbcaa5b9d	-0.020795638
12	0x402d61ad	2.7090867
13	0x3f78c371	0.9717322
14	0x3ec2e8a2	0.3806811
15	0x3fb2afbe	1.3959882
16	0x3f66be97	0.9013457
17	0x4023c927	2.5591524
18	0xbf8cc186	-1.0996559
19	0xbfc6b039	-1.5522529
20	0x3e8d4def	0.2759852
21	0xbff8ed85	-1.9447485
22	0xbe70f091	-0.23529269
23	0xbf81a17e	-1.0127409
24	0xbfdd1deb	-1.7274755
25	0xbfa7e03f	-1.311531
26	0xbf37e916	-0.71840036
27	0xc00c8dec	-2.1961622
28	0xbfa0cff4	-1.2563462
29	0xbf075e48	-0.52878237
30	0xc013e07f	-2.3105772
31	0x4068f25f	3.6397932
32	0x3fc0013e	1.5000379
33	0xbf5110dc	-0.8166635
34	0xc09e18ce	-4.940528
35	0x3b780c81	0.003784925
36	0xc00d1251	-2.204243
37	0xc014dbb0	-2.3259087
38	0xbf8d1349	-1.102151
39	0x3e1a3912	0.15060833
40	0xbf9e8c14	-1.2386498
41	0xbfa40b8c	-1.2816024
42	0x3fb64e49	1.4242641
43	0x3fcb29b3	1.58721
44	0x3f83ba12	1.0291159
45	0xbdd6a03c	-0.10479781
46	0x401d696a	2.459559
47	0x3fd687ef	1.6760234
48	0xbd954af5	-0.072896875
49	0x4106df05	8.429448
50	0x3dc9bf95	0.098509945
51	0xbe69a0d8	-0.22815263
52	0x406fdeca	3.747973
53	0xbe8e149d	-0.27750102
54	0xbee8a4e4	-0.45438302
55	0x3f684280	0.9072647
56	0x406828bf	3.627487
57	0xbe33277b	-0.1749553
58	0x3df9d1c5	0.121982135
59	0xc030edf1	-2.7645228
60	0x3ee1b631	0.44084314
61	0x3f65e182	0.8979722
62	0x3ffe1cce	1.985254
63	0xbfd54da8	-1.6664324
64	0x3fb503ae	1.4141748
65	0xbf6eed98	-0.9333129
66	0xbf7c7b88	-0.98625994
67	0xbe31c90b	-0.17361848
68	0xbed9bc8d	-0.42526665
69	0x3fdb355a	1.7125657
70	0xc05ce042	-3.4511876
71	0x3ead87b8	0.33892608
72	0xbfc5d749	-1.5456325
73	0x3f7613fd	0.9612425
74	0x3f8e1440	1.109993
75	0xc0c197d2	-6.0497828
76	0xbe02999a	-0.12753907
77	0x3bb46e69	0.005506326
78	0xc023dd5f	-2.5603864
79	0xc0514ce4	-3.270318
80	0x3f1ba0ec	0.6079242
81	0x3c12f3a0	0.008969218
82	0x3eb6f39c	0.35732734
83	0xbca63d54	-0.020292915
84	0xbfa566b6	-1.292197
85	0xbff46a7f	-1.9095
86	0x389eaa09	7.5656986e-05
87	0xbdbcd9b8	-0.09221214
88	0x40ae1438	5.439968
89	0x403a9cba	2.9158158
90	0x3fc35e4b	1.5263151
91	0x3fd8c08a	1.6933758
92	0x3f807eb0	1.0038662
93	0x3f804aff	1.0022887
94	0xbf8c0eb1	-1.0941983
95	0x3f14cae2	0.58122075
96	0xc0391bf1	-2.8923304
97	0x403fb020	2.9951248
98	0x3fb4e215	1.4131495
99	0xbdd4caf3	-0.10390272
100	0xc0de6570	-6.9498825
101	0x3ebce9d0	0.36897135
102	0x3fb279dc	1.3943439
103	0x4003a7e5	2.0571225
104	0x3d8b9606	0.06815724
105	0xc0428338	-3.039259
106	0x400cf30a	2.202334
107	0x3f7db4d8	0.9910407
108	0xc00e18d0	-2.2202644
109	0x3f42fb35	0.7616456
110	0xbfc090ce	-1.5044191
111	0xbee81a98	-0.4533279
112	0xbf7dfe5a	-0.99216235
113	0xbd63d536	-0.055623256
114	0x3faa9e29	1.3329517
115	0xbf1a0e68	-0.6017823
116	0x40072e67	2.1122072
117	0xc0247f7d	-2.5702813
118	0x3ed1d19c	0.40980232
119	0x400924c7	2.1428697

bias f4 [40]
0	0x3aedc684	0.0018140827
1	0xbff4399f	-1.9080085
2	0xc0a68797	-5.2040515
3	0xc0b07949	-5.5148053
4	0xc02cf490	-2.702427
5	0xbffdf938	-1.984168
6	0xb98f143b	-0.00027290158
7	0x3ec567ea	0.38555843
8	0x3da98a7c	0.08278367
9	0x3fb1d3ce	1.3892763
10	0xc01352a8	-2.30192
11	0xbfbb1c93	-1.4618095
12	0xbc9106b6	-0.017703395
13	0x3e2d66ef	0.16933797
14	0x3f6d5625	0.9270957
15	0x3f6d5b60	0.9271755
16	0xc0845448	-4.1352882
17	0xbf36f214	-0.7146313
18	0xc022c57f	-2.5433042
19	0xbfee6844	-1.8625569
20	0xbd8dc492	-0.069222584
21	0xc0160ca8	-2.3445225
22	0x3eeb3e46	0.45945948
23	0xc04cd9a7	-3.2007844
24	0xc0125597	-2.286474
25	0xc011ead1	-2.279957
26	0xc08237bf	-4.069305
27	0x3ec0ca4c	0.3765434
28	0x3f1549fa	0.58316004
29	0xbfb4a9ae	-1.4114282
30	0x3d606120	0.054780126
31	0x3eaafcb0	0.3339591
32	0xbbf6dbff	-0.00753355
33	0xc0c2d97a	-6.0890474
34	0x3ef39c98	0.4758041
35	0x40003214	2.0030565
36	0xbf68d04e	-0.9094285
37	0xbfac6b3b	-1.3470224
38	0xc0203037	-2.5029428
39	0xbea91a3b	-0.33027825

weight f4 [40, 40]
0	0x3f19fa81	0.60147864
1	0x3f3f35e9	0.74691635
2	0xbe6a1c6f	-0.22862409
3	0xbd9dd0ea	-0.07705863
4	0xbdbf80f2	-0.09350766
5	0xbf07cb65	-0.5304473
6	0xbe63dfab	-0.22253291
7	0xbe33b132	-0.17548063
8	0x3ebd5880	0.36981583
9	0xbf0d1bc4	-0.5512049
10	0x3eeaf385	0.45888916
11	0x3daabd98	0.083369434
12	0xbf27993a	-0.6546818
13	0xbeab77bb	-0.33489785
14	0xbe7286c3	-0.2368422
15	0xbf8fae1d	-1.122501
16	0xbfa41926	-1.2820175
17	0x3ebd1544	0.36930287
18	0x3ec9e2e8	0.39430928
19	0x3e7511e0	0.239326
20	0x3f082144	0.5317576
21	0x3d920f0c	0.07131776
22	0xbe4825d1	-0.19545676
23	0xbf9fdef8	-1.248992
24	0xbe6611c6	-0.22467718
25	0xc00c6b13	-2.1940353
26	0x3ec28928	0.37995267
27	0x3e7373b9	0.23774613
28	0xbc837b7c	-0.016050093
29	0xbef055fb	-0.46940598
30	0x3e25caa1	0.16190578
31	0x3df9357a	0.12168403
32	0x3d82cde4	0.06386927
33	0x3d5cbd73	0.05389161
34	0xbea9bd33	-0.3315216
35	0x3f412abc	0.7545583
36	0xbe534994	-0.20633537
37	0xbdce2f39	-0.10067601
38	0x3f146164	0.57961106
39	0xbb2194b4	-0.0024655284
40	0xbe3e16d4	-0.18563396
41	0xbd697402	-0.0569954
42	0x3e0ef189	0.13959326
43	0xbdba2e8b	-0.090909086
44	0xbaba54ba	-0.0014215924
45	0x3f046e95	0.51731235
46	0xbcf589e6	-0.029972982
47	0xbdc35068	-0.09536821
48	0x3d20c247	0.039247777
49	0xbe6fe410	-0.23426843
50	0xbd81493d	-0.06312797
51	0x3d83873a	0.06422277
52	0x3dc2163c	0.09476897
53	0xbf35bb2e	-0.7098874
54	0xbe93f960	-0.28901196
55	0x3ec17996	0.37788075
56	0xbe9e6aa8	-0.30940747
57	0xbd895198	-0.06705016
58	0xbea4c52c	-0.3218168
59	0x3dba5cd7	0.09099739
60	0x3f141378	0.57842207
61	0x3d0de788	0.034644634
62	0xbde9fc07	-0.114250235
63	0x3e7f6285	0.24939926
64	0x3d002793	0.03128774
65	0x3c08d69c	0.008351948
66	0x3da59fde	0.08087133
67	0xbe3163f6	-0.17323288
68	0xbe1742b3	-0.14771537
69	0x3d61960b	0.055074733
70	0xbecf2294	-0.4045607
71	0x3cb46520	0.022020876
72	0xbe4d9343	-0.20075707
73	0x3e3066af	0.1722667
74	0xbf02f8b7	-0.5116076
75	0xbee80518	-0.45316386
76	0xbe26ef64	-0.16302258
77	0x3d229964	0.039697066
78	0x3ef8a4bc	0.48563182
79	0xbfa422b1	-1.2823087
80	0xbd938244	-0.072025806
81	0x3de50e43	0.11184361
82	0xbd728f19	-0.0592185
83	0x3d655147	0.055985715
84	0x3c8bdb74	0.017072417
85	0x3bd0e004	0.006374361
86	0xbcb46bf2	-0.022024129
87	0x3d4269a8	0.047464043
88	0xbdad9b24	-0.08476856
89	0x3d4e861f	0.050420877
90	0x3e05622a	0.13025728
91	0xbdafa5b6	-0.08576529
92	0xbbe552c3	-0.0069983914
93	0xbddc6d70	-0.10763061
94	0xbd484215	-0.048891146
95	0x3c7bc83b	0.015367563
96	0x3dc7e25c	0.097599715
97	0x3ce3b451	0.027795943
98	0x3d9e46ba	0.07728334
99	0xbe1d6c80	-0.1537342
100	0xbd9d1497	-0.07669943
101	0xbe0ab063	-0.13543849
102	0x3d24a309	0.040194545
103	0xbe180e28	-0.1484915
104	0x3caacb0b	0.020848772
105	0x3d418b88	0.047252208
106	0xbe0c37da	-0.1369318
107	0xbb93526c	-0.0044959094
108	0xbdd4de17	-0.10393923
109	0xbd76d525	-0.060261864
110	0xbe14e2e3	-0.14539675
111	0x3cb6dd2a	0.022322256
112	0xbe20386b	-0.15646522
113	0x3d18c383	0.03729583
114	0x3d677c04	0.056514755
115	0x3d0b73e3	0.034046065
116	0xbdf423af	-0.119208686
117	0xbe1575fc	-0.14595789
118	0x3dfb6921	0.12275911
119	0xbcc529b8	-0.024067745
120	0xbe0fa5f5	-0.14028151
121	0xbc0fa0eb	-0.008766393
122	0xbdf44b11	-0.1192838
123	0x3e19fbdc	0.15037483
124	0xbc5cba38	-0.013472132
125	0x3d462ba1	0.04838145
126	0x3dc9506a	0.09829791
127	0xbe229a49	-0.15879168
128	0xbdb91cd3	-0.09038701
129	0x3da1493e	0.07875298
130	0xbd922255	-0.071354546
131	0xbe1cbeae	-0.15307114
132	0xbd8abe52	-0.06774582
133	0xbc91c199	-0.01779251
134	0xbe44a97c	-0.19205278
135	0xbde717c8	-0.11283833
136	0xbdec1044	-0.1152654
137	0xbd3aca50	-0.045603096
138	0xbe00cba2	-0.1257768
139	0x3c614ed7	0.013751707
140	0x3db568c1	0.08857871
141	0x3da60096	0.081055805
142	0xbe15c468	-0.14625704
143	0x3dbc0144	0.09179929
144	0x3dfafb8c	0.1225501
145	0xbdd3765c	-0.1032531
146	0x3cf93bf1	0.03042409
147	0xbc6de9ae	-0.014521046
148	0x3c092112	0.008369701
149	0xbe0eda50	-0.13950467
150	0x3d7d8925	0.06189837
151	0xbc994389	-0.018708961
152	0xbdcd59e0	-0.10026908
153	0xbd934b01	-0.0719204
154	0x3dd3209a	0.10308953
155	0x3b990cb6	0.0046707047
156	0xbe13e3f8	-0.14442432
157	0xb99bea5a	-0.0002973851
158	0x3d6ed74f	0.058310803
159	0x3d83d69f	0.0643742
160	0x3f4faa2a	0.81119025
161	0xbfa3c8f3	-1.27957
162	0xbdf83109	-0.12118728
163	0x3fb57aa4	1.4178052
164	0xbf83e8ff	-1.030548
165	0xbf99f499	-1.202777
166	0xbf12e73c	-0.57384086
167	0xbfdb48ff	-1.7131652
168	0xbf9c1065	-1.2192503
169	0xbf94ab7f	-1.1614836
170	0x3de606a5	0.11231736
171	0xbe24e306	-0.16102228
172	0x3e878714	0.26470244
173	0xbffbf9b2	-1.9685576
174	0xbedcbacc	-0.43111265
175	0x3eda071e	0.42583555
176	0x3f997aae	1.1990564
177	0x3d5f5e9d	0.05453359
178	0xbcc0287d	-0.023456806
179	0xc002d8c4	-2.0444803
180	0xbfd2559d	-1.6432377
181	0x3f810cf6	1.008208
182	0xbf951739	-1.1647712
183	0xbdc0998f	-0.09404289
184	0xbf524530	-0.8213682
185	0xc00e6bb3	-2.2253234
186	0x3dda1212	0.10647978
187	0xbef2343a	-0.4730547
188	0xbf9fddca	-1.248956
189	0x3fddca39	1.7327338
190	0x3f00b30d	0.5027321
191	0xbfe99000	-1.824707
192	0x3f97682b	1.1828665
193	0xbe0403ae	-0.12892029
194	0xbf353fef	-0.7080068
195	0x3f486213	0.7827465
196	0xbfa159d2	-1.2605536
197	0x3d412db9	0.047162745
198	0x3f3ca9cb	0.73696584
199	0xbfccf395	-1.6011835
200	0x403fc254	2.9962358
201	0x3f670395	0.9023984
202	0xbea6a108	-0.32544732
203	0x3e9da04b	0.30786356
204	0xbef90d6a	-0.48643047
205	0x3dcbe288	0.09955317
206	0xbfb6ee5d	-1.4291493
207	0xc02459e0	-2.5679855
208	0xbff0d922	-1.8816264
209	0xc03b5fe9	-2.927729
210	0xbff65f3d	-1.9247814
211	0xc0373a1b	-2.8629215
212	0xbeac571f	-0.33660218
213	0xbf1ce535	-0.6128724
214	0x3f2ff2b7	0.6872973
215	0xbfa66d31	-1.3002073
216	0xbe57ad76	-0.21062264
217	0x3e6a918f	0.22907089
218	0x3ed65776	0.41863602
219	0x3ee4f589	0.44718578
220	0x3db2a058	0.087219894
221	0xbef666d4	-0.48125327
222	0xbed2921e	-0.41127104
223	0xbfc2b1eb	-1.5210546
224	0x3eefc6fd	0.46831504
225	0xc0820bc8	-4.063938
226	0xbd902bf7	-0.07039636
227	0x3e852583	0.26005182
228	0xc009ca62	-2.1529775
229	0xbdbbf642	-0.09177829
230	0xbf1d66d3	-0.6148502
231	0x3f6c7912	0.9237224
232	0x402bbbe0	2.683342
233	0xbe20ce4d	-0.15703698
234	0x3e640416	0.22267184
235	0xbf809aab	-1.0047201
236	0xbf7199fd	-0.9437559
237	0x3dc7f0e6	0.097627446
238	0xbf853385	-1.0406348
239	0x3e6894bc	0.22712988
240	0xbd94d931	-0.072679885
241	0xbd370366	-0.044680975
242	0xbf22d006	-0.6359867
243	0x3defef19	0.11715526
244	0xbf02fd1c	-0.51167464
245	0x3f53e23c	0.8276708
246	0xbeef3810	-0.4672246
247	0xbf366f67	-0.71263736
248	0xbf4e36e1	-0.8055249
249	0xbf603d50	-0.87593555
250	0xbddaf408	-0.106910765
251	0xbf799e55	-0.9750722
252	0xbeaad91d	-0.3336877
253	0x3ef9277e	0.48662943
254	0x3dede13d	0.116152264
255	0xbfebad2d	-1.8412224

bias f4 [40]
0	0x3f8e436a	1.1114323
1	0xbec5d144	-0.3863622
2	0xbe30f35d	-0.17280336
3	0xbdff5418	-0.124672115
4	0xc0179402	-2.3684087
5	0x40207fcc	2.5078
6	0x3f876bb7	1.0579747
7	0x3f50e531	0.8159972
8	0xbed1fbf8	-0.4101255
9	0xbf22d8ba	-0.6361195
10	0xbf25c240	-0.64749527
11	0xbf1db765	-0.6160796
12	0xbe9e6dd6	-0.30943173
13	0xbef0ba32	-0.47017056
14	0xbfc1d45c	-1.5142932
15	0x3e170bd7	0.1475061
16	0xbf15a9f1	-0.58462435
17	0x3d96c82d	0.07362399
18	0xc03d6539	-2.9593031
19	0x3e91c5b7	0.28471157
20	0xbd7eb879	-0.062187646
21	0xbed16733	-0.40899047
22	0xbfa3fab5	-1.2810885
23	0xbddceab0	-0.107869506
24	0xc015ab78	-2.3385906
25	0xbf26da60	-0.65176964
26	0x3f24238f	0.6411676
27	0x3cba011e	0.02270561
28	0xbdb53527	-0.08848029
29	0x3f722705	0.9459079
30	0xc05ee0e2	-3.4824758
31	0xbeade45d	-0.3396329
32	0xc06e9dfa	-3.7283921
33	0xbe50b6bf	-0.20382212
34	0xbe04e377	-0.12977396
35	0xbe94544c	-0.28970563
36	0x3f731cd0	0.9496584
37	0xbe34a137	-0.17639624
38	0xbf5c53d1	-0.86065394
39	0xbd1f34a9	-0.03886858

weight f4 [40, 40]
0	0x3d82b984	0.063830405
1	0xbd8fc146	-0.07019286
2	0x3e214334	0.15748292
3	0x3d2036db	0.039114814
4	0xbdbaabb6	-0.091147825
5	0xbd8132e8	-0.06308538
6	0x3dd574d5	0.104226746
7	0xbdf3862b	-0.11890825
8	0xbd7bf534	-0.06151314
9	0xbd4d3f01	-0.050108913
10	0xbcc3787f	-0.023861168
11	0x3df9da4f	0.12199842
12	0xbcecaecd	-0.028891945
13	0x3c896a1f	0.016774235
14	0xbdb378a8	-0.08763248
15	0x3db67a2b	0.089100204
16	0x3d4607a3	0.048347127
17	0xbca934f3	-0.020655131
18	0xbd617dae	-0.055051498
19	0xbdc0da50	-0.0941664
20	0x3def3f8d	0.11682043
21	0xbb156dfe	-0.0022801156
22	0xbe16bfb4	-0.14721566
23	0x3d4f541f	0.050617334
24	0xbd01aed6	-0.031660877
25	0x3ba40671	0.0050056507
26	0x3dc1f8e0	0.09471297
27	0x3cdc025c	0.026856594
28	0xbe18a164	-0.14905316
29	0xbd8fb750	-0.07017386
30	0x3c27d881	0.01024449
31	0x3d559719	0.05214605
32	0x3d2205ae	0.039556198
33	0xbdab0764	-0.08351019
34	0xbc474953	-0.012163478
35	0x3d7e4da0	0.062085748
36	0xbe09020b	-0.13379686
37	0xbdee1f22	-0.11627032
38	0xbdbae703	-0.09126093
39	0xbd944460	-0.07239604
40	0x3d2254f0	0.039631784
41	0xbdae0e97	-0.084988765
42	0xbe03a458	-0.12855661
43	0xbe08c4a0	-0.13356256
44	0x3d303ee4	0.043028727
45	0xbd3703c3	-0.04468132
46	0xbe0b228b	-0.13587396
47	0x3db0e3e7	0.08637219
48	0x3d78c772	0.06073708
49	0x3c32b4b7	0.010907344
50	0x3dbf1162	0.093294874
51	0xbd2657b5	-0.040610988
52	0x3c44c51d	0.012009886
53	0xbe275735	-0.1634186
54	0xbe11c14d	-0.14233895
55	0xbe044236	-0.12915882
56	0xbcf3564d	-0.029704237
57	0xbe2581e1	-0.16162826
58	0xbc6c2627	-0.014413393
59	0xbd77b193	-0.060472082
60	0xbd62edde	-0.05540263
61	0x3ca9a1d7	0.020707054
62	0xbdc65231	-0.096836455
63	0x3d325801	0.04354096
64	0xbde8cd9e	-0.11367343
65	0x3cc9c79b	0.024631312
66	0xbdae9d6a	-0.08526118
67	0x3e196305	0.14979179
68	0xbc97911c	-0.01850181
69	0xbe2e68ee	-0.17032215
70	0x3a99da1d	0.0011737976
71	0xbdbd83f4	-0.09253684
72	0xbdcaf777	-0.099104814
73	0x3d70ab94	0.05875738
74	0xbd94e917	-0.07271021
75	0xbe1e32c7	-0.15449058
76	0xbe314a95	-0.17313607
77	0x3d267175	0.040635545
78	0xbdecec18	-0.11568469
79	0xbd864569	-0.06556208
80	0x3dbcb68f	0.09214508
81	0x3dc36a37	0.09541743
82	0x3c2b9e87	0.010474808
83	0xbdbb30d3	-0.09140172
84	0xbd7cc4d6	-0.061711155
85	0xbd9227f3	-0.07136526
86	0xbe19d715	-0.15023454
87	0xbc6c8c16	-0.014437696
88	0xbd4fc28d	-0.050722647
89	0xbb818090	-0.0039520934
90	0xbce2b246	-0.027672898
91	0xbe174c50	-0.14775205
92	0xbd925202	-0.07144548
93	0x3dc34b2b	0.095358215
94	0xbe0fbd12	-0.14036968
95	0x3da3af18	0.07992381
96	0xbe1300c6	-0.14355764
97	0x3e0bd4c9	0.1365539
98	0x3b22b494	0.0024826871
99	0x3c692406	0.01422978
100	0x3dd63a75	0.104603685
101	0xbe459cf0	-0.19298148
102	0x3cdec0a1	0.027191462
103	0x3d31f199	0.043443296
104	0xbe15378c	-0.1457197
105	0x3da72fd3	0.081634186
106	0xbc313f8f	-0.010818376
107	0xbded680c	-0.11592111
108	0xbb94f477	-0.004545744
109	0xbdb211ae	-0.086947784
110	0xbd1724f7	-0.036900487
111	0xbbb6adc6	-0.0055749146
112	0x3d2eb020	0.042648435
113	0xbd9706b4	-0.073743254
114	0x3da5297b	0.080645524
115	0xbdac1da4	-0.08404091
116	0xbc968a67	-0.018376542
117	0x3db04fa7	0.086089425
118	0xbd8041f3	-0.06262579
119	0xbe84ba82	-0.25923544
120	0x3ba2588f	0.0049544047
121	0x3d6cb793	0.057792258
122	0x3ddaee8f	0.10690033
123	0x3e208ebb	0.15679447
124	0xbd6601c6	-0.056154035
125	0x3ca7a1b9	0.020462858
126	0xbdf1a682	-0.11799337
127	0xbda308f7	-0.07960694
128	0x3d8f4a74	0.06996623
129	0xbe0068f1	-0.12540032
130	0x3d74f10d	0.059800196
131	0xbdec076b	-0.11524852
132	0x3d75c313	0.06000049
133	0xbc5f6ce4	-0.013636801
134	0xbd53ab6d	-0.051677156
135	0xbdb338bb	-0.08751055
136	0xbd183ef1	-0.0371694
137	0xbe142d8f	-0.14470504
138	0xbd39e3a8	-0.045383126
139	0xbd43527f	-0.047686096
140	0x3de16eef	0.11007487
141	0x3d604985	0.054757614
142	0x3e04b9f6	0.12961563
143	0xbdfa8293	-0.12231936
144	0x3cefd779	0.02927755
145	0xbd86fe11	-0.06591428
146	0x3d860d30	0.06545484
147	0x3e1682e3	0.14698367
148	0xbc471c95	-0.012152811
149	0xbc8fd94a	-0.017559666
150	0xbc44baac	-0.012007397
151	0xbd6fd6a1	-0.058554295
152	0xbd808dd6	-0.06277053
153	0xbc8010cd	-0.015633011
154	0xbcf484b5	-0.029848436
155	0xbdfb15d4	-0.12260023
156	0xbcee63c3	-0.029100304
157	0xbdb71bbd	-0.089408375
158	0xbcc4f7bd	-0.024043912
159	0xbd10aba4	-0.03531994
160	0xbdd64c6e	-0.104637966
161	0xbd5c4991	-0.053781096
162	0xbd745c8f	-0.059658583
163	0x3cb8c250	0.022553593
164	0xbe1ee3be	-0.15516564
165	0xbd97aa12	-0.07405485
166	0x3e24c3aa	0.16090265
167	0xbd7c7a2f	-0.06163996
168	0x3dadd76f	0.08488356
169	0xbd1f0fe1	-0.038833503
170	0xbd4be61d	-0.04978
171	0xbd258923	-0.040413987
172	0x3bc571ba	0.00602552
173	0x3be52541	0.0069929664
174	0xbcd77d9f	-0.026305018
175	0xbe334b4b	-0.1750919
176	0x3df6f6b0	0.12058771
177	0xbcae58fb	-0.021282664
178	0xbe57bc53	-0.21067934
179	0xbde6a2bc	-0.11261508
180	0x3e076b63	0.13224559
181	0xbcb956dd	-0.022624427
182	0x3ce285bb	0.027651658
183	0x3dfda74c	0.12385425
184	0xbdca6646	-0.09882788
185	0x3cc628cb	0.024189373
186	0x3d458f6b	0.048232477
187	0xbe149b3c	-0.14512342
188	0x3d974acb	0.073873125
189	0xbe244d8e	-0.1604521
190	0xbd4d8cc3	-0.05018307
191	0xbe5590ed	-0.20856066
192	0xbdb14767	-0.08656197
193	0xbd80c106	-0.06286816
194	0xbde524c1	-0.11188651
195	0x3e519b04	0.2046929
196	0xbd9dcaea	-0.077047184
197	0x3e05d263	0.13068537
198	0xbd05d689	-0.0326753
199	0xbdb0c8cc	-0.08632049
200	0x3db811f8	0.08987802
201	0xbc91c8cb	-0.01779594
202	0xbdab9ce7	-0.08379536
203	0x3d9dfd5e	0.077143416
204	0xbdc58005	-0.096435584
205	0xbc5dd63a	-0.013539845
206	0xbdc9c637	-0.098522596
207	0x3dc7a5ec	0.09748444
208	0xbe043687	-0.12911426
209	0x3c6046a1	0.013688714
210	0xbc17ef85	-0.0092734145
211	0xbd3686ad	-0.04456203
212	0x3db08a07	0.086200766
213	0x3e0188dc	0.12649864
214	0xbe5aa05e	-0.21350238
215	0x3e175344	0.14777857
216	0xbd5a2d2d	-0.05326574
217	0xbdd9dff2	-0.10638417
218	0xbd0e0f03	-0.034682285
219	0xbd001080	-0.031265736
220	0xbc494841	-0.012285293
221	0x3e01ec2a	0.12687746
222	0xbe6da463	-0.2320724
223	0x3e13b13c	0.14423078
224	0xbc18e854	-0.009332735
225	0xbd9cacc5	-0.07650141
226	0xbe0fa147	-0.14026366
227	0x3da8fa69	0.08250887
228	0xbc28091b	-0.010256077
229	0xbdc7c9a8	-0.0975526
230	0xbd575dfb	-0.05257986
231	0xbe3ed27e	-0.18634984
232	0xbd572946	-0.052529596
233	0xbd73cfd5	-0.059524376
234	0x3d528ea1	0.051405553
235	0x3d215887	0.039391067
236	0x3c007db4	0.00784247
237	0x3d43c7b3	0.04779787
238	0xbc692ef4	-0.014232386
239	0xbec9bb00	-0.39400482
240	0x3aaae18d	0.001303719
241	0xbdd4728b	-0.1037341
242	0x3d9c81ba	0.07641931
243	0x3bdc592f	0.0067244987
244	0x3c9bc688	0.019015566
245	0xbcccd248	-0.025002614
246	0xbcef862c	-0.029238783
247	0xbd85c053	-0.065308236
248	0xbdbb3320	-0.09140611
249	0x3d29e282	0.04147578
250	0x3b8aa52c	0.004231116
251	0xbd2e258c	-0.042516276
252	0xbcf26a46	-0.02959169
253	0x3bff87d7	0.007798176
254	0xbbddfa70	-0.0067742392
255	0x3e07c2da	0.13257924

bias f4 [40]
0	0xbe524d41	-0.20537283
1	0xbe6e8a82	-0.23295024
2	0xbd9f8c6c	-0.07790455
3	0xbe225bf1	-0.15855385
4	0xbdf3be7c	-0.119015664
5	0xbe18aff0	-0.14910865
6	0xbedc6a27	-0.43049738
7	0xbdadb9f8	-0.08482736
8	0xbb738a6e	-0.0037161368
9	0xbe4f63cf	-0.20252918
10	0x401e404a	2.472674
11	0xbd90ae98	-0.07064551
12	0xbb4088a8	-0.0029378328
13	0xbcdb7807	-0.026790632
14	0xbe9134d3	-0.28360614
15	0xbd980618	-0.07423037
16	0xbe873c8e	-0.26413387
17	0xbdb780f6	-0.08960144
18	0xbe013a27	-0.1261984
19	0xbdfa1c05	-0.122123756
20	0xbe3af8ec	-0.18259019
21	0xbd92d477	-0.07169431
22	0xbec3eebd	-0.3826808
23	0xbde799e4	-0.11308649
24	0xbbed724d	-0.0072462917
25	0xbc86ebdf	-0.016469894
26	0x3fe622a9	1.7979327
27	0x3b2e6762	0.0026611914
28	0xbe922df2	-0.28550678
29	0x3b2c758f	0.0026315188
30	0xbf3bd14c	-0.73366237
31	0xbdde47a0	-0.10853505
32	0x3df055ba	0.11735101
33	0xbe5a77f5	-0.21334822
34	0xbe3581c4	-0.17725283
35	0xb87509f7	-5.8421832e-05
36	0xbe87f53b	-0.26554283
37	0xbdd36e43	-0.10323765
38	0xbe60e842	-0.219636
39	0x3d9e23e0	0.07721686

weight f4 [1, 40]
0	0x3b122a41	0.0022303017
1	0xbe0fd49c	-0.14045948
2	0xbe22d6fd	-0.15902324
3	0x3e0b3fe2	0.13598588
4	0xbe67f465	-0.22651823
5	0x3a1ee767	0.00060617033
6	0xbe18521d	-0.14875074
7	0x3c3cbe1c	0.011519935
8	0x3e6ccb3b	0.23124401
9	0xbe9bfe53	-0.3046747
10	0x3f97d33c	1.1861339
11	0x3a8017ca	0.0009772715
12	0x3e690126	0.22754344
13	0x3e186139	0.14880838
14	0xbe22a12f	-0.15881799
15	0xbdeba739	-0.115065046
16	0x3d4bcf4d	0.049758244
17	0x3d3545a2	0.04425586
18	0x39b02d68	0.00033603166
19	0xbc047b4d	-0.008086038
20	0xbd8fc0a4	-0.07019165
21	0x3b77a9cf	0.0037790423
22	0xbe1ad681	-0.15120889
23	0x3b237176	0.0024939454
24	0x3e2b8b72	0.16752413
25	0x3e092f8c	0.13397044
26	0xbf861d06	-1.0477607
27	0x3e1660d1	0.1468537
28	0x3e44ab3b	0.19205944
29	0x3e4bf876	0.19918999
30	0xbecf10d3	-0.40442523
31	0x3bf5124a	0.007478987
32	0xbe2b1c3a	-0.16709986
33	0xbbc80253	-0.0061037927
34	0xbb791c72	-0.003801134
35	0x3e88bbf7	0.26705906
36	0x3e0cc6ae	0.13747665
37	0x3ceb44e0	0.028719366
38	0xba1545a7	-0.0005694278
39	0x3e353150	0.17694592
