scripts/dof3sphere_shape2.pt (torch, 241031 bytes, 9 tensors)

weight f4 [500, 6]
00000000: db78 5b3c de84 18bb d116 8d3a c23c 2c3f
00000010: 2756 cf40 a43a 4dc0 c70c 06bd 6ca1 f7bd
00000020: aefd 9ebb 4999 7bc0 cfeb 9ec0 0c37 053f
00000030: daf1 b53c fd7e 3b3e c847 86bc 235e a9c0
00000040: eeaa 3640 371e 123f 301a 3640 52d3 dcc0
00000050: 3a92 ddc0 d620 f93f 308b 0c40 21d8 52be
00000060: 54ff 93be 508e f4c0 ac04 fcc0 5e60 46be
00000070: 3788 9e3f 784e d2bf b348 18c0 1db7 a940
00000080: 7d81 4f3d 44eb f6bf 27f2 c6bf 2a73 03bf
00000090: 079e 8fbe 2cb1 13c1 eb29 143e 8b22 60be
000000a0: 0613 8540 3ec6 97be 342c 2740 97e1 8bc0
000000b0: 473e a83d a9c8 0e40 af19 1cbc 0614 16bf
000000c0: d463 833d e91e 5dbf d017 a73d b71a 113e
000000d0: ccda c5c0 b182 ae3e 4d49 be40 3fed fc40
000000e0: cbd8 b240 4b8e b2bf 3486 3240 96d3 5540
000000f0: 4ce6 463d cc14 1a41 46d8 30be a408 9e3c
00000100: f44d 9fc0 556b dc3e c261 193c 85d1 5441
00000110: f240 2441 a9d7 00bd d12c aa40 db52 4ebf
00000120: 0e3c b6bc d2dc ce40 2088 d1bd 7628 e03d
00000130: a559 c640 9741 4cc0 b514 723d b4cd 053d
00000140: dc63 efba 6bc4 c0c0 80c9 683f 026e 98c0
00000150: 8f63 efbc 9ff4 45be 8256 273b 5865 3a40
00000160: 30ae 54c0 4148 c9c0 3376 a7c0 aeba a9c0
00000170: 90ef 73c0 5a9d 17bf a3d7 bebf 53d9 2bc0
00000180: a035 2abd 37db 313e 13a7 9f3b 9875 f940
00000190: ece2 ed3f 88d6 543e a423 98bd 9199 d940
000001a0: cd68 73bd 486f 9f3c 433c d040 7a29 01c0
000001b0: bbd6 59bf b007 0cc1 081c 993d fa84 afbf
000001c0: 37bc 1c3f 88b4 c740 6e87 6e3d d464 f7bd
000001d0: fa21 fd3c e1cd dfc0 b4de b9bf d0a4 f83f
000001e0: 2754 afc0 f89c c3c0 a24c 12be 1c86 42bf
000001f0: 1133 3f3e 1b4c 3140 1db8 3f3d d8ef 593d
00000200: 76cf 783b bfe7 6dc0 c5ff 9d3f 3121 d0c0
00000210: f0e9 0140 84e7 d53b bcf9 193d f190 9c40
00000220: d9ae 1a3e 7252 90c0 15d8 cdc0 52ca ea40
00000230: 1686 e63d 9fe0 4fc0 3bbd 553e 5898 1bbf
00000240: 6e9f 2141 0ec6 8fbe d4b3 9fbd 0a65 afc0
00000250: b84d 2dbe ca6d 5ac0 86d2 abbc 90a8 6cbd
00000260: 7f80 453c 5e5a 46c0 5daf dcc0 4c00 d9bf
00000270: 207d ffbc 9761 393e 7f8d e73b c680 953f
00000280: d0ce 3040 38e2 e440 d707 5140 b65f df40
00000290: c44d c740 68a7 4b40 9a3a a03f aee1 733e
000002a0: d2eb e53c 2ea9 b5bd ff9d 0dbc 5dcc 973e
000002b0: e12d 9ec0 cc9e 9d40 81bb f83c 7f0b 343e
000002c0: a140 2f3c bb4a 2bc0 a4a1 c83f 5f4a f340
000002d0: ce2c 8ebc 72e8 0a3c 08d7 95bb a630 3ebc
000002e0: b945 85bb 6123 04bd a86d e8bc 0c4a 123e
000002f0: fae5 513c 6349 debf ff7f b540 43a5 7bc0
00000300: b078 c83a fd8f f5bc ed8e db3a a570 013d
00000310: 4994 493c 49db 96b8 6801 8dc0 967c a1c0
00000320: 45ef 57c0 1c91 263f 1d87 cfbf 5fe8 1c40
00000330: 167d 78ba 4177 85bd 3472 4ebb 00b5 4bbf
00000340: e281 ccc0 f6dc 30c0 1432 2e41 782f adbd
00000350: a1f7 923c b4fa 7bc0 cdee c3bd 83bf c040
00000360: e16f c2bc e34e b3bd f9fe 11bc 4da1 9040
00000370: 70fb 8ac0 53a3 4640 1662 99c0 49ae d1c0
00000380: f9b4 c9be a07d 6a40 9cde b9bf 6fac 41bf
00000390: ccb3 67bc 7530 a43d eaa8 38bc 393e 3bc0
000003a0: cac9 b740 a278 06c0 6840 45ba 4958 d2bd
000003b0: 659f 61bc a18d 89c0 0d97 bdbf 4d5e 8f40
000003c0: daf8 a7bc 15b1 e93d b994 d5bc 3ba1 5ec0
000003d0: e03e a340 31ca b33f c436 d240 a4f9 f4c0
000003e0: 0fbb 03be d6f2 5e3e 1c30 433e 874c 5240
000003f0: 224b 5c3c bf95 4d3e 7780 563c 4929 a6c0
0.013395513 -0.0023272554 0.0010764246 0.6728021 6.4792666 -3.2067041 -0.03272703 -0.12091336
-0.0048520183 -3.9312308 -4.966285 0.5203712 0.02221005 0.18310161 -0.01639165 -5.2927413
2.8541827 0.57077354 2.8453484 -6.900796 -6.9241 1.9463146 2.1959953 -0.20590259
-0.28905737 -7.642372 -7.8755703 -0.19372699 1.238532 -1.6430197 -2.3794372 5.3036027
0.0506606 -1.9290547 -1.5542649 -0.513476 -0.28050253 -9.230755 0.14469115 -0.21888177
4.158572 -0.29643434 2.612073 -4.371288 0.082150035 2.2309973 -0.009527608 -0.58624303
0.06415525 -0.8637529 0.08158839 0.14170347 -6.1829586 0.34084085 5.946448 7.9039607
5.588964 -1.3949674 2.789441 3.3410392 0.048559472 9.630077 -0.17270002 0.01929123
-4.978266 0.43050638 0.009361686 13.301152 10.265856 -0.03145567 5.3179708 -0.8059518
-0.022245433 6.4644556 -0.10231042 0.10945217 6.198443 -3.1915033 0.05910178 0.032666877
-0.0018264013 -6.023977 0.90932465 -4.7634287 -0.029222278 -0.19331597 0.002553374 2.9124355
-3.3231316 -6.29007 -5.2331786 -5.304038 -3.8114967 -0.59224474 -1.4909557 -2.6851394
-0.041555047 0.1736878 0.0048722117 7.7956047 1.8584876 0.20784962 -0.07428673 6.799996
-0.059426118 0.019462243 6.507356 -2.0181565 -0.8509328 -8.751877 0.0747605 -1.3712456
0.61224693 6.2407875 0.058234625 -0.12079778 0.03089999 -6.9938817 -1.4521089 1.9425297
-5.4790225 -6.112911 -0.14287046 -0.75985885 0.18671824 2.77027 0.046806443 0.05320725
0.0037965453 -3.7172697 1.234368 -6.5040517 2.0299034 0.006527843 0.03759168 4.892693
0.15105762 -4.510064 -6.432627 7.3371973 0.112560436 -3.2480848 0.20872967 -0.60779333
10.101423 -0.2808079 -0.07797971 -5.481084 -0.16924179 -3.412951 -0.020974409 -0.05777794
0.012054562 -3.0992656 -6.8964067 -1.6953216 -0.031187594 0.18103634 0.007066428 1.1679924
2.7626228 7.1526146 3.2661035 6.9804335 6.228243 3.1820927 1.2517884 0.23816559
0.02806655 -0.08870159 -0.008643626 0.29648104 -4.9431005 4.9256344 0.030362846 0.1758251
0.010696561 -2.6764362 1.5674329 7.6028285 -0.017355349 0.008478271 -0.004572753 -0.011608278
-0.0040671495 -0.032260302 -0.0283726 0.14286059 0.012811178 -1.7366146 5.6718745 -3.9319618
0.0015294757 -0.029975886 0.0016750969 0.031601567 0.01230342 -7.1934024e-05 -4.4064217 -5.0464582
-3.3739789 0.6506517 -1.6213108 2.4516828 -0.00094790885 -0.065168865 -0.0031501176 -0.7957306
-6.390855 -2.7634864 10.887226 -0.084563196 0.017940344 -3.9371767 -0.09567032 6.023378
-0.023734989 -0.08755281 -0.008910888 4.51969 -4.343193 3.1037185 -4.7932234 -6.552525
-0.39395884 3.6639175 -1.452106 -0.7565374 -0.014141988 0.08017055 -0.011270741 -2.9256728
5.7433825 -2.1011128 -0.0007524551 -0.10270745 -0.013770913 -4.2985387 -1.4811722 4.4802613
-0.020504404 0.11410729 -0.026071893 -3.4785907 5.101425 1.4046079 6.5691853 -7.6554737
-0.12864326 0.21772322 0.19061321 3.2859209 0.013445647 0.20076655 0.013092152 -5.1925397

bias f4 [500]
00000000: 4e85 2b3f fcbc 3fbf 620c 71bf ef56 61c1
00000010: 39e1 19c0 a296 44c0 986e f0bf 3b10 fb40
00000020: daed 93bd f00d ebc0 5801 72c1 b373 40c1
00000030: 89da 3340 d11a 813f e220 d83e b3ca e9c0
00000040: 342e 10bf 5887 b5c0 0b12 6ac1 a930 8abf
00000050: 0d26 2a40 fc6d ab3f 3ca5 91c0 2db2 bbc0
00000060: 3f16 b440 6088 b33e 3566 bdbf 111e 67c0
00000070: ff67 84bf 99c5 c6bf 358a 2dbe 1b3b 383f
00000080: ef0e 0abe ae9e 78c0 4e3b f33e 7414 45c1
00000090: b400 29bf c3c8 a1bf ab09 9cbe 9020 73bf
000000a0: 5da1 7ebf 5dc8 d440 f655 f3bd 54cb 62c1
000000b0: 4dd8 47c1 9953 7cbf 4bbb 8940 c604 ae3f
000000c0: 7650 1fc1 25fc 89bf b5ed 3d40 2da2 28c1
000000d0: 96f1 53c1 6192 21be c554 91bf 3e93 5dbf
000000e0: cf72 8ec1 8fa3 943e ab4b 5cbc 9511 cf3f
000000f0: 8219 79c1 b812 16c0 815d 3e3e 1b7f 1ebe
00000100: a7d1 72c0 a571 533d 0220 333e 65ea 293e
00000110: 1012 0a40 3f48 9d3f 8f0e 14c1 3ec0 94c1
00000120: 5424 79c0 b8d5 adbe 7263 ccbf d561 e6bf
00000130: d1c6 f040 5d30 383f 2c23 01c1 73c0 c43f
00000140: 224f 77c0 21ec 6cbd 5b71 afc1 a1d1 86c1
00000150: 5243 cd3f 2fb5 463f 4c35 1c3e afee ebc0
00000160: 5801 9abe 7ad5 7fc0 4ab6 c83e c237 4640
00000170: ea83 67c1 e964 203f c1d1 3bbf bd61 d6bd
00000180: 12dc f63d 0fab 37c1 ac5e 583f 0096 a8c0
00000190: 7dbb 19c1 e210 d1bf 4012 5e3e f317 1bbf
000001a0: 0aa6 f5bf b3af e63e 2485 73bf e8ff 9fc1
000001b0: bb77 e3be eb99 7e41 40e0 72c1 249b 0940
000001c0: 075a 263d 1cc9 0dbf 423a acbe 443b 9d3f
000001d0: 2d9d 72c1 0e08 9740 7387 f2c0 8b62 c13e
000001e0: 8b1c a1bf 8608 053f 29f2 b4be 1b38 4340
000001f0: a20b cfbf 695f f8bf 77cc 3bbe 6736 793f
00000200: 90b1 93c1 1cb4 98c1 23a1 f5bd e487 783b
00000210: 8877 c1bd c1ed e6be 6d1c 903f 9db7 8ac1
00000220: be9a 85c1 3ce8 2cbf c340 52bf 6d0a d1bf
00000230: a7ba c6be f2cc 41bf 2247 2dc1 9ac8 91c1
00000240: f409 73c1 020f 653f b2a1 993f 0a8a acbf
00000250: 292b 71be 3598 a9c1 379c 79c1 21b8 afbf
00000260: 0c45 6ac1 a783 b43e e89e 4240 067d d8c0
00000270: 5dfc 183e d1a7 c940 5f3e 52bf b6aa cebf
00000280: 768a 62c1 f4de d5c0 eeef f33e cf07 38be
00000290: 1584 6cc1 5adc 93c1 afe3 b0c0 085e 81c0
000002a0: f977 6740 2754 69bf b8b1 81bf 4085 7240
000002b0: 21a4 26c0 f911 0d40 4a15 22c1 5839 2940
000002c0: 9a04 51c1 5da1 d6bd 5108 f040 526f 1c41
000002d0: ed3e e6bf 13a7 b9bf d331 d5bf f0b1 6a3f
000002e0: b292 4c41 8ff5 2541 1d8d bcbd 7d04 d0c0
000002f0: 92c2 9ec1 35c0 0a41 572d 54c1 735f 89c1
00000300: a109 11be 5948 40c1 78f3 6740 7afd a7bf
00000310: c1b0 a73f 0f61 d6bf de7a 6641 4d0f b5bf
00000320: 2ead 23c1 c4a5 2cc1 1059 703d 7dd8 f1be
00000330: 1b3d 2540 f1e5 7fbf 6843 aabf c121 ecc0
00000340: 779a e5bd d6bc 623d df51 fcbf 858d a9be
00000350: d9b7 1b41 2584 e1c0 8327 2b3f 2330 43bf
00000360: 129f 6740 8ae2 a8c0 c74c 443f c94d 94c1
00000370: 3523 a4c0 52fb f4bf 3a64 40c1 195f babf
00000380: f950 54c0 8081 85c1 fdeb b43f fac4 58bf
00000390: 6a40 67c0 e1f5 2bc1 6686 1b40 00ef e0be
000003a0: 1f21 4bc0 5406 96c0 b560 99c1 1dd1 9e3c
000003b0: ff62 94c1 5ed5 39be e70c 4ec0 ec1a 1dc1
000003c0: e52d 63c1 369c fb40 7977 793f b4a7 adbe
000003d0: 6403 9dc0 5411 ebbf 69a2 123f 60a5 f7be
000003e0: f406 7240 d223 85c1 3346 fbbe 70a6 8ebb
000003f0: 46f1 3cc0 9833 49c1 848e 6840 7b9e 73c1
0.6700028 -0.7489774 -0.9415952 -14.083724 -2.4043715 -3.071694 -1.878375 7.8457313
-0.07223101 -7.3454514 -15.125328 -12.028247 2.8102133 1.0086309 0.42212588 -7.3059936
-0.563205 -5.6727715 -14.629405 -1.07961 2.6585724 1.339294 -4.55142 -5.8655
5.6277156 0.35064983 -1.4796816 -3.61121 -1.0344237 -1.5529052 -0.16947253 0.7196519
-0.13482259 -3.884685 0.47506183 -12.317493 -0.660167 -1.2639393 -0.30476126 -0.9497156
-0.9946497 6.6494584 -0.1188163 -14.174641 -12.490308 -0.9856506 4.304113 1.3595207
-9.957144 -1.0780073 2.9676335 -10.539594 -13.246481 -0.15778495 -1.1353995 -0.865528
-17.806059 0.29031035 -0.013445775 1.6177241 -15.5687275 -2.3448925 0.18590356 -0.15478174
-3.7940462 0.05162205 0.17492679 0.1659332 2.1573524 1.2287673 -9.253554 -18.593868
-3.8928423 -0.33952117 -1.5967848 -1.7998606 7.5242696 0.71948797 -8.071087 1.5371231
-3.864205 -0.057842378 -21.93035 -16.852358 1.603617 0.77620214 0.15254706 -7.372886
-0.3007915 -3.9974046 0.39201576 3.0971532 -14.469706 0.62653977 -0.73366934 -0.10467861
0.12053694 -11.479262 0.8451946 -5.2683105 -9.6082735 -1.6333277 0.2168665 -0.6058342
-1.9191296 0.45055923 -0.9512503 -19.999954 -0.44427285 15.912578 -15.179749 2.150094
0.0406132 -0.55384994 -0.33638197 1.2283711 -15.163373 4.719733 -7.5790343 0.37770495
-1.2586836 0.5196613 -0.35341004 3.0502994 -1.6175425 -1.9404117 -0.18339716 0.97348636
-18.4617 -19.087944 -0.11993625 0.0037922794 -0.09446627 -0.45103267 1.1258675 -17.339655
-16.700558 -0.6754186 -0.8213007 -1.6331307 -0.3881428 -0.75703347 -10.829866 -18.22295
-15.18993 0.89476025 1.200247 -1.3479626 -0.2355162 -21.19932 -15.600638 -1.3728067
-14.641857 0.35256693 3.0409489 -6.7652617 0.14940019 6.3017354 -0.8212642 -1.6145847
-14.158804 -6.683466 0.4764399 -0.17971729 -14.782247 -18.482594 -5.5277934 -4.0427284
3.6166975 -0.9114403 -1.013236 3.789383 -2.6037676 2.204222 -10.130198 2.644125
-13.063623 -0.10479996 7.501015 9.777178 -1.7987953 -1.4504112 -1.665583 0.9167776
12.785814 10.372451 -0.09206603 -6.500548 -19.845005 8.671926 -13.261069 -17.171606
-0.1416383 -12.017663 3.6242352 -1.312423 1.3100816 -1.674837 14.404997 -1.4145294
-10.22978 -10.79047 0.058678687 -0.4723548 2.5818546 -0.9996024 -1.3301821 -7.3791203
-0.112111025 0.05535587 -1.9712485 -0.33115783 9.732385 -7.047381 0.66857165 -0.76245326
3.619084 -5.2776537 0.7667965 -18.537981 -5.1292977 -1.9139197 -12.024469 -1.4560272
-3.3174422 -16.688232 1.4134518 -0.8467556 -3.6133065 -10.747529 2.430078 -0.43932343
-3.1738966 -4.6882725 -19.17222 0.019386822 -18.548338 -0.181478 -3.2195375 -9.819073
-14.198705 7.8628187 0.97447926 -0.3391701 -4.906664 -1.8364663 0.5727907 -0.4836836
3.7816744 -16.64249 -0.49076995 -0.004353337 -2.9522262 -12.575096 3.6336985 -15.2261915

weight f4 [100, 500]
00000000: 878d 873f 5db4 c73f c935 203f 7838 0741
00000010: 7d41 19c1 0589 a73f c7bf 7bbf 07ef 983f
00000020: 727d 3340 348c 2a40 7511 5e40 cc7c 6ac1
00000030: d36c 6bc0 b979 acc0 5d04 d23f 437a 7b3f
00000040: 3115 7bc0 4dbf 04c0 0b09 483f ec29 2e3f
00000050: bae8 3040 803e 4d3f 74f2 f240 5198 14be
00000060: ce2d d7c0 f616 d7bc c123 b2bb 0253 80c0
00000070: 90e4 3040 1e94 b23e c385 0b3d 1544 8340
00000080: 721c dcbd 9943 98c0 93c0 17bf 5dce fdc0
00000090: a1c6 bcbf 11ee e53f a4e3 dc3f 05c8 13c0
000000a0: 32b5 8d40 6093 3140 422e b23e 2634 bf3f
000000b0: e265 cb40 478a a5c0 45ff b4c0 4f86 c83f
000000c0: 8955 c43f 0123 5c3f 1cc9 9c3d 8094 20c1
000000d0: b899 16c1 ed0d 833f a82d 4bbf b9a0 e73f
000000e0: 6823 c2c0 1f9c b240 aae3 3340 2053 6340
000000f0: bbbf 2840 92bd 46bf 71f3 0a40 2194 b540
00000100: 8650 e23f bee7 6340 0b66 e4c0 a941 03bf
00000110: 58b0 3040 851d 65bf f373 853e d504 95c0
00000120: 2d41 9dc0 04f7 4d40 c078 f23f 202d 4140
00000130: fa88 34c1 edc3 27c1 f8ea e740 9f76 9b3f
00000140: 3684 39c1 3f0f af3f 266f a040 11cb 92bf
00000150: 560e 253e 0d2f a83f 6cbd ba40 04eb 3141
00000160: 5d05 cbbf 11f7 dd3f fbef c83d bbf6 bb3f
00000170: e357 0e41 1b22 7ebf bdff efc0 ee3e b1c0
00000180: 637b f740 787c f53f 0969 bebe 72f6 043f
00000190: 96cb bd40 16b3 1abe 7df5 0dc0 a73d 42c0
000001a0: 5c9a 8dc0 d6fd 42bf 0eb3 37c0 26ea dec1
000001b0: 8ed5 633c 8e3b ccc0 328d 0fc0 6cd2 c0c0
000001c0: 3fc7 2740 5645 9ebf 5698 23c0 1531 83c0
000001d0: c7a3 82c0 ff4a 16c1 df6e dc3f a5c2 9d40
000001e0: 552e 4fc0 a844 37bf 616c e140 ab91 043f
000001f0: a312 0540 616d ecbf fbf5 e940 52cf abc0
00000200: 3ab5 8b40 a5c5 aa41 b798 f4bd 469f af41
00000210: f924 c9bc b90b 6e3f f16e 9640 692b 8341
00000220: d49f 0ac1 d039 3440 591d b940 31f4 f8bf
00000230: dcbf c8c0 7231 ce3f 90f9 5f3e 750f 99c0
00000240: 5556 a9c0 ca83 19c0 2b5e 6240 8ee5 dbc0
00000250: d385 43c0 baca 2e3f 27b1 01c1 0afb 843f
00000260: 7a69 a4c1 6a55 69c0 61fc 1cc0 a4d2 d940
00000270: 27e6 e840 ec32 da3f 502c 0240 b8f5 3ec1
00000280: a2d4 96c0 2e9d d8be dcc2 2040 2f7d a9bf
00000290: f87f eb40 806d 2fc1 6727 29c0 cd26 4bbf
000002a0: 5f3c 0ec1 d632 15c1 509d b33f 9edb 4dc0
000002b0: 814f 603f 439c 26c1 ab6d a43f fa57 1ac1
000002c0: 0936 d140 2ef4 0a41 fe84 11c0 936e 3041
000002d0: cadf 9d3f 9a6e 80bf 96d1 63bf 61b5 60bf
000002e0: 6ca1 a3c0 4c84 abc0 8ae0 4640 0a47 10c0
000002f0: cecd 6dc0 2af7 15c0 c955 0840 fd26 b7bf
00000300: d262 b9bf 45ec 6ec1 3ccb e3c0 5512 3b40
00000310: 1f75 0541 6231 df3d 1fbd 05c1 ec92 7bbe
00000320: 264d d03f 48d5 9cbf 94b2 76c0 274d 2e3f
00000330: 297a 2bbe 04b4 f43e c80d 18c0 7d07 0e40
00000340: feef d13c b828 9340 2d7e 9140 35d2 e0bf
00000350: 5150 97c1 d9c0 f1bf 3d20 7c3f da24 23bf
00000360: 1213 5241 1d16 06c0 1c20 9740 e97f 1541
00000370: 039f 3cc1 73b9 8cbe a88b b43f 7ba1 24c0
00000380: 0194 3bc1 a314 bac1 2206 eebf b5ab 3041
00000390: 278d 0bc1 bd36 35bd 91ce c13d 192b e140
000003a0: 8b41 0840 b442 1041 87a7 2941 b7d6 a73f
000003b0: 993c 6dc1 f444 f73c 4971 19c1 b5f8 3741
000003c0: 7598 8840 c045 27bf 1233 ddc0 abcd 5d3f
000003d0: e1a2 0040 a69e 71c0 783d d9bd 995a 983f
000003e0: 6e12 93c0 75f2 5141 216c 8940 3ca8 2240
000003f0: bfad 9ac0 660f 723f 8b8f 14c1 b292 aebf
1.0590066 1.5601918 0.6258207 8.451286 -9.578488 1.308869 -0.98339504 1.1947945
2.8045316 2.6648073 3.4698155 -14.655468 -3.678517 -5.3898587 1.6407582 0.9823343
-3.9231684 -2.074176 0.781388 0.6803272 2.7642045 0.8017349 7.5920963 -0.14511229
-6.7243414 -0.026256066 -0.005436391 -4.010133 2.7639503 0.3487863 0.034063112 4.102061
-0.10747613 -4.7582517 -0.5927822 -7.931441 -1.4748117 1.7963277 1.725697 -2.3090832
4.4283686 2.77462 0.34800917 1.493779 6.356187 -5.1731296 -5.656161 1.5665988
1.5338603 0.8599091 0.07655546 -10.036255 -9.412529 1.0238625 -0.7936654 1.8095924
-6.066822 5.5815578 2.8107705 3.5519485 2.6367023 -0.7763301 2.1711085 5.674332
1.7680824 3.5610194 -7.1374564 -0.51272064 2.7607632 -0.8949817 0.26065025 -4.65684
-4.914206 3.2182016 1.89431 3.0183792 -11.283442 -10.485333 7.2474327 1.2145575
-11.594778 1.3676528 5.013568 -1.1468221 0.1611875 1.3139359 5.835623 11.119877
-1.5861012 1.7341024 0.09811398 1.4684671 8.896457 -0.9927079 -7.499968 -5.538932
7.733812 1.917861 -0.3718951 0.51938546 5.931102 -0.15107378 -2.2181084 -3.035013
-4.4250927 -0.7616857 -2.8703036 -27.86433 0.013905896 -6.38227 -2.2429929 -6.0256863
2.621536 -1.236491 -2.5561728 -4.0997415 -4.0824924 -9.39331 1.7221335 4.9300103
-3.237203 -0.71589136 7.04448 0.5178477 2.0792625 -1.847088 7.311277 -5.3690577
4.3658724 21.346506 -0.119431905 21.95277 -0.024553763 0.9298664 4.7010427 16.396196
-8.664021 2.8160286 5.7848325 -1.9449521 -6.2734203 1.610884 0.21872544 -4.783137
-5.2917886 -2.3986688 3.5369976 -6.871772 -3.055043 0.68278086 -8.10575 1.0389111
-20.551502 -3.6458383 -2.452904 6.806963 7.278095 1.704679 2.0339546 -11.93499
-4.713456 -0.4230742 2.5118933 -1.3241328 7.359371 -10.964233 -2.64303 -0.7935608
-8.889739 -9.324911 1.4032383 -3.2165294 0.87621313 -10.41315 1.2845968 -9.646479
6.537846 8.684614 -2.2737422 11.026996 1.233392 -1.0033753 -0.8899168 -0.8777676
-5.113455 -5.3598995 3.1074548 -2.2543359 -3.7156863 -2.3432107 2.130236 -1.4308773
-1.4483283 -14.932683 -7.118559 2.922994 8.341094 0.10898091 -8.358672 -0.24567765
1.6273544 -1.2252588 -3.8546495 0.68086475 -0.16745819 0.4779359 -2.3758411 2.219207
0.025627133 4.5987206 4.5466523 -1.756415 -18.914217 -1.8886977 0.9848669 -0.63728106
13.129656 -2.0950997 4.7226696 9.343728 -11.788821 -0.27485237 1.410512 -2.572356
-11.723634 -23.260077 -1.8595622 11.041921 -8.721961 -0.044241656 0.094632275 7.036511
2.1290004 9.016285 10.6034 1.3112401 -14.827294 0.030184247 -9.5901575 11.4982195
4.2686105 -0.65340805 -6.912484 0.8664195 2.0099413 -3.7753081 -0.10607427 1.1902648
-4.5959997 13.121694 4.2944493 2.5415182 -4.8337092 0.94554746 -9.285045 -1.3638518

bias f4 [100]
00000000: c495 c0c1 1e15 0a3c 95ce 9b41 c759 a541
00000010: 81b9 04c2 37f6 fac0 5fd9 9ec0 29f5 89bb
00000020: 1eee 4b41 dc63 a0bd 499c b1c1 e437 b441
00000030: ba74 89c1 4a17 f3bc 1fc6 9cbc 6c4b a93c
00000040: 68a7 bd3c 081b 92bc c9ca 1abe f792 fc3c
00000050: 4a76 22bd 0e13 52bc 34c3 18c1 e705 2dc1
00000060: c5c2 5f41 5d44 3ebd 62e0 f8c0 21a0 b23c
00000070: ec62 c73c 6126 4ebd 93f1 3440 02d6 93bc
00000080: dae7 25c2 78c3 a1c0 831e 9740 c2f9 0941
00000090: a932 eb3c 4df1 25bd e2a2 4ebd 8028 1dc1
000000a0: 959c a540 6c3a 853c 6171 283c d71d 883c
000000b0: b85d 54c0 d70b a5c1 3e37 d4c1 f662 d3c1
000000c0: 3313 2d41 2100 aac0 8c61 b7bd fca8 dbba
000000d0: 79cf bf3a 17ec 72bf 3b0c d03b ade9 e1bc
000000e0: e5da 783c df75 27bb de78 f6bb 68d1 0bc1
000000f0: f139 28bd 2a84 2cbd 2c69 21bc c1b5 bb3c
00000100: 0bf5 c840 4553 93bd 628c 923c 4bdc 7ac0
00000110: b3a9 f2c1 c06a 1642 033b 38c1 ec4b f7c0
00000120: 0056 35bb 869e b9c1 2b33 efbc fecf 17bd
00000130: ce77 51bd 95c6 773b 2540 2e3b 68a5 9bbf
00000140: 5a29 133b 0dd0 3640 9b52 dac1 701c 1abd
00000150: cf0b eebb acd8 afbc cb97 7c3c a1e7 a93b
00000160: ab1e 50c1 89d6 35c0 4885 aebc 1f2b 3abc
00000170: ecca 26c1 4933 023b 4534 a0bc 9b8c 03c1
00000180: 5049 9a3b 004d 5d40 8005 353c e98d f83c
-24.073128 0.008427886 19.47587 20.668837 -33.181156 -7.8425555 -4.9640346 -0.0042101336
12.745634 -0.07831547 -22.201311 22.52729 -17.181995 -0.029674191 -0.01913744 0.020665847
0.023151115 -0.017835155 -0.15116419 0.030831797 -0.03966359 -0.012821926 -9.547657 -10.813941
13.985051 -0.046451915 -7.7773905 0.021804871 0.024339162 -0.05032957 2.8272445 -0.018046383
-41.476418 -5.055111 4.7224746 8.623476 0.02871068 -0.040513325 -0.050448306 -9.822388
5.175364 0.01626321 0.010280938 0.016615791 -3.3182201 -20.630781 -26.526974 -26.42332
10.817187 -5.3125157 -0.089541525 -0.0016758735 0.0014633975 -0.94891495 0.0063491142 -0.027577246
0.015188907 -0.0025552434 -0.0075217327 -8.738625 -0.041070882 -0.04211823 -0.009851735 0.022913815
6.2799125 -0.07193617 0.017889205 -3.9196956 -30.33286 37.604248 -11.514407 -7.728018
-0.0027669668 -23.202404 -0.029199203 -0.03706359 -0.051139645 0.0037807573 0.0026588526 -1.2159853
0.0022455067 2.8564484 -27.290335 -0.037624776 -0.0072645913 -0.021465622 0.01541705 0.005185083
-13.007487 -2.8412192 -0.021303788 -0.01136282 -10.424541 0.0019866994 -0.019556174 -8.2218275
0.0047084466 3.4578247 0.011048675 0.030341106

weight f4 [50, 100]
00000000: a605 f6bb 9f55 1aba ed06 bd3d 276a d83c
00000010: 6770 43bb b8db edbd 5434 73be d5df b13d
00000020: 82df c9bd 0290 acbc 5156 a5bd 0818 1cbe
00000030: 647a 223d a4d6 85bd 680b 3bbd 49c5 613d
00000040: 571a bd3d 9e41 393d f33b cd3d 793a b3bd
00000050: 9ef7 bbbd 5087 b0bd e06a 5c3d be12 5abe
00000060: b719 4e3d c8fc 0dbd 62df 7ebf 76e5 37bd
00000070: e04c 5e3c 408b bfbd 6ef8 b13e fb4f fa3a
00000080: 227c 933d 309b 1c3e fd13 7dbe 2c6b 34bd
00000090: d040 29bc 5ef0 83bd e10d 0abd 8344 553d
000000a0: bed5 b53f a91a 67bd a99e 553d dc45 b13d
000000b0: b778 cd3d db6a 25be 20d6 b2be 0696 c0bd
000000c0: a3ad 913e 0274 22be 87e1 973d 1481 f7bc
000000d0: 4c97 5e3d a67e 0dbf 0332 9b3d 0d24 95bd
000000e0: 69fe 48bd 11db 503c 1c69 9a3d e94c 99bd
000000f0: 72e6 f9ba fd52 1a3c 6874 a1bd dc97 86bd
00000100: a924 9dbd 6dfd a6bd 30a4 65bd aa0d 24be
00000110: 62ac f1be 90de fb3e ec0f ff3e 4fb5 27be
00000120: 00af f93c e212 7fbe 8f4e bb3d 8d39 dfbc
00000130: 7450 19bd 6232 8bbd 7014 bd3d f345 85be
00000140: d1af 65bd 98a5 de3e 7c74 15bf e982 753d
00000150: 643c 3abd a810 2a3c ccc0 82bc b37f c93c
00000160: 3520 9abf 914a 2dbe 2ad9 163d 29ae 2c3c
00000170: 30da 2bbe fa74 323d 7762 5d3d 0b27 3d3f
00000180: 1b3a 7cbc c770 81bd 0f97 593d 5795 3c3d
00000190: c2c4 a6bf 023a 84bc cb49 3940 0999 563f
000001a0: 1f6a 1bbe 5c83 acc0 7c58 a8c0 b055 d2bc
000001b0: 6067 e3bf 86a1 883d 2bf3 1641 222e 1840
000001c0: 704f e040 8818 bcbd 463f bd3d 09c5 07bd
000001d0: c1ff 533d ca67 acbc 3d80 0340 70a7 823d
000001e0: 6643 a9bd 6fa9 c8bb 4f51 f3c0 9a91 8ec0
000001f0: 8830 583f 3ccf 8abd 2d61 07c1 bd91 52bd
00000200: f2af 403d adb0 09bd 81c8 8640 45ec 93bc
00000210: 2337 a0c0 c180 f43f c6e8 1940 1f56 08bf
00000220: 2e7c c63d 1ad3 af3d 715d 44bd d143 76bf
00000230: e076 a740 b8eb 2b3c 24ff 06ba 402a c7ba
00000240: cbd5 cec0 ec26 99c0 d9a5 b6c0 2c74 acbf
00000250: b2e8 36be 61fb 42c0 07bb 343c e9ef a3bd
00000260: a307 babd a049 fbc0 38d6 29bd c708 c93c
00000270: b1ca a8bd c8cc 2fbd 48ab f2bc 9ef5 8740
00000280: e781 b13c ce94 553d 3b41 bb3d 06b9 03bd
00000290: 3e44 0340 cd1c 5e3d c114 b4bd 124b 9cc0
000002a0: 950f 76c0 c298 f840 f5ec 71c1 0e85 35c0
000002b0: 25e9 f93c 12f9 77c0 2e62 b0bd 11aa a2bd
000002c0: 67d8 45bd 6c14 c6bd 63e8 87bb 123b 9fc0
000002d0: 8ae8 0dbd 2d93 0642 8019 01c1 a817 ca3d
000002e0: 18a8 55bc 9b09 56bd f2ba c3bd 19d7 d23d
000002f0: 3bb3 59c1 a28a 8dc0 933f 4a3c a2f7 bb3d
00000300: 08a5 1ac1 cf5f 343d 43e6 81bd 3ae6 f140
00000310: 2266 b33c bdce bebe 0710 843d 6cd5 d23d
00000320: 4be1 10bf 3b59 55bc 5da6 f0bf 2351 e03d
00000330: 7dac a1bf e35f 6c3f 83bc 95bf 5848 23bc
00000340: 04d6 7abf ee8f 4d3d 4ef6 493f 297d 28bf
00000350: 215b 9ebf 39dd 33bc 7598 d93b 2abc a8bd
00000360: c828 a9bd 5ef4 a33d 3cbf aebe 25bb ebbc
00000370: 8b60 f63b d00e 293d bc80 193f 548f 81bf
00000380: 226f ccbf 4a14 9ebd 31f7 413f 6dab 6abd
00000390: 2b27 803d 93d7 a1bd 7b04 36bf 2fb2 9f3d
000003a0: 0c2c ba3e 3196 a63e e45e d13e 762e 40bf
000003b0: e814 9c3d b21e 7dbd fb5c fcbd 4bf1 b4bf
000003c0: b8dd 8dbf 4346 223d 73c7 e2bc f317 a33d
000003d0: db14 fcbe f28e bbbe d569 583f 21cb 3ebf
000003e0: dea3 b33e 699e 1abf cc18 2abd ab9c 16bd
000003f0: 864f 67bd 981b 1d3f a48d 4c3d f11f bebc
-0.0075079976 -0.00058873923 0.092298366 0.026417805 -0.0029821636 -0.11614174 -0.2375043 0.08685271
-0.09857084 -0.021064762 -0.08073104 -0.15243542 0.039667502 -0.0653508 -0.045665175 0.055119786
0.092335396 0.045228593 0.100212 -0.08751387 -0.091780886 -0.08619559 0.05381286 -0.21296212
0.050317492 -0.0346649 -0.99559605 -0.044896565 0.013568133 -0.09352732 0.3475985 0.0019097322
0.07201411 0.15293574 -0.24714656 -0.04404752 -0.010330394 -0.06442331 -0.033704642 0.05206729
1.4205854 -0.05642191 0.052153263 0.08655903 0.1003279 -0.16154043 -0.3492899 -0.09403615
0.28452787 -0.15864566 0.07416063 -0.030212916 0.054343507 -0.55271375 0.07577898 -0.07282267
-0.04907075 0.012747542 0.07539579 -0.074853726 -0.001906587 0.0094192 -0.07883531 -0.065719336
-0.07673008 -0.08153806 -0.056064785 -0.16020837 -0.4720183 0.4919324 0.49816835 -0.16377757
0.030478954 -0.24909547 0.09145843 -0.027249122 -0.03743024 -0.06796719 0.09232414 -0.2602993
-0.056075875 0.43485713 -0.58380866 0.0599393 -0.04546775 0.010379948 -0.015961073 0.024597025
-1.2041079 -0.16922976 0.036828198 0.01053957 -0.1678245 0.04356859 0.05404898 0.738877
-0.015394713 -0.06320339 0.053122576 0.04604086 -1.3028796 -0.016140942 2.895129 0.83827263
-0.151772 -5.391035 -5.2608013 -0.025675625 -1.7765923 0.06671433 9.434367 2.3778157
7.009697 -0.091843665 0.09240584 -0.03314689 0.051757578 -0.021045584 2.054702 0.063795924
-0.08264808 -0.0061237137 -7.6036754 -4.4552736 0.8444905 -0.06777808 -8.461225 -0.051408518
0.047042795 -0.033615757 4.2119756 -0.018056998 -5.0067306 1.9101793 2.4048324 -0.5325641
0.09691654 0.08585186 -0.047940675 -0.9619723 5.233261 0.010493211 -0.0005149713 -0.0015195087
-6.463598 -4.786001 -5.707745 -1.3472953 -0.17862204 -3.046593 0.011030919 -0.080047436
-0.09083488 -7.8527374 -0.04146406 0.024540318 -0.08241785 -0.042919904 -0.029622689 4.2487326
0.021668388 0.052143864 0.09143301 -0.032158874 2.0510402 0.054226685 -0.08793021 -4.884164
-3.844701 7.768647 -15.120351 -2.836246 0.03050668 -3.874577 -0.08612476 -0.07942594
-0.04830208 -0.09671864 -0.0041475757 -4.9759607 -0.034645595 33.643726 -8.068726 0.09867793
-0.013040565 -0.052255254 -0.09557141 0.10294933 -13.606257 -4.423173 0.012344259 0.091780916
-9.665291 0.044036683 -0.06342747 7.559354 0.021899287 -0.37267104 0.064483695 0.10294613
-0.5659377 -0.0130217625 -1.880077 0.109529756 -1.2630764 0.9233381 -1.1698154 -0.009965979
-0.9798281 0.05018609 0.78891456 -0.6581598 -1.237156 -0.010978037 0.0066404887 -0.082390144
-0.082597315 0.08005594 -0.34130275 -0.02877576 0.007518833 0.041273892 0.5996206 -1.0121865
-1.5971415 -0.077187136 0.7576781 -0.05729239 0.06257471 -0.07902446 -0.71100587 0.07797658
0.3636173 0.32536462 0.40892708 -0.75070894 0.07621175 -0.06179685 -0.12322422 -1.4136137
-1.1083288 0.039617788 -0.027682995 0.07963552 -0.4923466 -0.36632496 0.84536487 -0.745287
0.35085958 -0.60397965 -0.041527554 -0.036770504 -0.056472324 0.6137023 0.049939767 -0.02320859

bias f4 [50]
00000000: c333 df41 0e1a 9c40 ff0d 88c0 b8c2 bfc1
00000010: 204e bdbd ff27 a5bf 55db 89c1 6e03 68bd
00000020: 3721 eabd d0c4 293c 87d0 a2c1 96c3 8bbd
00000030: 0e8a 6dbd dd0d e6bc e6a3 4841 7c0c e6bc
00000040: aed3 b941 67a1 0041 936b 18bc 8aad d7bd
00000050: 5b3a fbc0 65b0 f0bc f3f4 a6c2 42b9 07bc
00000060: 600f 09be aafb 4b42 f521 d1bd 5525 2442
00000070: a739 84bd 172a 103c df63 d841 20da 9ec2
00000080: 36df b53d 1037 7a42 e964 80bd b7b5 fe3b
00000090: 9ce4 7c41 9084 313c 971d d4c0 5f7d 93bd
000000a0: 88b4 65c2 e08b a2bd f35b 0c41 bcd8 82bd
000000b0: 40bc b5bd c66f 8ac1 fda8 d941 9d70 eac0
000000c0: a6e8 5f3c 1915 b941
27.900274 4.8781805 -4.2517085 -23.970078 -0.09243417 -1.2902831 -17.232096 -0.056643896
-0.114321165 0.010361865 -20.35182 -0.068244144 -0.057992987 -0.028082782 12.540014 -0.028082125
23.22836 8.039405 -0.009302991 -0.10531147 -7.8508735 -0.029380986 -83.47842 -0.008283915
-0.13384771 50.995766 -0.10211555 41.036457 -0.06456309 0.0087990975 27.048765 -79.426025
0.08880465 62.553772 -0.06269247 0.007773127 15.805813 0.010834828 -6.628612 -0.07201647
-57.4263 -0.07936835 8.772449 -0.06388995 -0.088737965 -17.304577 27.207514 -7.3262467
0.013666308 23.135302

weight f4 [10, 50]
00000000: f5eb cebd 0ef7 cdbd 2898 01be 6a7c 4bbe
00000010: 09da afbc 70d4 efbc 3091 02be 4ac5 d1bd
00000020: a3da fabd 993a aa3d 24f0 4fbe 338c abba
00000030: 58f1 893c eb35 d7bd eafa 8c3d 6a5b d43d
00000040: fd10 0a3d 57f7 36be 975d 563d 5fec b73d
00000050: f416 81bd f7d0 47bd 1eb0 52be b597 453d
00000060: 349a 98bd 3a65 f33c 31c7 a63d e753 aa3d
00000070: f887 0dbe 64bf 703d 4a9c ce3d 0383 92bd
00000080: f029 03be f1b9 ea3d 9b9a e93d df63 343d
00000090: ebb8 523d 2398 6e3d 9947 ac3d 975a ac3d
000000a0: a4a5 583b 2323 acbc 3bf0 2ebe eaa9 02be
000000b0: 1172 a33d bf2a abbd 7e98 57bd ca7f 2ebe
000000c0: 69e9 0fbe 5bfc 34be 0773 76be 034f adbd
000000d0: c636 543c ffd5 1cbd 2ce0 88bd 2b2e 80be
000000e0: 8984 59be eabe 67bd 44c3 783c 87fc e5bc
000000f0: 5c62 a1bd ad1d 4bbd 0b3d fd3d e370 cdbd
00000100: 581d a8bd 6133 cfbd b20b b4bd f4d9 bfbd
00000110: 4633 e2bc ffa8 cdbd 9e01 62bd a6c6 68bc
00000120: d3f3 29be 0158 30bd b912 d63d 380c e4bd
00000130: 6419 a8bd 4098 e5bd 9890 3dbd 5106 15be
00000140: f927 a5bd 6f20 47bd 9dc8 0cbe 08e5 fa3c
00000150: 6654 eabd 75d6 423d 7a4c 25be 0e41 13be
00000160: 6e3b 3ebe 8374 893d 38f3 cebd 7031 033d
00000170: c7df 923d 834b fdbd 03f9 b3bd 64c0 e5bd
00000180: 7e62 8a3d a84c f4bc 09dc ddbb dd9c 513d
00000190: 813b c63e 9812 22c3 5948 93bd cfd2 f3be
000001a0: 3d34 c63d 0012 3b3e bac3 1abe 480a 97bd
000001b0: 2a5f cabd b826 963d 017c 7b3f c0cc 443e
000001c0: cd3b 94bd 7e54 adbd f8b0 78be 10f3 febd
000001d0: e3e6 92bc c3bd a53e e1e8 143d 315b 153d
000001e0: 012c 273d 0a85 703b e54c 233e 07e3 f43d
000001f0: 9183 1d3e cc20 d7bc 850d bfbc 51a5 8f3d
00000200: b693 a8bd f2ba 87bd d09f b7bd ffa2 dcbe
00000210: 8163 0e3d 05c9 43be de8a cebd 7f55 de3d
00000220: 0d0c f03b c275 98bd 722e 46be c071 48bc
00000230: f477 35bf 4ce5 153e 7cc7 04bf fdb6 5abc
00000240: 0918 2e3d 9500 37bf e836 e83d 625c a5bc
00000250: de4d 12bd d26e 8cbe c45b 313e 7d10 95bd
00000260: 2337 b43e 6071 afbd 46e3 7cbd 688d 85be
00000270: f518 01bf 5dbd fb3d c87b 9abd 6cee 883d
00000280: 7405 1440 0693 70bd c17c 2b3d b41f 193e
00000290: ae1d 25bf b8e5 26bd 8642 25be 95cb 3abf
000002a0: afe8 c13d 6f4f 4b3d 81e1 aa3e 489c 0cbe
000002b0: 04ae c23e e85c 29bd caab 143d 48c7 0f3d
000002c0: 9d33 e83d ea7e 0640 59cb ccbd d68a 0e3e
000002d0: 2eb0 b0bd 790e 413f ba41 293d 8004 d4bc
000002e0: 766e 64bd 0766 cfbd da30 dfbe e557 e6bd
000002f0: dcb4 46be cfe9 063e 010f e6be 11e3 d63d
00000300: cf99 023e 79f8 b13d c4b2 d6bd 02ce 3dc0
00000310: 7a37 e1bd ca9a 6ebc 1da0 16bd 2903 fbbd
00000320: db22 123f b807 cebe e155 1c3f f1e9 fcbe
00000330: 519a 45bb 42b6 97be 6f00 61be c2e4 babd
00000340: b7e9 be3d da39 be3d 33fd 413c f7aa 113d
00000350: 5532 4f3e 3b19 92bd cb2f 07bf 2bb1 88bd
00000360: f6c8 6abe 3932 dfbf 5db1 023d 61f2 d23d
00000370: 7e01 223e 22ea 103d d85e 543d a51e 0ebe
00000380: 9dc6 893c ab11 073f e9cc 76bd 78d8 0a3e
00000390: 6591 60bd cf51 0a3e ccca c2be e303 8b3e
000003a0: 2ea7 ddbc 39ab 043e 1c09 44bd d015 2e3d
000003b0: bdd8 333f c4e3 1cbb d9af 8abe 2751 8f3d
000003c0: 12d8 b13e 2038 873d d5d1 1fbe 2522 35bd
000003d0: e788 9e3b 41aa a1bf 6aa2 f5bd 08f2 84bd
000003e0: f815 74bc b6d1 0abe ef80 1740 3fb4 00be
000003f0: 7f2a 9d3f 6b17 17be ee4f 80bd bc1b 623e
-0.10103599 -0.100568876 -0.12655699 -0.19871679 -0.021466272 -0.029276103 -0.12750697 -0.10242708
-0.12248733 0.08311958 -0.2030645 -0.0013088047 0.016838714 -0.10508331 0.068837956 0.10368998
0.033707608 -0.1786779 0.052335348 0.08980631 -0.06303206 -0.04878327 -0.20574996 0.048240382
-0.07451287 0.029711355 0.081434615 0.08316784 -0.13821399 0.058776274 0.100884035 -0.07153895
-0.12808967 0.11461247 0.11406442 0.044040557 0.051445883 0.058250558 0.08412094 0.08415716
0.0033057714 -0.021012848 -0.17083828 -0.1276013 0.07980741 -0.083577625 -0.052635662 -0.17040935
-0.14053883 -0.17674391 -0.24067317 -0.08462336 0.012952512 -0.03829002 -0.066833824 -0.25035223
-0.21241964 -0.056578554 0.015183274 -0.028074516 -0.07880089 -0.049588848 0.12365159 -0.10031297
-0.08208722 -0.101172216 -0.08791293 -0.09367743 -0.02761234 -0.10041999 -0.055177324 -0.014207518
-0.16596918 -0.043052677 0.1045279 -0.11135143 -0.08207968 -0.1121068 -0.046280473 -0.14553191
-0.08064265 -0.048614915 -0.13748403 0.030626789 -0.11441879 0.047567803 -0.16142455 -0.14380285
-0.18577358 0.06711676 -0.10104984 0.03202957 0.071715884 -0.12367918 -0.087877296 -0.11218336
0.06757067 -0.029821709 -0.006770615 0.051174987 0.38717273 -162.07263 -0.071915336 -0.47621772
0.096779324 0.18268585 -0.15113726 -0.07375008 -0.09881432 0.07331604 0.9823609 0.19218731
-0.072379686 -0.08463381 -0.24286258 -0.12448704 -0.017932361 0.3237134 0.036354903 0.03646392
0.04081345 0.0036700391 0.15947302 0.119573645 0.1538222 -0.026260756 -0.023321876 0.070139535
-0.082312986 -0.06627454 -0.08966029 -0.43093106 0.034762863 -0.19119652 -0.100850806 0.10856151
0.0073256553 -0.074443355 -0.19353655 -0.012234151 -0.7088616 0.14638251 -0.5186689 -0.013349292
0.04250339 -0.71485263 0.113385975 -0.020185653 -0.03571879 -0.274283 0.17320162 -0.072785355
0.35198316 -0.085665464 -0.061740182 -0.26084447 -0.50428706 0.122919776 -0.07543141 0.066861
2.3128328 -0.058733962 0.04186702 0.149535 -0.6449841 -0.04074642 -0.16138658 -0.7296689
0.09468209 0.0496363 0.3337517 -0.13731492 0.38023388 -0.041348368 0.036296643 0.03510216
0.113379695 2.1014962 -0.09999723 0.13920149 -0.086273536 0.7541271 0.041322447 -0.025881052
-0.055769406 -0.10126882 -0.43591958 -0.11247233 -0.1940493 0.13175128 -0.44933322 0.10492528
0.12753986 0.086899705 -0.104833156 -2.9656987 -0.109969094 -0.014563272 -0.03677379 -0.12256462
0.57084435 -0.40240264 0.6106854 -0.49397233 -0.0030151794 -0.2963124 -0.21972822 -0.09125663
0.09321921 0.09288378 0.011840153 0.035563435 0.20234044 -0.071337186 -0.528073 -0.06674417
-0.22928223 -1.7437202 0.031907428 0.10300136 0.15820882 0.035379536 0.051848263 -0.13878877
0.016818339 0.52761334 -0.06025401 0.13559139 -0.05482616 0.1350777 -0.38045347 0.27151403
-0.027057257 0.12955941 -0.04786025 0.04250127 0.7025259 -0.002393947 -0.27087286 0.069979005
0.3473516 0.06602502 -0.15607388 -0.044222016 0.0048380974 -1.2630082 -0.11993869 -0.06491476
-0.014897816 -0.13556561 2.3672445 -0.12568758 1.2278594 -0.14755027 -0.062652454 0.22080892

bias f4 [10]
00000000: 1127 58bd 8c57 07bd 2702 a841 7c54 3542
00000010: b380 dbc2 7b8e a2c2 5431 1d42 09c3 4540
00000020: cc04 e041 723b 8abd
-0.05277163 -0.033042476 21.00105 45.332504 -109.751366 -81.27828 39.298172 3.090029
28.002342 -0.067496195

weight f4 [1, 10]
00000000: e79f bbbd 1e39 edbc 9641 6e3c 4c80 2a3c
00000010: 4801 16bd e9ee f2bc b993 07bd 8fa7 893e
00000020: c79e d9bc 6b3e 183e
-0.09161358 -0.0289579 0.014542004 0.010406565 -0.036622316 -0.029654937 -0.033099864 0.2688565
-0.026564969 0.1486756
