scripts/dof3pos_2_layer.pt (torch, 111447 bytes, 5 tensors)

weight f4 [500, 3]
00000000: 3a57 96bd c332 f7bd 7248 b83b 132c bcc0
00000010: 835d 7dc0 0164 b2be 34fc 6040 ebab 8f40
00000020: be1f 753f 92fb 523f faad cdbe 6389 fa3c
00000030: 8d40 86bf 1b20 94bd 5db8 0a3f e05c 7e3f
00000040: 2334 5abf c52b c2bd a0e6 0b3e 8c8d 6b40
00000050: 6f96 6bbe 2dbd d43f 6eac aabd a3e8 db3e
00000060: 4ac2 87be 80f2 7fbd c872 093d c5ad 743c
00000070: d303 1ac0 85a5 19c0 6245 a03f 1240 1b40
00000080: 03a1 523f 58c5 783b 9149 cfc0 9b9d 26be
00000090: 342e 4e3d 9452 e5bc 39c9 ae3f cc3f 27c0
000000a0: 1c15 ffbf 9d0a a8be 51a4 89c0 3864 abc0
000000b0: 915b 90bf e5b7 103b 4620 54c0 9354 3fc0
000000c0: b0ac 09bd a0f9 84bd cbbc 733b 2646 81bd
000000d0: f6c5 93c0 a5c9 30c0 d17a 4bbf 6870 4e3f
000000e0: 8c56 b1bf 942c bfbe 88ca 17bf fb22 723f
000000f0: 2cbe 833d d0cf 763f b13a 1dbf 029d 7e3f
00000100: 1e17 193d 2c52 e33e 77cc a33f 28b2 7e3e
00000110: 4f50 ef3e 1493 973b 8b38 e0c0 d837 4bc0
00000120: b731 8b3f f9c8 ea3f 5c6e 7a3f 9e1c 01be
00000130: 27cd 61bf 202e 7bbf 16e3 24be d234 4ec0
00000140: 876f 0bc0 ac71 1c3e 19f5 7cbf 9f9d a8be
00000150: cdc1 49be 4df7 2d3e 6759 0ebc a5a8 adbf
00000160: 84e8 fd3e ceb2 cf3e 7a4a 80c0 7c11 84c0
00000170: 1b95 c9bf b5cc 183e 3ae0 78be d8c5 a6bf
00000180: b2b4 52bf ecec 49be ddb1 cd3e 50e5 e1bf
00000190: cf35 4a3d 7498 5cbf a76b d43b dcad 8cc0
000001a0: f58f 79c0 5f7f 64be e770 203e beab 46bd
000001b0: 2dc6 65bc 8ebc 83c0 3b6d a6bd bc71 df3e
000001c0: 6d75 3cbf a8e5 57bf 3cf7 6b40 ae69 babf
000001d0: 8f0f 92bf 8fef 97bd 9512 043e 1b1c 5e3b
000001e0: f936 65bd 521f 8fbf 7b09 3cbf 0072 f53c
000001f0: 0a84 81c0 fd7c a9bf 0047 ed3e f453 2040
00000200: 5f5b 33bf 0cd4 0abd 5672 86bd 1ede 613b
00000210: 0739 dbbc 1e67 cebf fa61 b63d e98d af40
00000220: 4119 d640 12b6 3c40 5b10 4ebd 6f32 a03c
00000230: 5b11 a03b 00fc 1d3c ce61 8cc0 0f7e b03f
00000240: 61f3 8cbf 815d 83bf 20e5 9abe a9de 633f
00000250: 506b 83be 71c4 f3bf cd9c 1ac0 48a4 733f
00000260: e5b6 69be 879d 3540 a775 11c1 1f5c d1be
00000270: 839d 8abf 2cc0 12bf bba8 d13c 2424 46bf
00000280: fd44 fcbe eb1b 7fbe d6ed 9ec0 de34 8a40
00000290: ff73 1840 9069 ef3f ecf7 3f40 7d0e 1fc0
000002a0: 067a 07bd 6981 95c0 c052 1fc0 4cc3 c0bd
000002b0: aa65 273e 0e1d 9c3b 8be2 fdc0 9c99 ca3f
000002c0: 2bce 8b3f d24a a1bd 73e8 32c0 9d40 843d
000002d0: 7f39 f6be 9672 f13e 3efe 15bd 78bc 743e
000002e0: 7f1d 22c0 dd85 be3f 55ea 45bc 0a44 893e
000002f0: 3fba b9be faff 3640 7ed6 0c40 8b8e a23e
00000300: 51d1 b1bf d7bc 0dbf 15cf b33e 23dc 94be
00000310: c019 493f 4093 d63b a3a7 abbd 6bd5 79c0
00000320: 421b 63bf 5ed7 17c0 d0a6 a23f 5e54 9a3f
00000330: 054d 433f 8c8d 8abe b3bf ba3d bc6b a0bc
00000340: 3e1a e23e 6305 563f 73ee 6fbe 3c3f 9cbf
00000350: d934 bbbf def1 0dc0 72b5 bac0 8a5d d9bf
00000360: 8925 8340 6f07 963f 09d8 0bbf a42c 15c0
00000370: b125 803f 72f4 27c0 57b8 6bc0 9881 5640
00000380: fd66 40bf 101a 933e 2cb1 3ec0 f436 13c0
00000390: 62a2 b73f d4e8 c63f 5606 763f 6d39 24bf
000003a0: f1d6 283e 746a 3fbe f8fb 6f3e 2460 463f
000003b0: 71b1 8cbe 0a86 a03f c07b 2abf 7883 25bf
000003c0: d999 143d cb95 6ec0 6707 9e3e 6b91 c43f
000003d0: fa61 78c0 6660 8abf 7aee 46c0 da5c 0e3f
000003e0: 2590 2abf 636f 6fbc 84a9 1d3f 8167 953f
000003f0: 2205 57bf c96a 0d3d ed46 b53f 64be 383e
-0.07340856 -0.12070229 0.0056238705 -5.88038 -3.9588325 -0.34841922 3.5153933 4.489736
0.9575156 0.82415116 -0.40171796 0.03058309 -1.0488449 -0.07232686 0.54187566 0.99360466
-0.85235804 -0.094810046 0.13662195 3.6805143 -0.23006605 1.6620232 -0.083336696 0.42950925
-0.26515418 -0.062487125 0.03355673 0.014934008 -2.4064834 -2.4007275 1.2521174 2.4257855
0.82276934 0.0037959423 -6.4777303 -0.16271059 0.05033703 -0.027993478 1.3655158 -2.6132689
-1.9928317 -0.32820597 -4.301308 -5.3559837 -1.1277944 0.0022082266 -3.3144698 -2.989537
-0.033611953 -0.06492925 0.0037191387 -0.06312208 -4.617915 -2.7623074 -0.7948428 0.8064027
-1.3854537 -0.37338698 -0.59293413 0.94584626 0.06432757 0.96410847 -0.6141768 0.99458325
0.037375562 0.4439863 1.2796773 0.24872649 0.46740958 0.0046256874 -7.006902 -3.1752834
1.0874547 1.8342582 0.97824645 -0.12608573 -0.8820366 -0.98117256 -0.16102251 -3.221974
-2.178682 0.15277737 -0.9881149 -0.32932755 -0.19702835 0.16988869 -0.008688307 -1.3567091
0.49591458 0.40566105 -4.0090914 -4.1271343 -1.5748628 0.1492184 -0.24304286 -1.3029127
-0.8230697 -0.19719285 0.4017476 -1.7648106 0.049367722 -0.86170125 0.0064825597 -4.396223
-3.8994114 -0.22314213 0.15668069 -0.04850363 -0.0140243 -4.116767 -0.08126303 0.4364146
-0.7361668 -0.843348 3.686965 -1.4563501 -1.1410998 -0.07418739 0.12897713 0.0033891264
-0.05596063 -1.1181433 -0.73451966 0.029961586 -4.047368 -1.3241268 0.4634323 2.505124
-0.70061296 -0.03389363 -0.065647766 0.0034464668 -0.026760591 -1.6125219 0.08905406 5.486073
6.6905828 2.9486127 -0.050308567 0.019555299 0.0048848814 0.009642601 -4.386939 1.378847
-1.1011773 -1.026291 -0.30252934 0.8901163 -0.2566781 -1.9044324 -2.4158204 0.9517255
-0.22823675 2.8377397 -9.091224 -0.40890595 -1.0829319 -0.5732448 0.025593152 -0.77398896
-0.49271384 -0.24912994 -4.9665327 4.3189535 2.3820798 1.870409 2.999507 -2.4852593
-0.033075355 -4.672047 -2.4894257 -0.0941225 0.16347376 0.004764206 -7.933904 1.5828128
1.0922292 -0.07875599 -2.7954376 0.064576365 -0.4809074 0.47157735 -0.036619417 0.2390002
-2.5330503 1.4884602 -0.012079795 0.26809722 -0.36274907 2.8593736 2.2005916 0.31749377
-1.3892003 -0.5536627 0.3511893 -0.290742 0.78554916 0.0065483153 -0.083815835 -3.903651
-0.8871347 -2.37252 1.2707157 1.2056997 0.762894 -0.27061117 0.09118595 -0.019582622
0.44160646 0.8360197 -0.23430805 -1.2206798 -1.4625503 -2.2178874 -5.834649 -1.6981671
4.098332 1.1721019 -0.5462652 -2.3308496 1.0011503 -2.6242948 -3.6831262 3.3516598
-0.7515715 0.28730822 -2.9795637 -2.300229 1.434643 1.5539804 0.9610342 -0.64150125
0.16488244 -0.18692952 0.23435962 0.7749045 -0.27479127 1.2540905 -0.6659508 -0.6465373
0.036279533 -3.7278926 0.30865023 1.5356878 -3.88098 -1.0810668 -3.1083055 0.5561043
-0.666262 -0.014613959 0.61586785 1.1672212 -0.8399221 0.034525666 1.416227 0.18041378

bias f4 [500]
00000000: c17c 503e 61a8 603c 703b 8fbd 2a57 313e
00000010: 3eeb 143f d41c 943e a1c6 0dc0 a9c2 54bd
00000020: 0bec 893e 1e5c a7bc 9f83 aebc 4b73 a2c0
00000030: 0231 bc3f 9126 1a3b 0882 3abd 69b9 9cc0
00000040: f616 ce3d 9e15 cd3f 2b49 95be a87f 72bf
00000050: fd0c b5bf dbd7 fb3e d43e 1d3f 0678 c7bd
00000060: 2c62 103f 5f21 cdbf 3ac7 833f 4652 d63e
00000070: 8bae d7be c8c1 9cbe fedd 6bbc e484 36bf
00000080: 805f 593f a81f 743f 5b07 cec0 189a 0cbf
00000090: 3611 4ac0 ff7f cf3e 3349 41bf 2ce0 5a3e
000000a0: ebcb c33e 6307 0ec0 1898 a8bf 96df cd3d
000000b0: cb9c 96bf aec3 1fbd 1d04 013e 46fa 11c0
000000c0: 1453 1d3f fd68 31c0 4c5a b2bc adc6 50c0
000000d0: e91b b63b c59d 163e b165 da3b 98b9 fabf
000000e0: bd98 e63f 413f 8b3e 1737 fe3c 688e 16c0
000000f0: 6c36 d43e 1463 57c0 8409 1abd e483 83bd
00000100: a36b 033f 5b98 85bf 96ba 79bf 9301 713f
00000110: 00b6 c8ba 395f 723f 1810 19c0 1942 a6bd
00000120: 0115 9cc0 a301 94be 52d7 d8bf 2b2e 733f
00000130: 639c 413f df52 913e af8f b53e 0794 fb3e
00000140: d424 43c0 e149 1abe 95d9 c5bd e768 ab3f
00000150: 3ee6 08c0 9d31 e93e 340a a3bd 300b 32c0
00000160: 07c5 3b3e 979b 9ebf 5070 13c0 8172 46c0
00000170: 0155 a9bc 2358 923f 6641 853f 8a76 d33e
00000180: 8f30 febc 5702 83bf 803b aabf ca43 f5bf
00000190: 3481 1ac0 18c8 a93b d06c a1bf 80ee 78bf
000001a0: dc62 0bc0 7508 85bf 25d4 cebc 17f9 82bf
000001b0: 61d2 c0bc 8792 23bf bfeb 37bc 6e62 0ac1
000001c0: 36da 5fc0 15e2 543f 40b9 843f ecd0 9e3e
000001d0: c294 febf f373 833c bf90 a4bf 5de2 84bf
000001e0: 04b3 4dc0 c1d2 69be 46ce 023f f3b9 ee3d
000001f0: 717f 84bf 694e bfbf c631 823a 6a09 43be
00000200: 4565 ba3e cef4 bebd 7c4e df3f 5132 2c3f
00000210: bb5c 8dbc 6d17 7fbf e893 00bd a8fc f7bf
00000220: e60d 07c0 a8de 08bd 523d e03e 59d1 bcbc
00000230: b7c3 13bd b276 ab3f 9e6c cbbf a382 16c0
00000240: 3228 0ec0 2f3e 10bd a3a6 b1bd cf8b 16bd
00000250: c576 bf3e f197 7bbc 8231 563c 6d7f 8e3f
00000260: d043 93c0 ffff 36c0 7a3c efbe 6e92 c5be
00000270: f1ff a93e bc22 4c3e c958 3b3e d2a2 65bf
00000280: 07c4 e7bf 821d 83bc f0a1 4ebf 7ffc cdc0
00000290: 4608 e7bf 342d ab3f b4cb 67bf 5f20 41bf
000002a0: 0244 39bd ce0a 9dc0 e2bc 403d c115 403e
000002b0: be55 e8bf 7685 8ec0 2cba 1240 7d8f b2c0
000002c0: 7237 69bc 411f 5e3f 2536 8dbf 7049 21c0
000002d0: 80bf 51c0 7ba3 3f3e a7dc a9bd 9ca5 06bd
000002e0: e7cd 2dbd c5d3 10bd 501a cdbc ffc2 7bbc
000002f0: 0647 cabe bea7 23c0 1352 1b3f d248 eabf
00000300: e0df 09bf 1f00 7f3f 4039 f8bb 0442 963e
00000310: e6e0 93bc 12be 243f d87d eabf 69c6 92bc
00000320: c701 0ebf 65dd e0bf d4fd 3cbc d6b1 25c0
00000330: 15e3 80bf a807 d33f 04a9 f73e 95f1 74c0
00000340: e2bd e1bb ba2d 173d 7c6b 57bf f187 283f
00000350: 8e39 29c0 cac5 86bf 42e1 913f 0b49 2c3e
00000360: 991c b83f cb32 523f 3b91 863e 5be7 aa3c
00000370: 6849 cabf 7fe8 88bc 1506 583f 8f86 99bf
00000380: c5c3 e63e c70c 863f 5420 c03b d77e c9bf
00000390: 5061 44c0 daff d9bf 1f55 0e3e 3b27 58c0
000003a0: 8146 eabf dff9 9cbf 4ea7 c33c 243a 15c0
000003b0: 4954 153f a600 853e cca9 613f 232d 9cbf
000003c0: 3356 1e3e 312b aebf ee75 ccbf 11d9 40bf
000003d0: 3c29 88be def1 04c0 7394 b1bf 5e29 dbbf
000003e0: c5c2 5abe b37b 02bd 5890 953e 3382 113f
000003f0: 2cd7 b1be 5ef7 eabd 0e7b bb3e d101 413f
0.2036009 0.01371202 -0.06993759 0.17318407 0.5817145 0.28928244 -2.2152483 -0.051943455
0.269379 -0.020429667 -0.021302996 -5.076574 1.4702456 0.0023521523 -0.045534164 -4.897633
0.10062973 1.6022222 -0.29157385 -0.9472604 -1.4144589 0.49188122 0.61423993 -0.097396895
0.563998 -1.6025809 1.0295174 0.41859645 -0.42125353 -0.30616593 -0.014396189 -0.71296525
0.84911346 0.95360804 -6.438398 -0.5492263 -3.1573005 0.4052734 -0.7550232 0.21374577
0.38241515 -2.2192008 -1.3171415 0.10052411 -1.17666 -0.039004974 0.12599225 -2.2809005
0.6145489 -2.772033 -0.021771573 -3.2621262 0.0055575264 0.14708622 0.0066649546 -1.9587889
1.8015362 0.27196696 0.031032128 -2.3524418 0.4144777 -3.3654222 -0.03760673 -0.064216405
0.51336116 -1.043712 -0.9755033 0.9414303 -0.0015313029 0.9467655 -2.3916073 -0.08118076
-4.877564 -0.289075 -1.694071 0.9499232 0.7562925 0.28383538 0.35461184 0.49136373
-3.0491228 -0.15067245 -0.09660641 1.3391389 -2.1390529 0.45545664 -0.079609305 -2.7819328
0.18336879 -1.2391232 -2.30373 -3.1007388 -0.020670416 1.1433147 1.0410583 0.41301376
-0.031029014 -1.0235089 -1.3299408 -1.9161313 -2.414136 0.0051813237 -1.2611332 -0.9723892
-2.177909 -1.0393206 -0.025247643 -1.0232266 -0.023537816 -0.6389546 -0.01122564 -8.649031
-3.4976935 0.83157474 1.0369034 0.3101877 -1.9889147 0.0160465 -1.2856673 -1.038158
-3.2140512 -0.22834302 0.51096 0.11656561 -1.0351392 -1.4945804 0.0009933047 -0.1904656
0.36405388 -0.093240365 1.7445827 0.67264277 -0.017256131 -0.9964512 -0.031391054 -1.937398
-2.1102233 -0.033415467 0.43796784 -0.023049043 -0.03607532 1.3395598 -1.5892522 -2.3517234
-2.2212033 -0.035215553 -0.086743616 -0.036754426 0.373953 -0.01535605 0.013073327 1.1132637
-4.602028 -2.8593748 -0.46725827 -0.3858828 0.3320308 0.19935125 0.18295588 -0.8970157
-1.8106698 -0.016005281 -0.80715847 -6.4370723 -1.80494 1.337317 -0.905452 -0.7544002
-0.045230873 -4.907569 0.047055133 0.18758298 -1.8151166 -4.4537916 2.292613 -5.5800157
-0.014234411 0.8676644 -1.1032149 -2.5201073 -3.2773132 0.18714707 -0.08294039 -0.03287278
-0.042432692 -0.03535821 -0.02503696 -0.015366315 -0.39507312 -2.5571132 0.6067211 -1.8303473
-0.5385723 0.9960956 -0.007575184 0.2934724 -0.018051576 0.64352524 -1.8319654 -0.017916875
-0.5547146 -1.7567564 -0.011535127 -2.5889792 -1.00693 1.6486712 0.48371136 -3.827245
-0.006889091 0.036908843 -0.84148383 0.6583243 -2.6441379 -1.052911 1.1396868 0.16824739
1.4383727 0.82108754 0.26282677 0.020862272 -1.5803652 -0.016712425 0.8438428 -1.1994189
0.45071235 1.0472649 0.005863229 -1.5741833 -3.0684395 -1.7031205 0.13899659 -3.3773944
-1.8302766 -1.2263755 0.023883488 -2.3316736 0.58331734 0.25977057 0.88149714 -1.2201275
0.1546257 -1.3606931 -1.5973489 -0.7533122 -0.2659396 -2.0772624 -1.3873428 -1.7121999
-0.21363361 -0.03185625 0.29211688 0.56839293 -0.34734476 -0.11472963 0.3661732 0.75393397

weight f4 [50, 500]
00000000: 3da8 8e3c 5105 82bc eb7b 753c 12c4 483d
00000010: 97dc 02bb 76e0 303d 3b4c 58bc 03ae d73c
00000020: 394c e4bc da47 1fbd 1a2d 143d f080 b33c
00000030: 6b73 113d 69c2 ab3c e141 8fbd 6ada 053c
00000040: 3e74 31bd f119 933d d927 d3bc 4bf3 473c
00000050: a218 e1bc 9877 aabc bc91 7b3d 60b3 743d
00000060: 7af6 e2bc 0c9d 173d 966a 663c c24a 57bc
00000070: 92d5 323d fa06 ae3b 8d11 733c 339e 023c
00000080: 07c0 1dbd 063f 0dbd 2c2e 943c f455 eebc
00000090: ec9e 543d 40a2 9238 c774 e4bd da81 203d
000000a0: bb00 9f3c 1f86 313a 9eee cbbc 4a94 f83b
000000b0: c177 5a3c a98f 70bc 57a4 003d acf7 eebc
000000c0: 5cfa c8bc 85ca bb3c 7ad3 f23c 12b5 12bd
000000d0: 5061 c1bc de8e 1cbd b72a 953b 6b7b 903d
000000e0: 840f 343d 1280 c3bc 4c47 d4bc 5b26 cebc
000000f0: 0d0e e63c 8edb 23bd 4980 053c b0cc 403c
00000100: 2c52 02bd f17d c1bc ecad babc 8aa1 5fbd
00000110: 1492 59bc 4335 22bd 17fc 8cbc 2ac0 31bd
00000120: bc2e 1bbd 42f9 17bd e782 103d e569 cbbc
00000130: be0f debc 99fb 4ebd b9ea 05bd c1b3 5c3c
00000140: e9cd cd3a 339c 31bd d390 b83c ed96 223d
00000150: d473 c53a c5e9 9e3c 236a 42bd 924c 56bd
00000160: 0dae 413d 08a6 8bbc 5b59 023d 92a2 d13c
00000170: 0854 4e3c 2a10 303c 6375 183c 6246 cbbc
00000180: 0a1f 7bbd 32c3 21bb e888 b53b 844c 6abc
00000190: c147 62ba 9eec ddbd 3a40 733b 7fc2 903c
000001a0: 5d34 963c fcad ea3c c295 60bc 9b55 12bd
000001b0: 5b32 02bd 0d63 303c bd09 9bbd ddef 40bd
000001c0: 36b8 9dbd 2dd7 383d c157 b13c 5759 123d
000001d0: e4e0 35bd dca5 f03c c205 fd3c a422 913c
000001e0: 7cc8 ac3b 1cf1 0fbd 4498 9a3b 9c98 383d
000001f0: df94 083c 57eb 2fbd 638d 0e3c b08e 9f3b
00000200: 791d c63c 1235 0fbd 2092 923c 0b9d 9abc
00000210: 043f c7bd 9993 b7bc 11bb d93c 19c4 ea3b
00000220: 24dd 3abd ebae 36bd e27f 5abc f042 09be
00000230: 6b5a 31bd fc6f 413d ed9a 37bd 69dd 2dbc
00000240: 88b0 40bd ce6c fabc a101 1abe 3981 12bd
00000250: d92f 333d eb01 e0bc f85b 9bbd c98a f33c
00000260: b6dd 043d 26d2 d1bc b997 b7bb 67d6 8bbd
00000270: 5f29 82bc 7e96 103d 781c 8dbc 0d57 32bd
00000280: a1be c839 2c10 193d c0b0 2b3c 5915 1f3d
00000290: d7a5 7abc 3b87 3b3d 2d99 55bb c5bb 17bd
000002a0: 1c0c 04be 616c 0abd 02b2 51bd 22aa 0e3d
000002b0: d3e4 03bd 09fa 0ebd bfd0 98bb e26b 973c
000002c0: 6f55 163c 3b25 353d 18c3 0ebd d923 33bc
000002d0: a848 8c3c aeab 6e3c 7bb2 38bd 9ff9 7a3c
000002e0: e242 373d 0f0e 033d cfd8 19bd 0469 62bd
000002f0: cc2c 1fbd c175 bebc 3167 8d3b b32f 153c
00000300: e001 2bbc 4602 b5bc a7d3 b0bd 29dc 583c
00000310: a4df 1bbd 9615 16bd 0d80 d13c de80 1ebc
00000320: cc7f c43c dd53 3bbd 30fc f5bb b496 103d
00000330: 0ee1 f1bc d018 f53c 0cfa e53b 8756 aa3c
00000340: 7911 ed3b 2d5d 7cbd 294c 81bc bee2 91bc
00000350: 5b96 773c 262b 2f3c 8100 47bd 022f e6bb
00000360: 3a62 35bc 88d5 25bd 131a 533d b11e a33c
00000370: 7eed 1b3d a925 86bc 56ee 9a3c b645 353c
00000380: 2b93 bcbc 969f 543c 5cd0 47bd d863 a0bc
00000390: 26e0 21bd a92d 87bc 2dea 693c 52b9 143c
000003a0: 9290 a1bb e823 c73c 6d99 27bc 246f 1fbd
000003b0: 37b5 c33c f012 ffbc 4aa3 d33c b830 183d
000003c0: 1843 01bd 693f 0abc 94be b5bc 5837 e0bc
000003d0: 4b2a 83bc 3b2a 2abd c689 8d3a fbb5 37bd
000003e0: f55e 8dbc d6d3 f7bd 778d 343d f72e dabc
000003f0: 1d50 d03c 249b bf3a f0d9 1e3d ce1d 7cbd
0.017414207 -0.015871676 0.014983158 0.049015112 -0.0019967908 0.043182813 -0.0132017685 0.026328092
-0.027868377 -0.038886882 0.036175825 0.021912068 0.03551046 0.020966725 -0.06994987 0.00816975
-0.043323748 0.07182682 -0.025775837 0.012204002 -0.027477566 -0.02080898 0.06141828 0.059741378
-0.02770542 0.037015006 0.014063498 -0.013140382 0.043660708 0.0053108903 0.014835727 0.007972288
-0.03851321 -0.034483932 0.018088423 -0.02909372 0.051909372 6.992044e-05 -0.11155086 0.039186336
0.019409528 0.0006772 -0.024894055 0.007586037 0.013334216 -0.014682689 0.031406727 -0.029170834
-0.024533443 0.022923717 0.029641856 -0.035817213 -0.023605973 -0.038222186 0.004552211 0.0705479
0.04396011 -0.02386478 -0.025912903 -0.025164774 0.028082872 -0.040004306 0.008148261 0.011767551
-0.031816646 -0.023619624 -0.02278801 -0.054597415 -0.013279457 -0.039601576 -0.01721005 -0.043396153
-0.037886366 -0.037102945 0.03528109 -0.024830768 -0.027107116 -0.05053291 -0.032694552 0.013470591
0.0015701625 -0.043361854 0.022529995 0.039694715 0.0015064427 0.01939858 -0.0474645 -0.052319117
0.04728513 -0.017046943 0.031823497 0.025590215 0.012593277 0.010746041 0.009305331 -0.024813835
-0.061308898 -0.0024682996 0.005540002 -0.014300469 -0.0008631908 -0.10836147 0.003711714 0.017670868
0.018335516 0.028647415 -0.01370758 -0.03572617 -0.031786304 0.010765803 -0.07570217 -0.04710375
-0.07701151 0.045127083 0.02164829 0.035729732 -0.044403926 0.029375963 0.030886535 0.017716713
0.005272923 -0.03514205 0.0047178585 0.045067415 0.008336275 -0.042949047 0.008700701 0.0048693046
0.024183976 -0.03496272 0.017891943 -0.018873712 -0.09728816 -0.022409247 0.026578458 0.00716449
-0.045621052 -0.04460041 -0.013336154 -0.13404441 -0.04329912 0.047225937 -0.044825483 -0.01061187
-0.047043353 -0.03056946 -0.15039684 -0.035767768 0.043746803 -0.027344665 -0.07585901 0.029729264
0.032438003 -0.025612902 -0.0056028035 -0.068280034 -0.015888868 0.03529977 -0.017225489 -0.04354005
0.00038289002 0.03736894 0.010479152 0.038838718 -0.015298328 0.045783263 -0.003259252 -0.037044305
-0.12895244 -0.033794764 -0.051195152 0.03483022 -0.032200646 -0.03490642 -0.0046635563 0.01848406
0.009175642 0.04422496 -0.034854025 -0.01093384 0.017124489 0.014567299 -0.045092087 0.015318303
0.04474152 0.03199583 -0.03756028 -0.055275932 -0.03886108 -0.023249509 0.00431528 0.009105611
-0.010437459 -0.02209581 -0.086341195 0.013236084 -0.038055077 -0.03664168 0.025573755 -0.009674279
0.02398672 -0.045734275 -0.0075068697 0.03529997 -0.02952626 0.029919058 0.0070183333 0.020793213
0.007234749 -0.061612297 -0.015783386 -0.017808314 0.015111531 0.01069144 -0.048584465 -0.0070246467
-0.011070782 -0.040486842 0.05153854 0.019912096 0.038068287 -0.01637538 0.018912476 0.011063984
-0.023019394 0.012977501 -0.04878269 -0.01957886 -0.039520405 -0.016501265 0.014277023 0.009077387
-0.004930564 0.024309114 -0.010229451 -0.03892435 0.02389012 -0.03113696 0.025834698 0.037155837
-0.031558126 -0.00843797 -0.022185601 -0.02737014 -0.016011378 -0.04154418 0.0010798506 -0.044851284
-0.017257193 -0.121009514 0.044080224 -0.026633723 0.025428826 0.0014618379 0.03878206 -0.06155186

bias f4 [50]
00000000: fc11 9ebc b3d4 343d 5332 de3d 76f8 9a3c
00000010: 5eaf 8e3d 22a5 ba3b 7414 1a40 8f82 323d
00000020: 2f36 96bd 2ded 893e 7cb0 f33d 4bea 133e
00000030: 5f5f 43bd 7de2 e33d c524 74ba 6190 0bbd
00000040: ba69 533d 2f46 1bbd 33b5 123e 9b70 90bc
00000050: 7bc1 023c ec7d c23b fbfe 7d3e 804e c53f
00000060: 132a ba3d 4fcf 9d3a 60ec 83bc c20e d4bc
00000070: 37b0 2d3c 119d 993c 919f e93c bbbc 8a3d
00000080: 4238 883f f777 97bb ef84 3a3e 1659 e9bd
00000090: e448 54bf 2209 3e3f 2654 b9bc f9fb 383d
000000a0: 9ce7 e9bd 66fd 25bc e4a1 7e3d 9d04 8bbd
000000b0: 9f0d 493c 2ce7 bd40 be0c f73c 3d63 7bbc
000000c0: 8fa0 a83d c9c4 1a3d
-0.019295685 0.04414816 0.10849442 0.018917304 0.069670424 0.005695955 2.4074984 0.04358154
-0.073345535 0.26938763 0.11898896 0.14444844 -0.047698375 0.111271836 -0.00093133404 -0.034073237
0.0516145 -0.03790873 0.14326935 -0.01763182 0.0079807 0.005935421 0.24804299 1.5414581
0.09090056 0.0012039932 -0.016103923 -0.025885943 0.010601095 0.018751653 0.02851847 0.06774279
1.0642169 -0.004622455 0.18214773 -0.11393945 -0.8292372 0.74232686 -0.022623133 0.045162175
-0.11421129 -0.010131216 0.06216611 -0.06787989 0.012271314 5.934469 0.030157443 -0.0153434845
0.08233749 0.037785325

weight f4 [1, 50]
00000000: 738a edbe b915 37c0 db38 48c0 53d4 253f
00000010: 9ad7 683c e457 8d3d e678 7d40 67df 84bc
00000020: 8c6d eab9 6b66 6a40 d08a 5ebe 72d6 bc3f
00000030: b368 3639 e5e7 483f 15e9 4e3c 4d9d 1939
00000040: 79d6 f2bf c774 adb8 6268 a2be 7c04 233b
00000050: a0b8 c839 fb95 05ba 955d da3f b859 a440
00000060: 876c 43ba 0b79 f43d 915e a43e 70e8 8039
00000070: 4c8e 11b9 9246 81ba f10f adbd 0f17 2040
00000080: 8b55 e140 842d 3d3d b406 a93e 43b9 9938
00000090: 6bd9 9e40 38af 9e40 656c 113e 27bc fd3a
000000a0: 01bf a940 ace0 ba38 6c46 f83d 9e25 94b9
000000b0: 6708 26b9 f450 b640 8b9a 253f 821a 0e3e
000000c0: 4319 73bc 16d1 c2ba
-0.4639469 -2.8607008 -3.1284702 0.64777106 0.01421156 0.069015294 3.960504 -0.016219808
-0.00044713577 3.662501 -0.2173264 1.4752944 0.00017395876 0.7847884 0.012628813 0.00014649816
-1.8971702 -8.271034e-05 -0.31720263 0.00248745 0.0003828453 -0.0005095896 1.7059809 5.135952
-0.00074548315 0.119371496 0.32103398 0.00024587242 -0.00013881287 -0.000986295 -0.08450306 2.5014074
7.0416923 0.046185985 0.33012927 7.330116e-05 4.9640403 4.958889 0.14201505 0.0019358442
5.304566 8.9110195e-05 0.12122807 -0.00028256787 -0.00015834124 5.697382 0.6468894 0.138773
-0.014837566 -0.0014863338
