scripts/dof3pos_single_layer.pt (torch, 102303 bytes, 3 tensors)

weight f4 [5000, 3]
-0.10557554 -0.01716949 0.5433801 4.0554757 1.9548723 -0.10457676 -0.20803455 -0.38441408
0.19859935 0.55924916 0.1466019 0.21310675 -0.0020469027 -0.7881586 0.17247376 -0.68807966
0.60433584 -0.35216847 -0.514008 0.5108296 -0.15763205 4.0706987 -2.5049043 -1.894674
1.0248468 -0.25249937 0.37598354 -3.6947212 -3.582878 -0.86082774 -4.655292 -0.050289858
-1.228355 0.2712611 0.27865776 -0.06666624 0.6026458 -3.8345206 -1.7291769 -0.8266149
-3.021275 -0.34156975 0.73099726 -3.1869345 -1.4408207 0.5098255 -0.020617528 0.33474267
0.19690272 -2.8866086 -0.9709824 -0.13089374 1.9586679 0.690972 0.7059667 4.1023893
-0.30536845 -2.514167 2.6772594 1.1857289 0.00057610945 0.40791568 -0.027288979 -0.71419495
-0.19278106 0.302363 -0.774967 -0.087862894 -0.43132922 -1.044356 0.36858323 -0.35808375
-0.06450274 -1.0600809 -0.45717594 0.44803786 -0.24434143 0.34496248 -2.4031389 0.17069702
0.07943445 4.269086 1.3140348 0.7298462 -0.114883825 -0.026556255 -0.026902517 0.88012946
4.3226247 1.9766163 -0.353395 1.683417 0.0052394783 -0.588677 0.58128834 -0.26579148
0.19294639 0.16661912 -0.20618169 1.1919242 -0.21088645 0.4705349 -0.4754033 -0.42716596
0.19268662 -0.34623048 0.3062211 -0.1546092 -1.081156 0.7147356 -0.3013579 0.00085928396
-0.57224005 0.18456282 -0.6270448 -0.6406961 0.20769712 1.549014 -3.720415 -0.1456242
3.2352543 0.7786951 0.50145733 0.042467326 0.20813887 -0.67113876 -0.3808311 -0.116335526
0.15210196 1.049276 4.2636166 1.2162174 -0.005035179 0.5363428 -0.335735 -1.0011839
-1.7080879 -0.70736235 -1.8128482 -3.0553946 -0.78445387 -1.0216324 1.9248431 0.7532441
-0.30854353 -0.17039867 -0.31318384 -0.40608552 0.2730781 -0.10895176 1.0958436 -0.88845325
0.2600366 -0.43770728 -0.49587238 0.06464359 0.010473958 -0.060738184 -0.31914556 -0.10837045
0.20531638 -0.27400523 -0.002376447 2.8271937 0.15721102 0.951884 -4.154329 -1.1859633
-0.41939592 0.73870754 -0.20805842 0.5506011 -2.049841 -1.6770585 -2.7461183 -2.1638122
-1.9977884 0.9497131 0.4716822 -0.26898494 -0.66348255 -0.4054657 0.3430613 -3.612027
-1.9418787 -1.5950466 -0.8326383 1.5906644 0.53597194 -1.1937065 1.201278 0.5957248
-0.4782003 0.8443794 -0.28167406 0.19199431 -0.058604173 -0.41773435 -0.19418377 -1.5527619
-1.235544 0.1016005 -0.030682826 0.028634442 -0.38677275 -0.052661538 0.26191851 -0.17592378
0.99808145 0.08958903 0.0027497741 0.1958589 0.3580612 -2.7497308 -0.1633952 0.9723982
0.68086815 0.77959424 0.34184745 -0.861068 -0.9567288 0.15273477 1.4809722 1.5731016
1.5926478 -1.0435296 -0.65288395 0.27765417 0.060720254 0.8426215 0.30974337 0.5251123
0.93251634 -0.40392795 0.175146 -0.035913177 -0.20910035 0.360929 0.09307531 0.1817701
-0.46977073 -0.48656988 0.10748936 0.0024303703 2.2245545 -0.0778929 1.3175558 0.5272724
-0.42402712 3.3117213 -4.259303 -2.3098528 0.7719404 0.32354555 -0.23419188 -3.8001268
00000000: fd37 d8bd 08a7 8cbc f51a 0b3f 75c6 8140
00000010: 4139 fa3f 572c d6bd 0207 55be ecd1 c4be
00000020: a15d 4b3e f42a 0f3f cf1e 163e a838 5a3e
00000030: 5425 06bb c3c4 49bf f69c 303e fd25 30bf
00000040: c1b5 1a3f 6d4f b4be 0796 03bf bbc5 023f
00000050: 4c6a 21be 2a43 8240 5a50 20c0 ad84 f2bf
00000060: 2e2e 833f 9947 81be ea80 c03e 5076 6cc0
00000070: e04d 65c0 355f 5cbf 27f8 94c0 bdfc 4dbd
00000080: bd3a 9dbf bce2 8a3e 3bac 8e3e 4f88 88bd
00000090: ff46 1a3f c968 75c0 ab55 ddbf 099d 53bf
000000a0: 925c 41c0 3be2 aebe a322 3b3f bcf6 4bc0
000000b0: d06c b8bf ed83 023f 17e6 a8bc 6463 ab3e
000000c0: dea0 493e 32be 38c0 4d92 78bf 0209 06be
000000d0: a1b5 fa3f 8ae3 303f 3cba 343f c646 8340
000000e0: 4159 9cbe 1de8 20c0 3858 2b40 f7c5 973f
000000f0: 0d06 173a 53da d03e 238d dfbc 7bd5 36bf
00000100: 6668 45be 53cf 9a3e 3d64 46bf 76f1 b3bd
00000110: 2fd7 dcbe 75ad 85bf f1b6 bc3e c156 b7be
00000120: 031a 84bd bbb0 87bf f712 eabe 3865 e53e
00000130: a434 7abe ec9e b03e 07cd 19c0 33cb 2e3e
00000140: 87ae a23d 5a9c 8840 4b32 a83f 33d7 3a3f
00000150: 3648 ebbd 818c d9bc ab62 dcbc 2a50 613f
00000160: f152 8a40 c301 fd3f 30f0 b4be 357a d73f
00000170: eeaf ab3b 89b3 16bf 50cf 143f d215 88be
00000180: bd93 453e 349e 2a3e 4b21 53be f990 983f
00000190: 9ef2 57be f3e9 f03e 1068 f3be 7fb5 dabe
000001a0: a44f 453e 1f45 b1be 03c9 9c3e e051 1ebe
000001b0: 5263 8abf eaf8 363f 954b 9abe 9241 613a
000001c0: 537e 12bf 09fe 3c3e 0286 20bf a904 24bf
000001d0: 8eae 543e 1746 c63f 481b 6ec0 831e 15be
000001e0: 680e 4f40 9058 473f 825f 003f 38f2 2d3d
000001f0: 5b22 553e c0cf 2bbf 4bfc c2be 5241 eebd
00000200: 9ec0 1b3e ad4e 863f 8c6f 8840 03ad 9b3f
00000210: 25fe a4bb c34d 093f 75e5 abbe cb26 80bf
00000220: a0a2 dabf b315 35bf 690b e8bf 968b 43c0
00000230: f8d1 48bf dac4 82bf 4261 f63f 9bd4 403f
00000240: 6bf9 9dbe fd7c 2ebe a259 a0be 71ea cfbe
00000250: e5d0 8b3e 1a22 dfbd 9a44 8c3f ac71 63bf
00000260: 8423 853e 2b1b e0be fce2 fdbe dc63 843d
00000270: f79a 2b3c 9ac8 78bd 0c67 a3be 54f1 ddbd
00000280: 753e 523e 6a4a 8cbe 2abe 1bbb bef0 3440
00000290: edfb 203e abae 733f 43f0 84c0 a5cd 97bf
000002a0: 10bb d6be f01b 3d3f 440d 55be 32f4 0c3f
000002b0: 9830 03c0 daa9 d6bf 67c0 2fc0 e67b 0ac0
000002c0: 88b7 ffbf 6620 733f 5480 f13e 65b8 89be
000002d0: fed9 29bf 3399 cfbe bba5 af3e 732b 67c0
000002e0: 7b8f f8bf 7d2a ccbf c927 55bf e49a cb3f
000002f0: 7535 093f 60cb 98bf 7ac3 993f 6c81 183f
00000300: abd6 f4be 4029 583f 9537 90be 289a 443e
00000310: ee0a 70bd 47e1 d5be 1cd8 46be e7c0 c6bf
00000320: 4e26 9ebf ec13 d03d 8d5a fbbc c792 ea3c
00000330: 1407 c6be a0b3 57bd 2f1a 863e 5d25 34be
00000340: 4482 7f3f 747a b73d 8e35 343b 3c8f 483e
00000350: cc53 b73e 97fb 2fc0 1251 27be 17ef 783f
00000360: 604d 2e3f 7d93 473f a106 af3e f46e 5cbf
00000370: 2eec 74bf 8166 1c3e 7f90 bd3f 655b c93f
00000380: e2db cb3f 6192 85bf 6723 27bf b028 8e3e
00000390: cdb5 783d 0bb6 573f af96 9e3e c26d 063f
000003a0: 64b9 6e3f a5cf cebe 7959 333e b219 13bd
000003b0: 671e 56be b0cb b83e 459e be3d f121 3a3e
000003c0: ca85 f0be b01f f9be 6223 dc3d d946 1f3b
000003d0: 1a5f 0e40 5086 9fbd aba5 a83f 53fb 063f
000003e0: 151a d9be 3ef3 5340 364c 88c0 a1d4 13c0
000003f0: e39d 453f c3a7 a53e ffcf 6fbe 4735 73c0

bias f4 [5000]
0.64654446 -0.010619712 0.23679622 0.40251437 0.2798409 -0.033318393 -0.52972007 0.0137935905
-0.011640413 -1.4625107 -0.009481546 0.1382831 1.6576793 1.9249625 1.3481467 -0.18702064
1.0054004 1.2640522 -2.0840704 0.5743921 0.3964117 -0.7539384 -0.072079144 0.0051999954
-0.75641024 0.00025600073 -1.1116279 -1.9109206 -0.4625672 -1.8639773 -1.8037661 -0.037061337
0.36920667 -0.008415196 -0.050868645 0.23681049 -0.03711552 -0.4655548 -0.6686689 -0.014471617
1.4481075 -0.9288648 0.36853826 -0.015497033 0.016630143 -1.6330584 1.0420895 -0.8354907
0.1836689 -0.01387022 -0.017700974 0.18537639 0.009267846 -0.3070106 -2.0254736 -0.019088522
0.28915116 -0.011588839 -1.2995824 -0.00038472615 -0.1939044 1.0556213 -0.002274587 -1.1480894
-0.36261186 -0.30201 0.006756153 -0.45744032 -0.1656219 0.7156474 -0.21416292 -2.2820513
-0.8756485 -0.3849472 -0.022288386 -0.015757045 0.54386497 -0.5025643 0.1648332 0.23464066
0.22255924 -1.609023 -0.020343468 -1.4473099 -0.012294739 -0.044870663 0.5143672 0.5164504
-0.026446821 0.44574258 -0.047265515 -1.9360058 0.096533135 1.0256057 0.23728125 -0.016380042
0.021604449 0.51551485 0.23240983 -0.42243904 0.94135064 -2.5492692 -1.865135 -0.5696409
0.24746637 0.3022262 -0.2749923 0.0019151511 -1.2984722 0.24880739 -0.009258177 -0.016208928
-0.4023394 0.3897593 -0.86602545 -0.5699593 0.33516988 0.26619166 0.60504156 0.3905309
-0.014668385 0.1958273 0.28760284 -0.10685599 0.12846792 0.353215 0.21924515 0.03846918
-1.1514249 -1.8899024 -0.017282965 -0.80163527 0.2667107 -0.2420296 0.18824649 -0.25383157
0.27235103 0.12785748 -0.018263785 0.16654715 -0.0018105784 0.54652554 1.9947426 -0.011096541
0.34214866 0.12331955 -0.020492988 -0.060002945 -1.2414078 -0.49934646 -0.0109385485 -0.8015283
-0.01279347 -1.9745215 0.26637602 -0.38253462 -1.1254541 -1.7022 0.30015147 0.45725963
0.35168165 -2.882317 -0.006654622 -0.6806131 -0.0019917747 1.6311034 -0.016597077 0.37627542
-0.009686449 0.2985303 -0.014296327 -0.010434318 -0.12136314 -0.41412154 -0.027507342 -2.0590744
0.21613017 -0.0070615276 0.27142662 0.3093922 0.002568277 -1.1548856 0.030566549 -0.4448138
-0.010836459 -0.0003939652 -0.45256603 0.021470634 -0.04036543 -0.43525064 -0.63234377 -0.9158427
0.0042978036 0.2578847 -2.21973 0.25740388 -1.0925329 -0.047664877 -0.0018971269 -0.5276285
-2.1808758 -3.5581775 0.42942777 0.32520396 -0.40917957 -0.48347822 -0.69326 0.09555187
-2.8958704 -2.3997288 -0.79447556 -1.5857533 -0.40112922 -0.015948981 -0.006122937 -0.14573646
0.2110844 0.49783218 0.37644893 0.6645771 -0.008750376 0.14328484 -0.003481525 0.11782559
-1.0648791 0.92552817 0.092777066 -0.11111235 -0.04286922 -0.33246377 -0.034543492 0.1640171
0.8256862 0.73968935 -0.66857606 2.1575336 -0.34017533 0.06740141 -0.05013107 0.09708173
-2.0136077 -0.15709645 0.7508078 -0.44901 -0.15729581 -0.39745405 -0.009287647 -0.800222
-0.02498954 1.2193944 -0.5919006 -0.0028755425 -0.58735275 0.51071244 0.003008478 -0.3416771
00000000: f083 253f 4dfe 2dbc b57a 723e 5d16 ce3e
00000010: 4e47 8f3e de78 08bd bc9b 07bf 83fe 613c
00000020: 6eb7 3ebc 8d33 bbbf 7c58 1bbc 169a 0d3e
00000030: d62e d43f 2c65 f63f 1290 ac3f 5782 3fbe
00000040: f6b0 803f 76cc a13f 6961 05c0 5c0b 133f
00000050: 79f6 ca3e 1b02 41bf 3b9e 93bd b964 aa3b
00000060: 1aa4 41bf d637 8639 d349 8ebf 0c99 f4bf
00000070: 9cd5 ecbe cf96 eebf cfe1 e6bf a1cd 17bd
00000080: a808 bd3e e4df 09bc a45b 50bd 737e 723e
00000090: 7206 18bd 335d eebe e32d 2bbf 5c1a 6dbc
000000a0: 965b b93f 15ca 6dbf 0cb1 bc3e 44e7 7dbc
000000b0: f03b 883c 0f08 d1bf 3063 853f b8e2 55bf
000000c0: b313 3c3e eb3f 63bc a201 91bc 4fd3 3d3e
000000d0: 2ad8 173c 7e30 9dbe 5ca1 01c0 885f 9cbc
000000e0: 9f0b 943e 1ddf 3dbc b758 a6bf 12b5 c9b9
000000f0: e08e 46be 991e 873f 3d11 15bb 98f4 92bf
00000100: 43a8 b9be 0ea1 9abe b862 dd3b 9e35 eabe
00000110: ca98 29be ab34 373f 864d 5bbe 210d 12c0
00000120: 802a 60bf cd17 c5be 2296 b6bc eb14 81bc
00000130: bc3a 0b3f 0ea8 00bf 09ca 283e a445 703e
00000140: 92e6 633e 77f4 cdbf 58a7 a6bc 7341 b9bf
00000150: df6f 49bc 4dca 37bd 92ad 033f 1836 043f
00000160: 01a7 d8bc 5f38 e43e 7c99 41bd 0acf f7bf
00000170: 2ab3 c53d 0c47 833f dbf9 723e 702f 86bc
00000180: d0fb b03c c8f8 033f d8fc 6d3e ee49 d8be
00000190: 5bfc 703f 3a27 23c0 bebc eebf fcd3 11bf
000001a0: d367 7d3e 64bd 9a3e cacb 8cbe cf05 fb3a
000001b0: 5634 a6bf 5dc7 7e3e 9caf 17bc 96c8 84bc
000001c0: 6eff cdbe 888e c73e d8b3 5dbf dae8 11bf
000001d0: 639b ab3e 464a 883e 01e4 1a3f abf3 c73e
000001e0: aa53 70bc f486 483e ae40 933e 50d7 dabd
000001f0: 188d 033e 99d8 b43e cd81 603e dc91 1d3d
00000200: e461 93bf 52e8 f1bf 0195 8dbc f837 4dbf
00000210: 4e8e 883e 9cd6 77be b0c3 403e 36f6 81be
00000220: 9871 8b3e 12ed 023e ef9d 95bc 568b 2a3e
00000230: ee50 edba 19e9 0b3f ba53 ff3f 44ce 35bc
00000240: 1c2e af3e f68e fc3d e9e0 a7bc a6c5 75bd
00000250: 73e6 9ebf 57aa ffbe 9937 33bc f530 4dbf
00000260: b49b 51bc 1fbd fcbf 7062 883e 94db c3be
00000270: e10e 90bf b1e1 d9bf 74ad 993e ef1d ea3e
00000280: 9e0f b43e e277 38c0 040f dabb a93c 2ebf
00000290: 6f88 02bb ffc7 d03f 98f6 87bc 2ca7 c03e
000002a0: e9b3 1ebc f7d8 983e 243b 6abc b4f4 2abc
000002b0: 3d8d f8bd bd07 d4be 1457 e1bc e0c7 03c0
000002c0: 3a51 5d3e 6364 e7bb 6ef8 8a3e a868 9e3e
000002d0: 8a50 283b 4bd3 93bf b366 fa3c a2be e3be
000002e0: 678b 31bc 1d8d ceb9 bcb6 e7be 2fe3 af3c
000002f0: 3956 25bd 2cd9 debe 48e1 21bf ab74 6abf
00000300: 97d4 8c3b 7709 843e 0e10 0ec0 71ca 833e
00000310: 1ed8 8bbf 3f3c 43bd 04a9 f8ba a912 07bf
00000320: 7893 0bc0 2eb9 63c0 f5dd db3e 2281 a63e
00000330: fc7f d1be 758a f7be 7d79 31bf b3b0 c33d
00000340: f155 39c0 2895 19c0 c062 4bbf f7f9 cabf
00000350: cf60 cdbe 70a7 82bc eba2 c8bb f03b 15be
00000360: 8226 583e dce3 fe3e eabd c03e ba21 2a3f
00000370: bd5d 0fbc 43b9 123e 4c2a 64bb 8b4e f13d
00000380: f54d 88bf 6aef 6c3f e701 be3d df8e e3bd
00000390: a397 2fbd b138 aabe 7a7d 0dbd 19f4 273e
000003a0: 2c60 533f 485c 3d3f cd27 2bbf 0815 0a40
000003b0: 762b aebe c009 8a3d 3d56 4dbd c9d2 c63d
000003c0: f3de 00c0 e4dd 20be f134 403f a4e4 e5be
000003d0: 2712 21be 197f cbbe 372b 18bc 59db 4cbf
000003e0: ddb6 ccbc 1e15 9c3f cc86 17bf 9973 3cbb
000003f0: c05c 16bf 0dbe 023f e329 453b 4df0 aebe

weight f4 [1, 5000]
0.45455167 -3.3270335 0.24537897 -0.3061719 0.5558038 0.54595894 0.58511376 -3.7962058
0.76289195 4.0517297 -3.5579088 -0.22543791 3.2910967 2.8125813 2.759978 0.33074948
2.3908348 -1.8070327 -3.8994641 2.864947 0.33643004 -0.6376742 0.57527876 0.82945085
-1.0274976 0.3378006 1.9431338 3.644729 -0.0020610364 3.842709 -2.1356702 0.5124923
0.20335613 0.9207979 0.3682656 -0.19680206 0.96797556 -0.46431112 0.7800106 3.3054445
2.5912795 0.8219885 -0.26113734 -3.3536048 0.31992874 -2.1403563 2.8119926 1.8186426
0.27361473 0.35654813 1.0563408 -0.38742733 0.0100873895 0.08899509 -2.8359659 -3.2478988
0.58203393 -2.0205078 3.2158823 0.8043502 0.35064754 3.2410753 -1.3280339 -1.6482775
0.75186723 0.12409264 -1.5020684 -0.011872575 0.26224494 0.89901215 0.20554176 -2.9736128
-1.0580066 -0.9478921 -2.0231447 0.8629194 -0.70781904 0.83422244 0.038610622 -0.08922915
-0.38773516 -2.2296324 1.0955933 4.5135026 0.6031452 -2.9157245 2.3983736 -0.6675876
-1.6686226 -0.5448404 -1.7906147 -2.6833603 0.20872465 -1.2495146 -0.47720838 -2.3827527
0.23328564 2.591235 0.016310336 0.6024072 3.0172608 -3.006045 -2.6629572 1.3459361
-0.59466887 0.030125758 0.421906 -0.48478666 -1.7041425 -0.40205705 0.8441325 0.65352786
0.072755754 -0.2578382 -0.87792367 -0.44471198 0.03261737 0.18191622 -0.7850441 0.23371667
-4.6551213 -0.47186017 0.027302887 0.1797645 -0.17572019 0.94286525 0.12249804 -0.14621669
-1.5152925 3.3088899 -1.1551654 -0.8768612 -0.6414182 0.4456985 -0.37998915 0.32798582
0.18282382 0.18345079 -3.7543356 -0.34689608 0.3549669 -0.6620608 4.0766044 0.9604663
0.20385934 -0.038791504 -2.5670578 -1.7220263 -1.4771175 -0.41636175 -3.7693245 -0.6715136
0.47547117 3.5997941 0.25275385 0.65780145 -1.204457 -2.3569012 0.15545215 1.1015278
-0.28136984 4.402549 0.5346596 -0.898834 -4.4533205 2.9379458 -1.5752835 -0.4378426
-2.7961707 0.13861716 0.269536 0.6690996 -0.26864004 -0.11827921 -3.2938137 4.5685935
0.14657292 0.49869168 0.16924264 -0.19309896 -5.6775246 -1.3711305 0.2803059 -0.31901672
0.83149076 -1.2233987 0.28373218 -0.12484023 0.32877803 0.14596553 0.32324094 0.77667034
-1.3833976 -0.2610451 4.021669 0.37575707 2.2810001 -4.0620584 0.40356222 0.36803582
-2.9050417 4.75627 -0.29502067 0.28995556 0.5008704 0.49993345 -0.60600096 -0.1252596
-4.06508 5.2888412 -0.6746335 3.8587239 0.9439144 -1.3886409 -1.4994292 0.21519236
0.22145738 2.2757974 0.3616787 2.0821228 -1.1841859 0.19979236 -0.31229535 0.08652001
-1.443864 -1.1550405 0.14147691 -0.07084468 -1.3080474 0.40288627 0.7723813 0.16589822
-1.0391959 3.8089967 -0.5588059 3.4416244 -0.5316131 -0.12807629 -4.224646 0.23702347
4.8045335 -0.21535711 2.512361 -0.0077774995 0.5533783 -0.0056431764 6.012307 -0.76855016
-1.4635713 2.6539893 -0.68775624 -1.8448144 1.2597464 -0.60619605 0.57264495 0.25913924
00000000: ffba e83e 1eee 54c0 a044 7b3e 90c2 9cbe
00000010: 2849 0e3f f7c3 0b3f 04ca 153f 09f5 72c0
00000020: e34c 433f c5a7 8140 c7b4 63c0 32d9 66be
00000030: 54a1 5240 5501 3440 7ba3 3040 ff57 a93e
00000040: 7003 1940 d94c e7bf d290 79c0 4b5b 3740
00000050: 8f40 ac3e 9e3e 23bf 7845 133f e456 543f
00000060: 0b85 83bf 33f4 ac3e 9cb8 f83f 3d43 6940
00000070: 7412 07bb f2ee 7540 d2ae 08c0 b232 033f
00000080: 973c 503e 69b9 6b3f 4f8d bc3e 7b86 49be
00000090: 3fcd 773f 30ba edbe c6ae 473f 678c 5340
000000a0: 86d7 2540 d76d 523f cbb3 85be 76a1 56c0
000000b0: b3cd a33e 99fb 08c0 b0f7 3340 48c9 e83f
000000c0: 3b17 8c3e 7a8d b63e 2d36 873f e05c c6be
000000d0: 9445 253c 0f43 b63d 7780 35c0 93dd 4fc0
000000e0: 2d00 153f 0050 01c0 04d1 4d40 e5e9 4d3f
000000f0: 1388 b33e c76d 4f40 04fd a9bf c2fa d2bf
00000100: 5f7a 403f 4824 fe3d c743 c0bf 3085 42bc
00000110: f844 863e a925 663f 8a79 523e ac4f 3ec0
00000120: c36c 87bf 0fa9 72bf 347b 01c0 49e8 5c3f
00000130: a133 35bf 9a8f 553f 2c26 1e3d c6bd b6bd
00000140: 3985 c6be 4cb2 0ec0 673c 8c3f 9d6e 9040
00000150: b967 1a3f 3b9b 3ac0 f47e 1940 05e7 2abf
00000160: 6d95 d5bf a97a 0bbf dd32 e5bf 2dbc 2bc0
00000170: eabb 553e 18f0 9fbf a854 f4be 057f 18c0
00000180: 6ee2 6e3e cbd6 2540 419d 853c 5c37 1a3f
00000190: cd1a 4140 0b63 40c0 e46d 2ac0 a247 ac3f
000001a0: 383c 18bf 4bca f63c 1004 d83e f535 f8be
000001b0: 5721 dabf 6cda cdbe 1119 583f 9a4d 273f
000001c0: f800 953d 5e03 84be 9bbf 60bf 4ab1 e3be
000001d0: cb99 053d 3f48 3a3e a6f8 48bf 6c53 6f3e
000001e0: c1f6 94c0 a897 f1be 4eaa df3c 2f14 383e
000001f0: feef 33be 9e5f 713f 41e0 fa3d d4b9 15be
00000200: 1bf5 c1bf dac4 5340 76dc 93bf fa79 60bf
00000210: fc33 24bf 9832 e43e f08d c2be c2ed a73e
00000220: 2b36 3b3e 86da 3b3e 0947 70c0 5d9c b1be
00000230: 39be b53e d17c 29bf 8b73 8240 1fe1 753f
00000240: 81c0 503e d7e3 1ebd ad4a 24c0 5c6b dcbf
00000250: 3012 bdbf 5e2d d5be 9d3c 71c0 51e8 2bbf
00000260: f570 f33e 0763 6640 f468 813e ad65 283f
00000270: a62b 9abf 78d7 16c0 d92e 1f3e ddfe 8c3f
00000280: b50f 90be aee1 8c40 74df 083f fc19 66bf
00000290: 9a81 8ec0 4e07 3c40 e4a2 c9bf e82c e0be
000002a0: 76f4 32c0 a8f1 0d3e 9f00 8a3e 1d4a 2b3f
000002b0: 308b 89be 5f3c f2bd d8cd 52c0 eb31 9240
000002c0: 3617 163e 8454 ff3e f14d 2d3e bcbb 45be
000002d0: 48ae b5c0 3481 afbf 4184 8f3e 2956 a3be
000002e0: 94dc 543f 5498 9cbf 5845 913e 3cac ffbd
000002f0: 9855 a83e fd77 153e d67f a53e ded3 463f
00000300: 2c13 b1bf b4a7 85be 83b1 8040 3b63 c03e
00000310: e8fb 1140 62fc 81c0 b59f ce3e 316f bc3e
00000320: 34ec 39c0 5d33 9840 f30c 97be 0e75 943e
00000330: 0b39 003f 47f7 ff3e e122 1bbf 0d44 00be
00000340: 2315 82c0 303e a940 c8b4 2cbf 55f5 7640
00000350: 60a4 713f fcbe b1bf 4ced bfbf 635b 5c3e
00000360: b9c5 623e aaa6 1140 f32d b93e 8041 0540
00000370: 6793 97bf 5e96 4c3e 2de5 9fbe 6731 b13d
00000380: 89d0 b8bf 5ed8 93bf 53df 103e 0417 91bd
00000390: 196e a7bf 1c47 ce3e c8ba 453f 39e1 293e
000003a0: 5f04 85bf 9ac6 7340 e70d 0fbf 9343 5c40
000003b0: cc17 08bf 6e26 03be 4d30 87c0 48b6 723e
000003c0: bdbe 9940 9386 5cbe 86ca 2040 65da febb
000003d0: 33aa 0d3f 65ea b8bb d264 c040 b4bf 44bf
000003e0: 4e56 bbbf f6da 2940 cb10 30bf e122 ecbf
000003f0: 5f3f a13f aa2f 1bbf dc98 123f e6ad 843e
