scripts/dof3pos_2_layer_rel_loss.pt (torch, 111447 bytes, 5 tensors)

weight f4 [500, 3]
-0.13620283 -0.065261796 -0.030181574 -19.615986 0.08111788 -0.16647199 7.660563 8.117188
4.0497646 0.5704077 -0.3758029 -0.026670452 -2.4434319 1.9130632 1.7247727 1.3316342
-0.81483907 -0.092791334 0.036681395 3.2907667 0.3489777 1.6465483 1.3256001 1.3598652
-0.22049305 -0.038735475 -0.01404995 -0.71726346 -3.318033 -3.5577662 4.4150147 4.6863055
2.3396783 0.09851924 -17.549397 1.8357909 0.14549327 2.3725734 1.9463052 -6.5684304
-6.988583 -3.479523 -12.021833 -12.967058 -6.2549314 0.34558922 -3.4929721 -3.2220635
-0.046155334 -0.02488893 -0.011396641 -1.0901641 -2.0746982 -1.0326902 -0.46998566 0.8087477
-2.1510468 -0.033113997 -1.2710346 1.4984554 0.0105805155 6.5365844 -0.6276976 0.7474065
0.64694834 0.34965208 0.10949827 0.097045116 0.056083523 -0.5314315 -23.903395 -11.795845
0.27898306 2.1614475 3.369774 -0.12749271 -0.8827727 -0.9823326 0.90853536 -5.0550156
-6.519262 -0.121595114 -0.39312428 -0.19744426 -0.19744304 0.17012641 -0.008688347 -4.0079603
0.061326332 0.11624009 -11.474086 -12.375156 -5.9681263 0.02693164 0.053580273 -1.7331884
-0.60572934 -0.08768699 -0.029562064 -3.6114974 -2.7462244 -1.2944942 0.4414269 -4.6385546
-4.1785393 -0.22314058 0.15668027 -0.048502244 -0.042209234 -3.9908528 -0.28994325 0.15366073
-1.0682883 -0.8959479 9.743139 -0.09455628 -0.17911053 -0.14249568 0.003230213 0.0055150045
-0.3258369 -0.50638115 -0.25219002 -0.034029797 -8.504466 -3.9698935 -1.5376524 2.675004
-2.2600796 -0.038264975 -0.024738837 -0.011470008 0.02661028 -4.672819 0.4913182 12.671131
13.441848 6.664977 -0.10125912 -0.015049525 -0.0047448706 -0.7964595 -5.3599577 4.0920725
-2.5230389 -2.1345408 -1.9056159 -0.03846131 -2.326624 -6.134587 -3.5707636 1.8408707
-0.08933332 5.5583873 -8.423211 0.30364946 -1.6768045 -1.5086333 -0.31414574 -1.022311
-1.0842451 -0.5438194 -10.076566 10.80993 5.212455 0.66424286 4.1306157 -2.9105659
-1.0574355 -2.0916286 -1.044339 -0.17963481 0.004349555 0.0074483072 -15.748845 9.518626
5.829713 0.053266596 -9.046797 0.9445962 -0.35506427 0.09177745 0.05710121 0.07358055
-15.558509 1.5946788 0.12031344 0.033181015 -0.96210504 6.165448 6.5451007 3.2500718
-1.4411212 0.46065095 0.8230284 -0.2936211 0.78730017 0.0068003684 -0.0036007625 -3.2937443
-1.3187289 -1.2318468 0.42017126 0.24229725 1.0839901 -0.6878856 -0.055132333 -0.40265417
0.15923354 0.09672813 -0.23963052 -1.2239429 -1.468545 -11.63934 -12.377019 -6.1659117
3.609631 1.1058185 -0.16059366 -2.134434 1.6672862 -2.2200212 -4.0939674 4.6707354
-1.61787 0.099088356 -4.4460607 -2.861833 2.8497891 2.551719 2.206469 -1.0888904
-0.8798701 -0.109098636 -0.22771992 1.0879383 -0.9688022 2.100509 -1.9680234 -1.7560233
0.054094948 -11.635003 1.1703932 8.876766 -9.4695 -4.6250215 -3.5431848 -1.095682
-1.7984003 -0.56311613 0.22150819 0.13344437 -0.28865618 1.7972748 3.8512433 -0.1257743
00000000: c178 0bbe faa7 85bd 593f f7bc 8aed 9cc1
00000010: 2221 a63d a277 2abe 5523 f540 01e0 0141
00000020: ac97 8140 3d06 123f 3d69 c0be fe7b dabc
00000030: 3061 1cc0 41df f43f 5ac5 dc3f fd72 aa3f
00000040: 4b99 50bf 6209 bebd 3b3f 163d ec9b 5240
00000050: 35ad b23e 18c2 d23f 44ad a93f 1010 ae3f
00000060: eec8 61be 17a9 1ebd c331 66bc 949e 37bf
00000070: a75a 54c0 71b2 63c0 cd47 8d40 37f6 9540
00000080: 4abd 1540 75c4 c93d 2a65 8cc1 32fb ea3f
00000090: 30fc 143e 3ed8 1740 8720 f93f 9530 d2c0
000000a0: 79a2 dfc0 81b0 5ec0 6e59 40c1 1279 4fc1
000000b0: 6628 c8c0 12f1 b03e db8c 5fc0 4a36 4ec0
000000c0: 600d 3dbd dfe3 cbbc fab8 3abc 7f8a 8bbf
000000d0: dbc7 04c0 312f 84bf f6a1 f0be 170a 4f3f
000000e0: c0aa 09c0 8ba2 07bd 43b1 a2bf 63cd bf3f
000000f0: e659 2d3c b32b d140 cab0 20bf 0856 3f3f
00000100: 689e 253f 9905 b33e a140 e03d 97bf c63d
00000110: d6b7 653d e50b 08bf 273a bfc1 c8bb 3cc1
00000120: ded6 8e3e 2855 0a40 61aa 5740 738d 02be
00000130: 64fd 61bf 267a 7bbf c695 683f b0c2 a1c0
00000140: cb9d d0c0 dc06 f9bd 9647 c9be d42e 4abe
00000150: 822e 4abe 9e35 2e3e 9259 0ebc 3641 80c0
00000160: 5231 7b3d 490f ee3d db95 37c1 a400 46c1
00000170: e4fa bec0 be9f dc3c fd76 5b3d 1ed9 ddbf
00000180: 1411 1bbf 3d95 b3bd 242c f2bc c622 67c0
00000190: 24c2 2fc0 fcb1 a5bf b502 e23e 0a6f 94c0
000001a0: 98b6 85c0 f77e 64be cb70 203e 4aaa 46bd
000001b0: 97e3 2cbd 226a 7fc0 7173 94be 3d59 1d3e
000001c0: acbd 88bf d75c 65bf e6e3 1b41 b9a6 c1bd
000001d0: c068 37be 63ea 11be fbb1 533b 36b7 b43b
000001e0: 18d4 a6be 32a2 01bf 0d1f 81be d462 0bbd
000001f0: 4b12 08c1 bc12 7ec0 cbd1 c4bf 4433 2b40
00000200: 25a5 10c0 bcbb 1cbd 1aa9 cabc b3ec 3bbc
00000210: cdfd d93c bc87 95c0 0f8e fb3e f4bc 4a41
00000220: cf11 5741 7e47 d540 f160 cfbd 4892 76bc
00000230: dc7a 9bbb c5e4 4bbf c684 abc0 42f2 8240
00000240: 7879 21c0 519c 08c0 39eb f3bf 9b89 1dbd
00000250: 68e7 14c0 894e c4c0 6487 64c0 a7a1 eb3f
00000260: 63f4 b6bd 4fde b140 79c5 06c1 f177 9b3e
00000270: 88a1 d6bf e51a c1bf b6d7 a0be 16db 82bf
00000280: 8bc8 8abf c037 0bbf 9d39 21c1 79f5 2c41
00000290: 6ecc a640 d20b 2a3f 012e 8440 b646 3ac0
000002a0: 0c5a 87bf 3edd 05c0 e6ac 85bf 30f2 37be
000002b0: b686 8e3b ee10 f43b 45fb 7bc1 4b4c 1841
000002c0: 028d ba40 132e 5a3d aebf 10c1 0ed1 713f
000002d0: fcca b5be d1f5 bb3d f5e2 693d 66b1 963d
000002e0: a7ef 78c1 6f1e cc3f e566 f63d d1e8 073d
000002f0: 844c 76bf 5a4b c540 7771 d140 2d01 5040
00000300: a976 b8bf 71da eb3e fdb1 523f 8155 96be
00000310: 818c 493f a0d5 de3b c5fa 6bbb b5cc 52c0
00000320: 1ccc a8bf 28ad 9dbf b020 d73e c51c 783e
00000330: 30c0 8a3f 4519 30bf 71d2 61bd b028 cebe
00000340: 1e0e 233e 6619 c63d b461 75be 29aa 9cbf
00000350: 48f9 bbbf bd3a 3ac1 4508 46c1 264f c5c0
00000360: 3204 6740 768b 8d3f aa72 24be 919a 08c0
00000370: a269 d53f d414 0ec0 c801 83c0 aa76 9540
00000380: 5d16 cfbf d6ee ca3d 2146 8ec0 4628 37c0
00000390: f262 3640 5d4f 2340 ca36 0d40 c360 8bbf
000003a0: 2b3f 61bf 1b6f dfbd 692f 69be 9041 8b3f
000003b0: 6c03 78bf bd6e 0640 31e8 fbbf 5fc5 e0bf
000003c0: aa92 5d3d f928 3ac1 72cf 953f 3c07 0e41
000003d0: 1283 17c1 2d00 94c0 8ac3 62c0 4f3f 8cbf
000003e0: fb31 e6bf 6128 10bf 0bd3 623e a4a5 083e
000003f0: beca 93be 1a0d e63f c57a 7640 faca 00be

bias f4 [500]
0.5296034 -8.3438835 -0.08800598 0.19482598 1.1831484 0.50575036 -2.6493824 -0.21883237
0.6281962 -0.10551875 -0.05336899 -16.045513 1.964569 -0.0437166 -0.06927614 -4.676898
0.17449515 4.445622 -0.73529917 -2.2561784 -6.00602 0.64210516 1.0522254 -6.2633367
1.7529374 -1.6012789 2.9411337 0.6465927 -0.42097798 -1.5137218 -0.067067005 -1.5041462
1.6837308 2.053119 -6.165171 -0.5492271 -3.2984343 0.995056 -4.3813734 0.6109749
1.3054273 -3.1935003 -2.0448577 0.11924901 -4.2750926 -0.12255638 0.41725892 -4.8176847
1.2374724 -6.307777 -0.056069892 -4.714698 -0.074827634 -0.006000588 -0.08085732 -2.9836693
4.336031 0.77920675 0.19279628 -8.282559 1.040208 -14.212885 -0.2731282 -0.06426028
1.0627183 -1.041779 -1.830262 2.6693513 -0.03460625 1.8077899 -2.3865201 -0.072483055
-5.249822 -0.0046423627 -4.0036573 2.3978593 1.3378917 0.48406234 -0.4394982 1.0495982
-10.590322 -0.08479634 -0.11910543 2.5122252 -4.9104238 0.67469335 -0.1941537 -2.7842114
-0.07239009 -2.9400551 -3.8406587 -3.220064 -0.118130796 2.3778884 1.7016872 0.7381874
-0.4084641 -2.6436577 -1.3330373 -3.8211823 -2.5105364 -0.2626992 -5.090765 -3.5935159
-7.509382 -1.0401677 -0.07522653 -1.0203481 -0.1706854 -1.0208074 -0.05492136 -8.631459
-7.5811706 2.0008533 2.2406285 1.3367709 -8.569982 5.2797866 -4.7498374 -1.1662812
-11.618113 -0.023524856 1.1817796 0.3464935 -2.222727 -3.9852982 -0.028513659 -0.08239106
0.89772403 -0.47787338 4.0178013 1.9363272 -0.12612386 -2.499699 -0.32304987 -2.210806
-6.16196 -0.149885 1.0446191 -0.34584987 -0.058781736 1.4958204 -4.531452 -6.898265
-2.3922944 -0.17683752 -0.07753336 -0.3844503 1.2142622 -0.22626767 -0.060290676 1.753088
-16.340174 -9.635927 -1.5333683 -1.5522101 1.0043354 0.65033907 0.22447106 -1.4416108
-1.8150768 -0.36444986 -0.9711678 -6.750064 -5.351658 2.9543564 -2.6197793 -2.6422186
-0.16128051 -17.088125 -0.040700912 0.34167448 -7.743529 -9.883897 4.596899 -17.961674
-3.4678092 1.5154272 -1.1015497 -3.8021817 -4.0717444 0.5167638 -0.10145531 -7.866569
-5.6051507 -1.6200856 -0.19093527 -0.060166337 -0.15367197 -8.715354 1.2835137 -4.9007974
-0.538643 1.7966752 -0.0805543 0.46721652 -0.1445876 2.1672492 -5.510509 -0.08678915
-0.053025305 -6.6896462 -0.07158671 -2.5839083 -1.8440036 2.960496 0.9066523 -12.221183
-6.490124 -0.00913889 -2.0993454 1.2774539 -10.8932085 -1.199995 2.2544198 0.425871
3.451387 2.1710682 0.60627156 -0.11396316 -3.717345 -0.6595725 1.6692061 -2.9799972
-0.09841448 2.428076 -0.37719584 -3.962858 -8.302299 -2.7498982 0.36875808 -10.539299
-3.8263428 -2.8336241 -0.104952544 -7.7672677 -0.39990133 0.43532798 1.5710721 -1.213646
0.47451583 -0.043735888 -4.0069947 -1.8907212 -0.6519965 -8.09611 -1.3883154 -4.746472
-0.7307801 -0.10996834 0.7717249 1.4785885 -0.649541 -0.0690042 0.80649364 2.0537806
00000000: 1794 073f 8c80 05c1 7b3c b4bd 7680 473e
00000010: 6871 973f db78 013f 7b8f 29c0 9815 60be
00000020: 77d1 203f 371a d8bd 7199 5abd 365d 80c1
00000030: ff76 fb3f 2d10 33bd a6e0 8dbd 26a9 95c0
00000040: dbae 323e 8942 8e40 913c 3cbf 3a65 10c0
00000050: 5131 c0c0 0161 243f 52af 863f 416d c8c0
00000060: 4160 e03f b5f6 ccbf 893b 3c40 1987 253f
00000070: 6d8a d7be a3c1 c1bf 6d5a 89bd dd87 c0bf
00000080: 7e84 d73f 4d66 0340 1549 c5c0 269a 0cbf
00000090: 8c19 53c0 fdbb 7e3f 3634 8cc0 da68 1c3f
000000a0: 3e18 a73f 4f62 4cc0 f3de 02c0 d338 f43d
000000b0: 8fcd 88c0 d7fe fabd f6a2 d53e 792a 9ac0
000000c0: 7f65 9e3f 4fd9 c9c0 8ba9 65bd cede 96c0
000000d0: 3b3f 99bd 95a0 c4bb 8698 a5bd 70f4 3ec0
000000e0: c4c0 8a40 187a 473f 636c 453e 5d85 04c1
000000f0: 8925 853f fa67 63c1 76d7 8bbe e59a 83bd
00000100: 2707 883f 0459 85bf 0646 eabf a7d6 2a40
00000110: 48bf 0dbd a965 e73f bfbc 18c0 ff71 94bd
00000120: 8bfe a7c0 f61e 98bb f61d 80c0 8776 1940
00000130: 0940 ab3f 05d7 f73e e805 e1be 3c59 863f
00000140: f571 29c1 b4a9 adbd 8ced f3bd 4cc8 2040
00000150: 3122 9dc0 b4b8 2c3f 3ad0 46be 8530 32c0
00000160: 4141 94bd dd29 3cc0 5acd 75c0 8715 4ec0
00000170: 8fee f1bd 532f 1840 e3d0 d93f d9f9 3c3f
00000180: 3522 d1be b031 29c0 f7a0 aabf 408e 74c0
00000190: a1ac 20c0 8280 86be 8ce7 a2c0 2afc 65c0
000001a0: db4c f0c0 3724 85bf 5e10 9abd c49a 82bf
000001b0: 27c8 2ebe d1a9 82bf 38f5 60bd 751a 0ac1
000001c0: f398 f2c0 fb0d 0040 7566 0f40 4f1b ab3f
000001d0: a51e 09c1 03f4 a840 abfe 97c0 b448 95bf
000001e0: cae3 39c1 33b7 c0bc 8e44 973f 9967 b13e
000001f0: 2941 0ec0 200f 7fc0 7a95 e9bc a5bc a8bd
00000200: 3ed1 653f d2ab f4be d491 8040 92d9 f73f
00000210: 9d26 01be 12fb 1fc0 cb66 a5be d87d 0dc0
00000220: c72e c5c0 747b 19be 14b6 853f 3c13 b1be
00000230: 1ec5 70bd 0b77 bf3f a801 91c0 96be dcc0
00000240: 5a1b 19c0 e514 35be cfc9 9ebd abd6 c4be
00000250: f26c 9b3f b6b2 67be 5bf3 76bd 3065 e03f
00000260: adb8 82c1 c22c 1ac1 6a45 c4bf d2ae c6bf
00000270: 108e 803f 9f7c 263f bedb 653e b486 b8bf
00000280: 7054 e8bf 2c99 babe 749e 78bf 8600 d8c0
00000290: c840 abc0 2d14 3d40 77aa 27c0 1c1a 29c0
000002a0: b826 25be 7bb4 88c1 00b6 26bd f5ef ae3e
000002b0: fdca f7c0 7124 1ec1 cc19 9340 82b1 8fc1
000002c0: 96f0 5dc0 85f9 c13f 95ff 8cbf f256 73c0
000002d0: bb4b 82c0 a24a 043f cdc7 cfbd efba fbc0
000002e0: 655d b3c0 f75e cfbf 8984 43be fa70 76bd
000002f0: 2f5c 1dbe 1772 0bc1 2d4a a43f 55d3 9cc0
00000300: 82e4 09bf 74f9 e53f a7f9 a4bd 0137 ef3e
00000310: c60e 14be 36b4 0a40 1756 b0c0 83be b1bd
00000320: 1031 59bd 9511 d6c0 0e9c 92bd c15e 25c0
00000330: 4f08 ecbf c478 3d40 5d1a 683f f789 43c1
00000340: 19af cfc0 48bb 15bc ad5b 06c0 9c83 a33f
00000350: 954a 2ec1 7099 99bf 6a48 1040 c40b da3e
00000360: 86e3 5c40 c8f2 0a40 9d34 1b3f 8465 e9bd
00000370: fbe8 6dc0 bed9 28bf 8ca8 d53f 46b8 3ec0
00000380: 888d c9bd 9965 1b40 d01f c1be 779f 7dc0
00000390: 37d6 04c1 55fe 2fc0 dccd bc3e f8a0 28c1
000003a0: cde2 74c0 195a 35c0 5cf1 d6bd 758d f8c0
000003b0: debf ccbe 4fe3 de3e e418 c93f c158 9bbf
000003c0: bdf3 f23e 6724 33bd 4d39 80c0 2703 f2bf
000003d0: 3ee9 26bf ab89 01c1 52b4 b1bf 19e3 97c0
000003e0: 6814 3bbf 1537 e1bd c38f 453f 6342 bd3f
000003f0: 5248 26bf 1352 8dbd 5e76 4e3f 2471 0340

weight f4 [50, 500]
0.0018827425 -0.96828073 -2.4084327 -0.04381002 0.57417065 0.15777273 -0.03614355 -0.2338622
0.0029559014 -2.2115982 -1.3821801 -9.251809 0.12107738 -2.2218506 -4.1499643 0.00816975
0.00027362595 0.011126982 1.4640516 0.1258197 -3.6315098 0.039893325 -0.004325678 6.0431056
-0.0029598097 0.037015006 0.94659805 0.00061147567 0.043660708 -0.30843687 -3.978627 -0.27391312
0.006181138 0.4492947 0.018088423 -0.02909372 0.033136353 0.082555145 -0.3981895 0.0016528838
0.0037829028 -2.4378488 1.7950196 0.00024478644 -2.4748697 -4.191029 0.0013426761 3.3335595
0.91061103 2.8018851 0.638893 -1.3614671 0.22419138 -0.32712734 -3.3372335 2.4994276
0.010756013 0.0017902515 4.645336 -4.812909 0.0041678734 -8.346949 0.4527737 -2.0397894
0.2436078 -0.023619624 -0.03436671 0.014240465 0.11978826 0.0019502288 -0.01721005 -3.7127156
-0.037886366 2.2808878 -1.4641972 0.35828233 0.5767613 0.23241827 1.1104945 0.46010014
-6.1617785 -2.8161588 -0.5474268 0.0026441605 1.2759267 0.0006551027 -0.5823591 -0.052319117
0.6896161 -0.08505672 1.1005036 1.4113728 1.0800141 0.5807024 -0.0033178388 -0.00035080346
-0.71109307 1.1802906 0.005540002 0.17990603 -0.018236104 -2.8090312 -2.8611095 -0.7298787
1.0801302 0.028647415 -2.3915172 -0.03572617 -6.200837 1.0939995 -1.3110471 -0.04710375
-4.069642 0.47823706 0.53572845 0.40234703 -5.179815 4.5047064 1.7177653 0.0038212014
-6.9470744 -1.1096869 0.0022583522 0.0011519712 -1.2001574 -2.2261014 -0.40097484 -2.2897108
0.064283274 -0.36566412 0.003559348 1.3064538 -2.9250114 3.134403 0.13434137 0.00716449
-3.5685601 1.2535213 1.0114651 -2.2470477 -2.044177 0.23241514 -2.332455 4.02252
-0.047043353 -0.74081695 -3.4320326 -1.1473691 -0.0014554159 -1.5124445 -3.886118 0.002489203
-9.750734 -5.574444 -0.0090201935 2.3022997 0.22896631 3.3502097 1.7339374 3.0068932
0.00038289002 -1.4916358 0.8646505 0.038838718 -3.161481 0.20666243 0.47476137 4.5022583
-5.777708 -9.887508 -1.3218793 0.17670397 -4.66918 3.424572 0.010209758 -10.363318
2.7946234 0.0014298445 -0.034854025 0.955892 0.02331372 0.001723819 -3.0532765 -4.4848223
-0.21791796 5.113305 -0.06338234 -1.7643857 -5.6468635 -5.7716336 -0.0035549228 0.8315982
-0.010437459 0.80839354 -1.7287104 -0.00044073214 -2.857826 1.0310004 -3.139734 -3.5394852
-1.6215085 1.4275954 -1.5631871 0.03529997 3.1895509 0.002729606 -0.0031456063 -7.2490234
-4.192035 2.7492235 -0.03803747 0.0029090578 -6.5838056 0.01069144 0.0056531876 0.0015533315
0.0025953115 0.012254168 0.00288797 0.11492169 2.1395388 2.2509563 0.0061250683 -1.6942707
0.81615776 0.18326949 0.4318704 0.43677044 -4.677687 -0.6710599 0.0010598034 4.6498365
0.53492546 -1.8917686 0.7166775 -4.495353 1.759331 -0.0009341412 0.21324444 0.037155837
0.0012259841 -1.5021228 0.27875042 0.24303319 -0.37680477 -4.713887 0.0010798506 0.34750867
-1.2473999 -4.381093 0.27058673 0.0024266534 -2.0244222 -3.4622505 0.23701906 0.9677472
00000000: 5bc6 f63a 3fe1 77bf c323 1ac0 2372 33bd
00000010: d9fc 123f 2d8f 213e 420b 14bd 9379 6fbe
00000020: ccb7 413b d38a 0dc0 47eb b0bf 6907 14c1
00000030: 6bf7 f73d cd32 0ec0 82cc 84c0 6ada 053c
00000040: 7475 8f39 f24d 363c 0b66 bb3f e1d6 003e
00000050: a86a 68c0 2f67 233d 6bbe 8dbb 1f61 c140
00000060: 5ef9 41bb 0c9d 173d 4054 723f 704b 203a
00000070: 92d5 323d 70eb 9dbe d3a1 7ec0 573e 8cbe
00000080: 258b ca3b f409 e63e 2c2e 943c f455 eebc
00000090: fcb9 073d ac12 a93d 7fdf cbbe 94a5 d83a
000000a0: 94ea 773b b705 1cc0 34c3 e53f ae56 8039
000000b0: 4464 1ec0 e91c 86c0 bcfc af3a 0a59 5540
000000c0: ce1d 693f 1652 3340 7e8e 233f 8e44 aebf
000000d0: 6d92 653e 3c7d a7be 3c95 55c0 9ff6 1f40
000000e0: fd39 303c dfa6 ea3a 98a6 9440 5a03 9ac0
000000f0: a892 883b 1a8d 05c1 f4d1 e73e e98b 02c0
00000100: 5374 793e f17d c1bc 1bc4 0cbd d750 693c
00000110: 8c53 f53d d29e ff3a 17fc 8cbc 229d 6dc0
00000120: bc2e 1bbd 11fa 1140 d06a bbbf c870 b73e
00000130: a1a6 133f 0eff 6d3e af24 8e3f 3f92 eb3e
00000140: 4a2d c5c0 f23b 34c0 2a24 0cbf a749 2d3b
00000150: 9151 a33f 33bb 2b3a 7c15 15bf 924c 56bd
00000160: ae8a 303f 3832 aebd 4ddd 8c3f dda7 b43f
00000170: e73d 8a3f eaa8 143f 1970 59bb 0bec b7b9
00000180: 320a 36bf c313 973f e888 b53b 4939 383e
00000190: e263 95bc 2bc7 33c0 6b1c 37c0 55d9 3abf
000001a0: b541 8a3f fcad ea3c 9e0e 19c0 9b55 12bd
000001b0: 426d c6c0 2d08 8c3f 64d0 a7bf ddef 40bd
000001c0: 823a 82c0 7ddb f43e 8025 093f 6e00 ce3e
000001d0: 0bc1 a5c0 8e26 9040 bcdf db3f 1f6d 7a3b
000001e0: 6f4e dec0 380a 8ebf dd00 143b bdfd 963a
000001f0: c29e 99bf 7278 0ec0 934c cdbe 9f8a 12c0
00000200: f3a6 833d 5438 bbbe f343 693b e139 a73f
00000210: 6333 3bc0 0f9a 4840 c990 093e 19c4 ea3b
00000220: 4a63 64c0 6373 a03f b077 813f a1cf 0fc0
00000230: ccd3 02c0 3cfe 6d3e f146 15c0 7cb8 8040
00000240: 88b0 40bd 2ea6 3dbf 6ca6 5bc0 fedc 92bf
00000250: a7c3 beba c897 c1bf 28b6 78c0 e521 233b
00000260: 0203 1cc1 d861 b2c0 6fc9 13bc e158 1340
00000270: 2576 6a3e d669 5640 a9f1 dd3f f070 4040
00000280: a1be c839 eced bebf bc59 5d3f 5915 1f3d
00000290: b455 4ac0 519f 533e ec13 f33e 8012 9040
000002a0: fce2 b8c0 3c33 1ec1 5733 a9bf e3f1 343e
000002b0: ec69 95c0 302c 5b40 d446 273c 27d0 25c1
000002c0: 1cdb 3240 9f69 bb3a 18c3 0ebd 57b5 743f
000002d0: 6afc be3c c4f1 e13a e268 43c0 aa83 8fc0
000002e0: e325 5fbe 32a0 a340 9ace 81bd 64d7 e1bf
000002f0: 1bb3 b4c0 39b1 b8c0 b5f9 68bb 9fe3 543f
00000300: e001 2bbc e1f2 4e3f 6246 ddbf 1112 e7b9
00000310: 9fe6 36c0 d2f7 833f 67f1 48c0 ed86 62c0
00000320: 978d cfbf 72bb b63f 8416 c8bf b496 103d
00000330: 9a21 4c40 31e3 323b 8426 4ebb 00f8 e7c0
00000340: 2725 86c0 47f3 2f40 2ecd 1bbd e4a5 3e3b
00000350: 89ae d2c0 262b 2f3c 603e b93b 2899 cb3a
00000360: 1a16 2a3b b5c5 483c 1944 3d3b 105c eb3d
00000370: 34ee 0840 ab0f 1040 ccb4 c83b dddd d8bf
00000380: b7ef 503f ffaa 3b3e 1e1e dd3e 60a0 df3e
00000390: 9daf 95c0 95ca 2bbf 1ae9 8a3a 76cb 9440
000003a0: e0f0 083f 7925 f2bf 2d78 373f efd9 8fc0
000003b0: c231 e13f 28e1 74ba c05c 5a3e b830 183d
000003c0: 33b1 a03a 8f45 c0bf 60b8 8e3e b1dd 783e
000003d0: 8eec c0be 2ad8 96c0 c689 8d3a a8ec b13e
000003e0: cdaa 9fbf ea31 8cc0 588a 8a3e 7d08 1f3b
000003f0: 2290 01c0 8395 5dc0 20b5 723e 48be 773f

bias f4 [50]
-2.9884274 0.0033013558 0.06651152 -0.0031404472 0.05652656 0.0030074336 7.271972 -0.25641003
-0.07370078 0.21308911 0.1007158 0.19026986 -0.049076077 0.0911347 -0.001167234 -0.03562388
0.046879802 -0.03912265 0.12894535 -0.018941296 0.0068789436 0.004031474 1.4223826 1.4465411
0.08960035 -0.0009967075 -0.019456359 -0.02729824 0.010013747 0.017857822 0.016957533 0.030728878
0.95670694 -0.029193142 0.16800569 -0.116078965 -0.8728694 0.60203224 -0.033541687 0.044527147
-0.2719745 -0.010632032 0.05790332 -0.068777315 0.011071158 16.88948 0.04775867 -0.01673122
0.082183994 0.034868944
00000000: 6542 3fc0 8f5b 583b 3137 883d f6cf 4dbb
00000010: 6588 673d 5d18 453b ffb3 e840 2d48 83be
00000020: 6ff0 96bd 0834 5a3e 1644 ce3d 1ad6 423e
00000030: ff03 49bd d4a4 ba3d e0fd 98ba 58ea 11bd
00000040: 0905 403d 123f 20bd 400a 043e c72a 9bbc
00000050: c368 e13b 741a 843b a210 b63f 4228 b93f
00000060: 6380 b73d f4a3 82ba f162 9fbc 8fa0 dfbc
00000070: b310 243c 914a 923c 86ea 8a3c 21bb fb3c
00000080: bfea 743f 7526 efbc af09 2c3e cfba edbd
00000090: 5e74 5fbf c91e 1a3f 0263 09bd 1962 363d
000000a0: 3e40 8bbe f931 2ebc 082c 6d3d 1fdb 8cbd
000000b0: cd63 353c a81d 8741 989e 433d e90f 89bc
000000c0: 1550 a83d bdd2 0e3d

weight f4 [1, 50]
-2.0258687 -3.1952481 -3.1287317 2.629817 1.7783535 0.06050558 0.6716981 -0.50269157
0.0015188827 3.6554732 -0.5215039 5.0928516 0.00080737623 4.399459 0.012564351 -0.00076124957
-1.8967683 0.027950313 -0.37153965 -0.036720723 -0.0067348 0.007730128 1.0516628 5.1200104
-8.1511804e-05 0.11902229 0.3199701 -0.031817473 0.004151103 0.009134863 0.93776584 2.4948597
6.984945 -4.5716915 1.8162354 0.010802 4.9698834 4.9319463 0.05970257 0.004613414
5.206485 -0.0019598848 0.109217815 0.00062048394 0.0019359757 1.0085729 2.3429866 0.13862672
-0.027826319 -0.00049803936
00000000: d5a7 01c0 f27e 4cc0 243d 48c0 ec4e 2840
00000010: 16a1 e33f b3d4 773d 68f4 2b3f 65b0 00bf
00000020: 3f15 c73a 46f3 6940 4881 05bf a4f8 a240
00000030: 1aa6 533a 5ec8 8c40 b5da 4d3c 988e 47ba
00000040: 4ec9 f2bf 0ef8 e43c 723a bebe 7868 16bd
00000050: 99af dcbb 034d fd3b e39c 863f 20d7 a340
00000060: 51f1 aab8 f5c1 f33d 1fd3 a33e 0a53 02bd
00000070: fa05 883b 64aa 153c 6c11 703f c8ab 1f40
00000080: ab84 df40 4c4b 92c0 677a e83f dffa 303c
00000090: 4909 9f40 81d2 9d40 af8a 743d 1f2c 973b
000000a0: 869b a640 6971 00bb 97ad df3d f9a7 223a
000000b0: 91c0 fd3a eb18 813f 7ef3 1540 2af4 0d3e
000000c0: 05f4 e3bc db8e 02ba
