scripts/dof3pos.pt (torch, 24711 bytes, 9 tensors)

weight f4 [40, 3]
000000 f9 cc a3 bf d3 84 19 c0 b4 4c 92 c0 ce ae 04 41
       -1.2796928 -2.398732 -4.571863 8.292677
000010 0a ff 08 c1 bc 14 86 c0 26 0b ed c0 7a 31 cb bd
       -8.562265 -4.190031 -7.407611 -0.09921546
000020 b9 f7 ed 3e a3 61 5b 40 ab 17 db bf cd 08 11 bf
       0.4647806 3.4278343 -1.7116598 -0.56654054
000030 c6 2f ea 40 11 a4 02 c0 f7 e6 dd bd c5 bd 61 bf
       7.3183317 -2.0412638 -0.10835069 -0.8818019
000040 45 8a 1c 41 f7 e4 80 bc 18 17 08 bd 74 8f 9f 40
       9.783757 -0.015734179 -0.03322515 4.9862614
000050 32 50 c2 bf 50 a6 0c c1 7d 84 11 41 b7 ce 8e 40
       -1.5180724 -8.790604 9.094846 4.4627337
000060 c1 7a 82 bd e3 83 ad 41 63 68 fc be d1 d4 7c c1
       -0.0637107 21.689398 -0.4929839 -15.801957
000070 c6 9b 71 be f9 0a 11 be f5 15 c4 c0 bd 82 58 c0
       -0.23594579 -0.14164342 -6.1276803 -3.3829796
000080 ac db 26 be 64 5f b0 40 44 d2 3d 40 47 e8 82 be
       -0.16294736 5.5116444 2.9659586 -0.2556784
000090 6f 6a a9 be 3d ee b3 c1 83 1e 19 be bb fd b6 3c
       -0.33089015 -22.491327 -0.14953046 0.022337785
0000a0 6f 97 de 40 45 01 21 c0 a6 02 b8 40 a9 2f a4 bf
       6.9559855 -2.5157025 5.7503233 -1.2827045
0000b0 ce 92 1d c0 d0 a9 8c 3c a4 d6 73 41 fd ef 1c be
       -2.4620852 0.017170817 15.2399025 -0.15325923
0000c0 5a c3 88 c0 06 1a e8 be 42 da 83 c0 70 16 b7 3d
       -4.2738466 -0.45332354 -4.120393 0.089398265
0000d0 0a 74 3e 41 99 75 e0 be 40 95 74 41 29 1b 4a be
       11.90333 -0.4383972 15.286438 -0.19736923
0000e0 be f1 19 bc f2 33 e8 3f d0 40 06 41 e4 67 84 be
       -0.009396015 1.8140852 8.390823 -0.25860512
0000f0 ac 4c ea 3f f2 5e 88 c0 ca 48 87 40 32 51 0a 3e
       1.8304648 -4.26159 4.2276354 0.13507536
000100 80 b4 b9 c0 ae 80 b9 3f b2 e2 97 bc 0d 61 32 41
       -5.8032837 1.4492395 -0.018540714 11.148694
000110 7d 00 2f 41 e5 82 0c 41 29 d3 10 41 52 a0 8c 40
       10.937619 8.781957 9.051553 4.3945704
000120 84 72 66 3c ed 57 d3 3c 11 41 52 be 31 6b 08 c1
       0.014065389 0.025798762 -0.20532633 -8.52617
000130 73 13 0b c1 0d 6f 89 c0 5e 2b cb 3f b1 8b e3 bf
       -8.692248 -4.294806 1.587261 -1.7777005
000140 38 ee ab c0 6d b4 ba 3d 71 2c 3c 40 f4 6d c4 c0
       -5.3728294 0.09116445 2.9402125 -6.138422
000150 45 6f cc 40 28 94 ee bf 62 42 25 40 95 42 ad 3c
       6.3885827 -1.8638964 2.5821767 0.021149913
000160 0b 0e 41 be 1c 28 13 bc 5c f3 97 bd 80 33 a3 c1
       -0.18853013 -0.008981731 -0.07419464 -20.400146
000170 17 b8 d2 3d 95 66 2b 3e 18 29 8d 41 1a a7 05 41
       0.102890186 0.1673835 17.645065 8.353296
000180 09 e5 08 be c1 c5 7a 3f 82 8c 75 40 e1 52 7a be
       -0.1336862 0.97958 3.836701 -0.24445678
000190 37 b1 fa 40 2e f9 a0 40 90 2b 41 bb a6 07 fb c0
       7.8341327 5.0304174 -0.0029475428 -7.8446836
0001a0 9e 49 ea be 5a 89 26 bd 16 e1 3a c1 3c 49 38 c1
       -0.4575929 -0.040658332 -11.679953 -11.5178795
0001b0 67 ca e5 40 5e 32 30 c0 36 a8 13 40 8f 23 61 c0
       7.1809573 -2.7530742 2.3071418 -3.5177953
0001c0 6f 96 10 c0 d6 f9 8a 40 2a 94 00 be 1f c9 9a c1
       -2.2591817 4.3429976 -0.1255652 -19.348204
0001d0 76 b9 15 c1 f3 c0 99 c0 28 6e e5 3d 14 dc c5 3d
       -9.357779 -4.8048034 0.11202651 0.09661117

bias f4 [40]
000000 9f 14 94 c0 c7 f3 ab 39 60 fa 15 c1 cb 9c 1b bf
       -4.627517 0.0003279729 -9.373627 -0.6078612
000010 c9 43 44 c0 d1 e5 8b c0 68 55 df bd 26 a4 50 bd
       -3.0666373 -4.3718038 -0.10904962 -0.050937794
000020 a5 4f 4f c1 67 c4 9a c0 52 51 34 c0 14 5e 03 c0
       -12.956944 -4.836475 -2.8174634 -2.052617
000030 b7 bd 35 c1 ad 08 9e c0 97 9a d1 c0 95 d6 37 c1
       -11.358817 -4.938559 -6.550121 -11.489888
000040 8a 3c 82 c0 d8 ce b5 c0 98 ef 8f c0 92 ad 85 c0
       -4.06989 -5.6814995 -4.4979973 -4.177438
000050 d2 67 bf c0 e9 59 92 bf 66 17 8a c1 8a 5b 5d bc
       -5.9814234 -1.1433688 -17.261425 -0.013510594
000060 9b 47 df be 0f 84 d4 3c 00 18 bc c0 93 6b c9 c0
       -0.43609318 0.025941877 -5.8779297 -6.2943816
000070 99 b2 fb c0 25 5c 96 be 0f 54 6d c1 53 bc a0 c0
       -7.8655515 -0.29367176 -14.833022 -5.022989
000080 4c 97 24 be 26 31 fc bf 92 6b be bf ba 13 90 c1
       -0.1607334 -1.9702499 -1.4876578 -18.009632
000090 e3 15 b8 c0 87 db ae c0 90 10 ac c0 cf d0 81 bf
       -5.7526717 -5.464298 -5.377022 -1.0141848

weight f4 [40, 40]
000000 a4 81 81 3d b9 42 13 c0 79 41 8f bd c9 a2 84 bd
       0.06323555 -2.3009474 -0.0699491 -0.06476361
000010 5a 7b 17 bf dd 54 4a bf c6 5c d1 3e 29 ae 05 c0
       -0.59172595 -0.7903574 0.40891093 -2.088755
000020 61 ad 82 bf 3c a0 d1 be 8a 8c 47 bf 6a c6 a1 bf
       -1.0209161 -0.40942562 -0.7794882 -1.2638676
000030 bc 34 1f bf 46 45 bf be 1d 85 8f bd 2d ac 81 be
       -0.6218984 -0.3735754 -0.07007811 -0.25326672
000040 95 c8 0c be 6d 7f e5 bf 86 3f 24 bf 21 be 14 bf
       -0.13748391 -1.7929512 -0.6415943 -0.58102614
000050 17 1a 27 bf 2b 8c 9c c0 5f 78 b3 be a2 bd 0d c0
       -0.65274185 -4.8921103 -0.35052773 -2.2146993
000060 09 39 b7 bc ec 51 17 c0 ef 2d 14 3e c2 ad e0 be
       -0.022366064 -2.364375 0.14470647 -0.43882567
000070 60 46 e3 bd 3b 06 85 bd 64 b5 45 bf 64 3f 36 be
       -0.11097407 -0.06495329 -0.77229905 -0.17797619
000080 be ad 9e bf 97 d3 3b bf 61 47 5e bf 1d c4 e5 bd
       -1.2396772 -0.73369735 -0.86827666 -0.11219046
000090 c0 43 3f bf a8 62 da be ed 6f 62 bf 6d 3a 35 be
       -0.74712753 -0.42653394 -0.88452035 -0.17698069
0000a0 68 b9 1e be 11 ca 54 bf 60 44 20 be f6 21 2c be
       -0.15500414 -0.8312083 -0.15651083 -0.1680983
0000b0 c7 9f 5b bd d6 15 45 3d ce 7d 66 3f 51 29 17 c0
       -0.053619172 0.048116527 0.9003571 -2.3618968
0000c0 9c 9b 30 bf 33 b8 9d bf 30 6b 86 bf 4a ad d5 bd
       -0.6898744 -1.2321838 -1.0501461 -0.10433443
0000d0 ed 9c 18 be b8 eb 9d 3d 2a 52 ef 3d a5 22 de bd
       -0.14903612 0.077109754 0.116855934 -0.10846452
0000e0 38 ab 36 3f 8d 2d aa bb 7f e3 90 bf 3d 40 6f bf
       0.7135501 -0.0051934184 -1.1319426 -0.93457395
0000f0 13 c6 c1 bd ee 06 4f bf ac 34 c3 3c 5f 28 b3 3d
       -0.09461608 -0.8086995 0.023828827 0.087479346
000100 30 14 eb bd 63 7e b3 3f e8 c9 53 3f b0 ac 23 bf
       -0.1147846 1.4022945 0.8272996 -0.63935375
000110 42 cb a0 bd d9 8e 92 3c 13 dd 4e be 49 66 78 bf
       -0.07851268 0.01789038 -0.2020152 -0.97031075
000120 03 af 62 3d ad a7 a5 be dc 5d c6 bf 37 14 0a be
       0.055342685 -0.3235449 -1.5497394 -0.13484274
000130 9c 92 11 3d 71 d2 29 be 3f 6d 86 bf ca bf 55 3e
       0.03554021 -0.16584183 -1.0502089 0.20873943
000140 a9 e0 3e 3f 67 b1 41 c0 bc 2b 8a be 79 33 7c be
       0.74561554 -3.0264528 -0.26986492 -0.2462901
000150 76 ff d5 be 7a bb d0 3c 0c 9f 85 3d c3 75 4a c0
       -0.41796464 0.02548002 0.065244764 -3.1634376
000160 36 29 f2 bf 3d 12 9f 3e 2b 7a 01 3f 9b 97 10 3e
       -1.8918827 0.31068602 0.5057704 0.14120333
000170 4c 20 4a bc 16 d9 a9 be b7 64 9b 3b 5b e4 94 be
       -0.012336802 -0.33173436 0.0047422308 -0.2908047
000180 bf e8 92 be 9b 08 cb be 3a 7f 0d bf 91 81 87 bf
       -0.28693196 -0.39655003 -0.5527226 -1.0586416
000190 d4 33 6b bd 91 4a 85 bf 87 bc 3c be 64 fe 42 c0
       -0.057422474 -1.0413381 -0.18431292 -3.0467768
0001a0 39 11 a4 bd fd 82 38 c0 fa 8c 06 3f 6e 40 fb be
       -0.080110975 -2.882995 0.52558863 -0.49072593
0001b0 31 14 e0 3d f3 aa 1e be 4a f7 7f bf 86 9e 37 c0
       0.10941351 -0.154949 -0.9998671 -2.8690505
0001c0 67 f3 2b 3f bd b5 0a 3e b4 c3 44 bf 40 e6 9b 3d
       0.6716828 0.1354589 -0.7686112 0.07612276
0001d0 67 f4 19 be e1 3e e9 3c 61 9a 23 c0 09 04 11 bf
       -0.15034638 0.028472366 -2.5562975 -0.5664678
0001e0 3e d8 f5 3a 00 be ba bc de 80 a3 3d 89 9d bd bd
       0.0018756462 -0.022795677 0.07983564 -0.09258563
0001f0 59 22 e8 bd 51 93 48 3c b1 86 28 be f5 1f 3f 3f
       -0.11334676 0.012242154 -0.1645763 0.7465814
000200 6b d9 a7 be 2c e3 21 bf 4a 44 97 3b 44 78 0a 3d
       -0.32783064 -0.6323726 0.004616295 0.0338061
000210 5b c0 a1 bd 14 16 15 3f 84 56 cd bd e9 a4 26 be
       -0.07898017 0.58236814 -0.10026267 -0.16273846
000220 bb 2a e5 be 9b bb 0a be c2 05 6f be 3a ee 01 3f
       -0.44759163 -0.13548128 -0.2334204 0.5075413
000230 72 76 d9 bd 77 0d 5b be 98 7d f7 bc c9 da 5f bf
       -0.10618295 -0.21391855 -0.030211255 -0.87443215
000240 80 77 15 3e 7d 92 ff bf eb d4 12 3e 11 3e c7 3e
       0.14596367 -1.996658 0.14339034 0.3891454
000250 a9 ae 67 bb 6d a7 83 bd 9b 57 50 bb 76 7f 3d bf
       -0.0035351908 -0.06428418 -0.0031790498 -0.74022615
000260 7e 26 8a bf 4a 6f ac 3c 8a 08 05 bc 1a 38 1f bd
       -1.0792997 0.02104916 -0.008119712 -0.038871862
000270 0b 7b b8 ba b6 22 24 be 4d 17 0d be f7 d3 5c be
       -0.0014074756 -0.16028866 -0.1377842 -0.21565233
000280 15 15 8f bd 29 11 35 be e2 1c a1 bd 79 5b d8 3d
       -0.06986443 -0.17682327 -0.07866837 0.10564322
000290 9e 0d 44 3d 42 2f 4b 3f 23 76 8b bf 40 21 9a 3d
       0.04786455 0.79368985 -1.0895427 0.07525873
0002a0 9c ad ba 3f 02 83 f2 3e 74 6e a8 bf ce 86 00 bd
       1.4584231 0.47365576 -1.3158708 -0.03137856
0002b0 33 fa 14 be db 05 9a bf 72 3a 8e 3d 39 fd 0b bd
       -0.14548568 -1.2033037 0.06944741 -0.03417704
0002c0 04 3c cc 3e ac 71 cb 3e 06 73 8e be b0 67 a9 3e
       0.39889538 0.39735162 -0.2782213 0.3308692
0002d0 33 e2 bf bb 1f 5a 4f bf 35 79 34 be c0 81 bb bf
       -0.0058558225 -0.8099689 -0.17624362 -1.4648972
0002e0 ae c5 0a 3e 5a 04 8d be 63 02 1b be 40 68 46 c0
       0.13551971 -0.27542382 -0.15137629 -3.100113
0002f0 c7 89 08 3e 84 c7 0b 3e 5e 71 4e 3c a5 f7 1c 3f
       0.13333808 0.13650328 0.012600271 0.61315376
000300 31 aa e6 bd dd 21 a4 3f 80 f4 6a 3d 16 e6 f3 bd
       -0.1126293 1.2822834 0.05736208 -0.1190912
000310 e4 f8 77 3b 52 37 22 c0 0f 4e 07 3e d6 49 05 bd
       0.003783756 -2.5346265 0.1321337 -0.03254112
000320 34 ca b8 bf 65 46 4f bf 34 f9 43 be bc 29 67 bf
       -1.4436707 -0.8096679 -0.19138032 -0.90298057
000330 a7 91 3b c0 d4 90 8d bf 4b 5a aa 3f dc ac cb bf
       -2.930765 -1.1059823 1.3308805 -1.5912127
000340 cf 3a b9 bf 57 ee 00 c0 f9 be 89 bf 5c 3e 52 bf
       -1.4471072 -2.014547 -1.0761405 -0.821264
000350 b3 c4 c7 be 4e fa 91 3c ce 45 9f bd 8c 5a b6 be
       -0.39017257 0.01781955 -0.07776986 -0.35615957
000360 29 9c 28 be 90 fe f8 bd d0 b6 bc bf b3 ee 51 bf
       -0.1646582 -0.12157929 -1.474329 -0.8200485
000370 af 9b 79 3f 2c c4 1a 40 e6 a0 c1 be b5 ee c9 bf
       0.9750318 2.4182234 -0.37818068 -1.5775973
000380 b3 c6 a6 bd 96 8d 75 bf c4 72 b6 bf 12 96 5c 3e
       -0.081433676 -0.9591917 -1.4253774 0.21541622
000390 88 e9 80 3f 14 d3 aa 3c be 2c b9 be 11 33 b1 bf
       1.0071268 0.020852603 -0.36166948 -1.3843709
0003a0 fd 27 63 3f 56 b6 e7 3f 49 34 a0 bf 4f 05 78 3c
       0.8873289 1.810252 -1.2515956 0.015137984
0003b0 7f 17 45 be a9 20 a4 3e a7 bb 1b bf 0b 7b 86 bf
       -0.19247244 0.32056168 -0.6083321 -1.05063
0003c0 e1 65 8f bf ad 75 5e 3e 6e d6 36 bf c3 23 b4 3e
       -1.1202966 0.21724577 -0.71420944 0.35183534
0003d0 a1 f5 3d c0 9d 38 34 3f 8b fc 20 40 ea 58 69 c0
       -2.968117 0.70398885 2.515414 -3.646052
0003e0 2e a6 74 3e 92 a1 88 3f e8 73 64 40 6b 64 28 c0
       0.23891518 1.0674307 3.5695744 -2.631129
0003f0 e3 d2 a2 3f e7 d2 c6 3f fa 56 fd be 9d 6d 4b bf
       1.2720608 1.5533112 -0.4948042 -0.7946413

bias f4 [40]
000000 ef 41 99 40 db c9 c9 3e 1b 07 92 41 ad e1 d8 bd
       4.7892985 0.39411816 18.25347 -0.10589919
000010 d3 42 57 bf a5 88 15 41 b7 4c d2 bf c6 96 88 3e
       -0.8408634 9.3458605 -1.6429662 0.2667753
000020 72 52 26 be c0 cf 7d c0 46 23 1c c0 6a ae 55 c0
       -0.16242388 -3.965805 -2.439653 -3.3387704
000030 3a ac 53 41 a1 29 2a c0 97 03 d9 bf 9d 68 5e 3f
       13.2295475 -2.6587908 -1.695422 0.8687838
000040 f0 49 ac c0 f3 0b 00 c0 5c 0b ee 40 96 76 ef 40
       -5.3840256 -2.0007293 7.4388866 7.483226
000050 18 3d 8f bf a7 25 32 3e cf 86 b6 3e bf 8e 05 40
       -1.1190519 0.17397176 0.35649726 2.0868375
000060 73 0b e1 c0 bf a8 74 c1 1e e7 28 c0 14 59 78 bf
       -7.0326476 -15.291198 -2.6391063 -0.9701092
000070 54 a4 bc bf 76 06 a2 c0 4d 98 af 3f 20 14 ba c0
       -1.4737649 -5.0632887 1.3718354 -5.8149567
000080 8a 23 99 c0 b0 c7 3d 3f 16 74 b2 3e 35 74 8c bf
       -4.7855883 0.74132824 0.34854192 -1.0972964
000090 fe ea 33 bf 52 53 98 bf 43 84 1f c0 3c 7a 01 be
       -0.70280445 -1.1900427 -2.4924476 -0.12644285

weight f4 [40, 40]
000000 b1 39 c6 bc 32 0f ae 3e 2b 1b 47 be 53 91 16 bd
       -0.024197431 0.33995968 -0.19443958 -0.036759686
000010 e3 de aa bf 48 9b 31 bf 84 78 8a bc 8c 44 db 3d
       -1.334927 -0.69377565 -0.01690317 0.10706434
000020 07 1a c4 bd 65 8e 80 bf 64 ea e6 be 1b 71 a4 be
       -0.09575277 -1.0043455 -0.451007 -0.32117543
000030 63 d5 8b be 45 55 dd 3d 5c bf 11 3e a8 d0 9e be
       -0.2731124 0.108072795 0.14233154 -0.31018567
000040 5c 33 13 bf 3d ae 3b 3e 76 59 9f 3d c9 bb 66 be
       -0.57500243 0.18328185 0.07780735 -0.22532572
000050 ad 0a 31 3f 37 42 24 bf c9 18 f7 be a1 81 2a bd
       0.69156915 -0.64163536 -0.48261097 -0.04162753
000060 2b 07 c0 3e 81 e7 7d 3f 5b 25 98 bf 1d 0f 4f 3e
       0.3750547 0.9918137 -1.18864 0.20220609
000070 0d 67 da be 90 2d fe 3e d4 d9 90 bf 15 6a 3c c0
       -0.42656747 0.49644136 -1.1316476 -2.9439747
000080 42 8d 46 3f f2 b8 9c bf d5 aa 42 3f c7 3d e0 bd
       0.7755929 -1.2243941 0.7604192 -0.10949283
000090 77 fb 1a be e1 fc e7 be 15 a0 30 3f ef 08 43 be
       -0.15134989 -0.4531012 0.68994266 -0.19046377
0000a0 5d cb ee be f6 88 d6 bd ef 2b a4 3e 32 2f 25 3e
       -0.4663953 -0.10475342 0.3206477 0.16131285
0000b0 93 39 bc bf 8c 76 42 bf 4a 19 a5 bf d9 c1 90 bf
       -1.470507 -0.7596214 -1.2898343 -1.1309158
0000c0 0d 9d bc bc ce c4 70 bf d7 90 b7 be bc 65 70 bf
       -0.023024106 -0.940503 -0.35852692 -0.93905234
0000d0 02 38 94 3c df 95 83 3f 6d e2 ea be e8 95 6b bf
       0.018093113 1.0280112 -0.45875874 -0.92025614
0000e0 ce c0 fe be c6 3d bd 3e e8 0b 3d 3f ad db b5 be
       -0.49756473 0.36961192 0.7384629 -0.35519162
0000f0 9c b6 53 be 53 3d 9a be b8 ba e4 3e cd 5b 25 3f
       -0.20675129 -0.30124912 0.44673705 0.645932
000100 3e ca c5 be 38 dc c8 be b4 b0 15 3f 6b 08 eb be
       -0.3863086 -0.39230514 0.5847275 -0.4590486
000110 91 14 2f 3f 66 f6 bb 3f 8c 9a 87 bd c7 15 09 be
       0.68390757 1.468457 -0.06621274 -0.13387214
000120 fc 39 90 be 2e 22 bb bf 78 9a 62 3f 5a 69 52 3f
       -0.2816924 -1.4619806 0.8851695 0.82192004
000130 89 0d 01 3e ab 68 4b 3e 43 94 04 bf 20 7e 36 bf
       0.1260282 0.19864146 -0.5178873 -0.712862
000140 c5 88 36 be 32 21 96 be ae 6a 25 bf 74 7a b2 3d
       -0.17825611 -0.293222 -0.64615905 0.08714762
000150 e1 72 0b 3e 02 a7 7c bf ea 24 86 bf 4b 29 ca be
       0.13618042 -0.98692334 -1.0480015 -0.3948463
000160 19 03 e8 bd a8 d8 15 bf 0b 03 9b bf 8d 37 87 3f
       -0.11328716 -0.58533716 -1.2110304 1.0563828
000170 d7 4e 82 bf 6c aa 9f 3e e1 bb 10 bf c0 ad 72 bf
       -1.018031 0.3118471 -0.5653668 -0.9479637
000180 6a 33 f9 bf 3b ec 89 be 0b f5 4a bf 23 8f 2a 3e
       -1.9468815 -0.26938042 -0.79280156 0.16656165
000190 66 98 37 bf dd 5c cf 3d 5f 0c 54 bf e9 ef 29 3f
       -0.71716917 0.10125134 -0.82831377 0.663817
0001a0 c9 d9 c8 3e 06 e9 1f 40 95 ae ca 3e 69 8e 66 3e
       0.39228657 2.4985976 0.3958632 0.22515263
0001b0 fd 1c d2 bf 4d 12 30 be 92 07 d8 3d 7f 70 06 bf
       -1.6415097 -0.17194481 0.10548319 -0.52515405
0001c0 a3 61 21 3f ee eb 87 bf 2c 71 a8 bf 15 fd 6a be
       0.63039607 -1.0618875 -1.3159537 -0.22948106
0001d0 25 db 31 bf 5e 3b 9a bf aa d5 80 bf 75 0f 05 3e
       -0.69475013 -1.2049367 -1.0065205 0.12994178
0001e0 51 d9 cb 3f ab dd e5 3e c8 da af be 83 cf 25 bf
       1.5925695 0.44895682 -0.34346604 -0.6476976
0001f0 52 da cb bd 64 25 c2 3f bb 3e a8 3f d3 d2 c2 be
       -0.09953751 1.5167661 1.3144144 -0.3805147
000200 08 3b 14 be 1a 02 62 bf d3 c2 90 bf e8 cc 7e bf
       -0.14475644 -0.88284457 -1.1309456 -0.9953141
000210 2b 7c c5 bf d5 1c 58 bf c7 e9 80 bf 41 2e d5 bf
       -1.5428518 -0.84418994 -1.0071343 -1.665474
000220 89 00 1e 3e 54 40 a9 bf 73 ba 19 3c f3 f0 49 be
       0.15429892 -1.3222756 0.009382832 -0.19720821
000230 2b 74 2f 3f bc 5d 87 bf b9 22 05 c0 e6 d8 9f 3f
       0.68536633 -1.057548 -2.0802443 1.2488067
000240 ae c4 1d c0 97 2a 40 bf b1 23 2d bf 24 4d df bd
       -2.4651294 -0.75064987 -0.67632586 -0.10903385
000250 e5 9e 26 bf e5 7b 45 3f 7f 51 06 40 55 4e 8e bf
       -0.65086204 0.77142173 2.0987241 -1.1117655
000260 17 10 37 bf 58 96 74 3f 0d 94 2a 3e 7d db 67 be
       -0.71508926 0.95541906 0.1665804 -0.22642322
000270 da 40 be bf 1d 38 0c be 50 f3 c1 bd 88 e3 97 3e
       -1.4863541 -0.1369328 -0.09470236 0.2966578
000280 24 81 0f be 4e 9e 90 3f 0d 53 14 be 95 47 30 bf
       -0.14014107 1.1298311 -0.14484806 -0.68859226
000290 13 7d bb 3e d0 23 e5 bf 1b ea b1 3f a0 1b 25 be
       0.36618862 -1.7901554 1.3899568 -0.1612382
0002a0 80 d2 bd bd f7 ce be bf 41 ec 1b 3d 64 ac 82 3f
       -0.09268665 -1.4906911 0.038067106 1.020886
0002b0 8b 5f ca 3d 64 2c c2 bd ab b8 7c 3f 3d c4 80 3f
       0.098815046 -0.09481123 0.9871928 1.0059887
0002c0 0e b4 82 bf 4b bf 7f bf 57 45 1b 3f 6c d7 62 3b
       -1.0211198 -0.99901265 0.6065268 0.0034613265
0002d0 db 9c 98 3e f8 98 c2 be 21 d3 9a 3e e0 68 85 bf
       0.2980717 -0.3800733 0.30239204 -1.042263
0002e0 84 28 95 bf 5b fc 3f bf c1 94 8b 3e b1 85 41 bf
       -1.1652989 -0.7499444 0.27261928 -0.7559462
0002f0 36 78 92 3e 7f ff f4 be ba 32 e9 3e c8 0e cc 3d
       0.2860734 -0.47851178 0.45546514 0.09963757
000300 7e e5 80 bf ef b1 d8 be 30 e9 96 be 85 b4 1e bf
       -1.0070035 -0.42323253 -0.29474783 -0.619942
000310 1f 39 c7 be cf d7 91 be cb 69 97 3f 36 bc af 3d
       -0.38910767 -0.2848496 1.182916 0.0858082
000320 d9 fb c6 bd 1d 50 c8 be a4 31 f4 bd 2e 62 1d bd
       -0.09716005 -0.39123622 -0.11923531 -0.03842371
000330 69 a4 e4 be ab e1 51 bf c0 b0 51 bf ee 06 22 be
       -0.44656685 -0.81984967 -0.81910324 -0.15822956
000340 1b ef df 3c cf 8e 88 3f 54 9d e5 bf e7 e2 78 3f
       0.027335694 1.0668582 -1.7938638 0.97221226
000350 b3 c2 0b bf ae 16 0c c0 7a e6 ca bf 6e 3d 7e be
       -0.5459396 -2.1888843 -1.5851586 -0.24828121
000360 d0 d4 ab bf 90 d4 19 3f 1a a3 ce 3d 63 b7 14 3d
       -1.342432 0.6008997 0.10089703 0.036307704
000370 c3 eb d7 bf 31 f4 41 3b e6 7d 53 be 6a 51 fd 3d
       -1.6868824 0.0029595012 -0.20653495 0.12369044
000380 64 24 fd 3d 02 23 c3 3f a1 b5 9c bd 8b 7b 3f 3f
       0.123604566 1.5245059 -0.076518305 0.74797887
000390 c0 5b b4 3f 7c 6d 85 bf 0d 1f 7d 3e d7 e0 91 3e
       1.40905 -1.0424037 0.24718876 0.28491852
0003a0 9f fb 97 bc f3 9a 94 bf 81 9b 64 bf b8 d0 86 be
       -0.0185526 -1.1609787 -0.8929978 -0.26331115
0003b0 ab ba 1b bf fc b8 37 3f fa e4 61 bf bc de f0 3c
       -0.6083171 0.7176664 -0.88240016 0.029403083
0003c0 a6 62 a2 3e f7 27 45 bf 98 43 94 bb 9b 28 4e bd
       0.31715888 -0.77014107 -0.0045246594 -0.050331693
0003d0 80 ed b9 bf ed 03 1f 3e 1e d5 20 3f 1e 1d a1 bf
       -1.4525604 0.15528841 0.6282519 -1.2587011
0003e0 82 d1 16 be 8a e7 9f bf 12 fc 36 3f 81 df 2b bf
       -0.14728358 -1.2492535 0.7147838 -0.67137915
0003f0 cd ea a7 bf f0 15 cd be 3b 07 a5 3e 57 c2 71 bf
       -1.311853 -0.400558 0.3223208 -0.94437164

bias f4 [40]
000000 26 8d 97 bf bf 5c 47 3f 8e b7 45 c0 67 3b d5 40
       -1.183995 0.77875894 -3.0893283 6.6635013
000010 96 24 b6 bf a6 67 c6 bf 0c 6e 0d 40 2d 50 a6 40
       -1.4229915 -1.5500381 2.2098417 5.197287
000020 57 95 18 40 5f 45 3a c0 c0 50 48 be e5 67 cf 40
       2.384115 -2.910484 -0.19562054 6.4814324
000030 55 75 d6 3e ab c1 18 c0 4b de 41 3e 52 c4 98 3d
       0.41886392 -2.3868206 0.18932454 0.0745932
000040 ef 47 c9 bf ee c2 23 bf 3a d7 f2 3f 8b 43 35 3e
       -1.5725077 -0.63969314 1.8971932 0.17701547
000050 ea ee d4 40 b8 88 3c 41 8a bc 44 3e f1 17 bc c0
       6.6541643 11.783379 0.19212547 -5.8779225
000060 19 cd 86 3f c5 68 ad c0 00 ec 2b c0 d6 4f 8c bf
       1.0531341 -5.4190392 -2.6862793 -1.0961864
000070 de 19 77 c0 e1 74 17 bf 93 cd bc bd 4d de 59 3f
       -3.8609538 -0.5916272 -0.09218898 0.8510483
000080 94 bd 23 c0 74 8a 59 40 f6 99 21 3f a4 71 25 3f
       -2.558446 3.3990755 0.6312555 0.64626527
000090 34 7d 14 c0 a2 24 a9 bf 92 4f da be c1 f7 2e 41
       -2.3201418 -1.3214304 -0.42638832 10.935487

weight f4 [40, 40]
000000 c5 5c 84 3e c7 fc d9 3e 8c 1b 91 be d5 1f a9 3f
       0.25852028 0.42575666 -0.2834133 1.3212839
000010 94 e7 6c 3b 6d f1 68 bd f3 4b 25 bf 4f 82 3f bf
       0.0036148774 -0.056870867 -0.64569014 -0.7480821
000020 36 b8 06 3c e3 2c ac 3b 6d 94 d3 bd 44 8e d1 bd
       0.00822263 0.0052543744 -0.10331044 -0.10232213
000030 25 2f b3 3d 5f fd 57 bf a5 10 db be e3 91 21 bd
       0.087492265 -0.8437099 -0.42786136 -0.03944577
000040 5a 42 0d be fe 8f cd bd aa be 84 be 40 18 82 bd
       -0.13794842 -0.1003723 -0.25926715 -0.063522816
000050 19 79 13 3e ab 56 a4 be 6f 4f 0c be 33 d3 fc be
       0.14401664 -0.32097372 -0.13702177 -0.49379882
000060 0d 61 29 bf 43 1d 12 bf 8c 3a 99 bf 17 f9 2b be
       -0.6616371 -0.570759 -1.1970992 -0.16794239
000070 52 d4 39 be 20 cf 23 bf e5 0d 86 3d 11 58 0b 3d
       -0.181474 -0.6398792 0.06545619 0.034019534
000080 a0 e1 8c 3e 1f c7 6f bf 21 1a e5 be 43 ca 44 be
       0.27515888 -0.9366321 -0.44746497 -0.19217782
000090 48 0b 96 be 85 d5 92 3d 65 79 e0 be 84 c5 69 bf
       -0.29305482 0.07169632 -0.43842617 -0.9131701
0000a0 81 c6 10 bf da c7 33 3f 96 d7 f6 be 97 89 ee 3e
       -0.5655289 0.70226824 -0.48211354 0.46589348
0000b0 38 47 34 3c ca 1b b4 bd 4f 7c 1f be a1 21 42 3d
       0.011003308 -0.08794363 -0.15574764 0.047395352
0000c0 dd 64 42 bf bb e9 d5 3e d4 d2 0d 3d 77 27 04 bf
       -0.75935155 0.41779885 0.03462489 -0.5162272
0000d0 bf 88 d7 be b8 98 4c bf 7c 97 bc be 4c 44 a3 be
       -0.42096516 -0.7992053 -0.36834323 -0.31888044
0000e0 5a 32 8d bf 50 91 98 be 82 0a 29 3e f3 d6 9c bf
       -1.1030991 -0.29798365 0.16507915 -1.2253097
0000f0 b9 fc f7 bf ca 90 6c 3f e1 92 54 3e 11 a5 08 bf
       -1.9374 0.9240843 0.20759155 -0.5337687
000100 dd a9 af 3d 47 cd f9 be 73 5a e0 be 9e 4a 53 3e
       0.08577321 -0.48789427 -0.43819007 0.20633933
000110 86 3b 8d bf 81 06 5b bf 84 49 05 be c0 85 79 be
       -1.103379 -0.855568 -0.13016325 -0.24367428
000120 60 65 cc bf 80 be a3 bd e5 62 35 3e 9d 2c 6e 3e
       -1.5968437 -0.07995319 0.17713507 0.23259206
000130 9a db 71 be 28 a0 f5 be d4 3d 7d be d7 ae 0b bf
       -0.23618928 -0.47973752 -0.24730617 -0.5456366
000140 1f 93 62 bf 43 31 56 3f 74 37 4d 3d 90 a0 40 bf
       -0.8850574 0.8366892 0.050101712 -0.75245
000150 d9 d3 20 be 3b 7e b5 be 7f 2a cf 3d b6 fd 4a 3e
       -0.15705813 -0.3544787 0.10115527 0.19823346
000160 ce 87 e7 3e a4 30 8a bf 10 89 5c be fa ab 38 3f
       0.45220798 -1.0796094 -0.2153666 0.72137415
000170 ca 6d 93 be 83 26 86 be 9a 31 06 bf 9c a5 24 3f
       -0.287947 -0.26201257 -0.52419436 0.643152
000180 af 52 43 bf 2f d1 b8 3e 33 53 5b bf b8 7e 54 3f
       -0.7629804 0.36097094 -0.85673827 0.8300586
000190 3a 6f 0d bf da e8 1a be 44 19 a7 ba f2 11 f0 be
       -0.55247843 -0.15127888 -0.0012748619 -0.4688869
0001a0 38 2e 49 bf 2d 4e 52 bf d2 04 13 be 68 ef 56 be
       -0.7858615 -0.82150537 -0.14357308 -0.20989764
0001b0 72 43 23 bf 09 a7 8e bf 25 f1 0e 3d a8 d4 81 be
       -0.6377479 -1.1144725 0.034897942 -0.25357556
0001c0 9b 67 c7 3b cd ae 39 bd b9 6d 29 bf 67 51 80 be
       0.006085349 -0.04533272 -0.6618305 -0.25062105
0001d0 f1 53 ed bd 02 99 2a bd 26 3e ca 3e 15 2e 8e 3d
       -0.11588276 -0.041649826 0.3950054 0.06942383
0001e0 6d 50 b7 3c b6 7b ae bc fc 65 c0 be dd 48 25 3f
       0.022377217 -0.021299224 -0.37577808 0.64564306
0001f0 8d 12 07 be 54 45 81 be d5 bb fc be 4e c9 13 3f
       -0.1319067 -0.25248206 -0.49362054 0.5772904
000200 46 0e a0 bf a4 aa c8 be b0 94 f0 3e ec e0 bc bf
       -1.2504356 -0.39192688 0.4698844 -1.4756141
000210 08 5f a9 bf d3 2a cc bd 81 39 f6 be 76 c0 17 be
       -1.3232126 -0.099691056 -0.48090747 -0.14819512
000220 aa 71 3d be c3 fc 48 bc 55 ce 9a bd cc 13 da be
       -0.1850039 -0.012267294 -0.07558886 -0.4259323
000230 0c e9 31 3e 63 8f 11 3f a0 e0 f8 3d 76 66 2b bf
       0.17374057 0.56859416 0.12152219 -0.6695322
000240 ee f4 e7 be 9f bc cf bf ae 51 06 bf 54 fa b1 bf
       -0.45304054 -1.6229438 -0.52468383 -1.3904519
000250 7b 3c 97 be 76 a7 cf bf c9 2f 6b 3d 7a 14 ef bd
       -0.2953833 -1.622298 0.05741862 -0.116738275
000260 0f cb d7 bf 27 95 28 be 8a a0 56 bc 2c e4 22 bf
       -1.6858844 -0.16463147 -0.013099799 -0.6362941
000270 f9 88 87 3e 51 13 0c be 3d ee 01 bf 98 97 d6 3e
       0.2647169 -0.13679244 -0.5075415 0.41912532
000280 46 3d 0d bf 13 5f d7 bd fd f0 0e bf 13 36 49 bf
       -0.5517162 -0.10516181 -0.5583647 -0.78598136
000290 3b 9d 90 bf 5a 1e 1e bf 7e 4c aa bc 59 1c 32 bf
       -1.1297983 -0.6176506 -0.020788427 -0.69574505
0002a0 c4 53 1c 3e 02 01 0b 3e 9a 2b 20 3e 6a eb a4 bf
       0.15266329 0.13574603 0.15641633 -1.2884343
0002b0 54 c6 78 be 88 a1 10 bf 91 85 df bd ee 72 e6 3d
       -0.24294406 -0.5649648 -0.10914148 0.1125239
0002c0 37 ed 52 be 52 75 3a 3d 9f d2 d9 be 69 df 51 3e
       -0.20598303 0.04552204 -0.42543504 0.2049538
0002d0 4e 31 e9 bd f4 28 e0 bb 4b 94 97 3c 9d 1f 2b 3f
       -0.11386357 -0.0068408195 0.018503329 0.66845113
0002e0 ac af 0a bf d8 08 29 bf 01 da 20 be 6a 6c 81 bf
       -0.54174304 -0.6602912 -0.15708162 -1.011121
0002f0 5f 9d f0 bd fc c9 a3 3e 04 ca e0 3d d2 53 db bd
       -0.11748766 0.3199004 0.109760314 -0.10709347
000300 5b 5d 7b bf 8c a3 f8 be fe c1 7b 3e 28 d8 ff 3b
       -0.98189324 -0.48562276 0.24585721 0.0078077503
000310 b3 c3 36 be 1b ed fe bd 6f bd 1d be 0b 2b f7 be
       -0.17848091 -0.12447568 -0.15404294 -0.48275027
000320 d9 5a 33 bf cb 9e 9a 3b 34 0d df 3d f8 91 43 3e
       -0.700605 0.0047186366 0.1089119 0.19098651
000330 e1 11 89 3f 3c 3e 1b bf 67 d4 a6 be cd d4 b2 be
       1.0708581 -0.6064184 -0.32583925 -0.3492798
000340 69 ec 88 be ca fa 6e bf 69 1a 80 be 19 8c b4 3e
       -0.26742867 -0.93351424 -0.2502015 0.35263136
000350 2e a8 82 be 9c 9f fc bf ac b5 0d be 8b 49 f4 bd
       -0.25518936 -1.9736209 -0.13838834 -0.1192809
000360 58 1b 76 bf a5 75 3a 3e 7f bc 82 3d 30 95 d2 3d
       -0.96135473 0.1820894 0.06383609 0.102823615
000370 05 47 10 3e f5 93 74 3e bb 7c 35 3d af 99 0b bf
       0.14089592 0.23884566 0.044308405 -0.5453138
000380 ce 4d 82 be 2a e0 47 bd b5 6a a6 bf 26 3b 5f bf
       -0.25449985 -0.048797764 -1.3001314 -0.8719963
000390 af bb 44 bf bc 93 a7 3e 71 b1 e1 3d ce e1 ac 3e
       -0.7684888 0.327299 0.110201724 0.33766025
0003a0 0a 55 b7 be 4f ce 86 3e ab 15 dc be e0 99 13 be
       -0.35807067 0.26329276 -0.4298528 -0.14414167
0003b0 47 b3 8f be e0 5e cd 3e e8 a1 6f be 95 97 12 bf
       -0.28066465 0.40111446 -0.23401606 -0.57262546
0003c0 3c e8 11 bf ae 11 99 3d a2 b7 08 bf 46 ad 93 bd
       -0.56994987 0.07474075 -0.534052 -0.07210784
0003d0 3d 1b 82 bf 40 ae 45 be b9 e7 57 be 61 c6 8f be
       -1.0164562 -0.19304752 -0.21084489 -0.2808104
0003e0 e7 1c bd 3e 5c 14 d5 be f6 62 48 be ea c9 16 3f
       0.36936113 -0.41617095 -0.19569 0.58901846
0003f0 68 91 a9 3d d3 0a a7 bf 00 64 d1 be 09 06 30 be
       0.08279687 -1.3050178 -0.40896606 -0.17189802

bias f4 [40]
000000 37 67 58 3f 25 fd 12 be 3d b2 96 bf 4a ee f4 3f
       0.84532493 -0.1435438 -1.1773144 1.913522
000010 6c 07 35 3d 59 da 4a 40 f4 de 1c 40 6d 87 15 bf
       0.04419653 3.169577 2.451108 -0.5840977
000020 63 86 b6 3f ee 12 5f 40 c2 f2 80 41 0d 1b 4e 40
       1.4259762 3.4855304 16.118534 3.220401
000030 a6 4e 58 41 11 d0 a3 3f b3 31 49 3f 69 42 c8 3f
       13.519201 1.2797872 0.7859146 1.5645267
000040 ff fa fb 41 bc 09 7e bf 8b d6 c8 40 96 fe 9e be
       31.497557 -0.99233603 6.2761893 -0.3105361
000050 80 ee 50 bf f3 ec d3 3e 25 3b 45 bf 58 9a 18 be
       -0.8161392 0.41391715 -0.7704337 -0.14902627
000060 7b 04 64 41 72 7c 28 3e 27 db 38 40 70 4a 9c be
       14.251094 0.16453722 2.888376 -0.3052554
000070 82 da 26 40 13 12 48 3e a8 74 4c 40 cb cd 78 3f
       2.6070867 0.19538145 3.1946201 0.97189015
000080 9d fc 6d 40 d5 a9 67 40 f9 89 07 40 d1 2f a5 bf
       3.7185433 3.6197407 2.1177962 -1.2905217
000090 a2 05 03 40 2c ba 0e 40 ed ee c2 40 1d b6 ce 40
       2.0472188 2.230113 6.0916657 6.4597306

weight f4 [1, 40]
000000 ed fb 41 3e 14 cd 04 bf 93 63 78 be 8b 2d 91 3e
       0.18943758 -0.51875424 -0.24256735 0.2835506
000010 2d 9c 62 3e 04 6c b6 3e f1 2e dd 3e 35 cb 09 bf
       0.22129889 0.35629284 0.43199876 -0.53825694
000020 34 87 95 3e 22 88 c2 3e ba 31 66 3f 6d ca b4 3e
       0.29204714 0.37994486 0.89919627 0.3531069
000030 f1 57 81 3f 6c 4b 2f 3f c5 b8 70 3e 81 c9 dd 3e
       1.0104963 0.6847446 0.23507984 0.43317798
000040 fe ad 6b 3f 5e 97 f1 be f0 b8 b9 3e 8f 7b 31 bf
       0.92062366 -0.47185796 0.3627391 -0.6932916
000050 cc 58 1f bf db bd b1 3e d1 5d 8c be 3a 32 16 bf
       -0.6224487 0.3471516 -0.27415326 -0.5867039
000060 b0 65 91 3f ed 18 a5 3e 0c 29 95 3e 40 e3 6c bf
       1.1359158 0.3224558 0.2913288 -0.92534256
000070 37 56 26 3f 0e 0c 7d 3e 6b 09 a7 3e 9f 27 84 3e
       0.64975303 0.2471163 0.32624373 0.25811478
000080 7a 50 a1 3e 28 c3 98 3e a9 b4 cc 3e f9 50 49 be
       0.3150671 0.29836392 0.39981583 -0.19659795
000090 83 c6 81 3e b7 1d cc 3e 28 bc 83 3f 1a 5b 27 3f
       0.25346765 0.3986642 1.0291796 0.65373385
