scripts/dof6pos_2_layer_rel_loss.pt (torch, 117463 bytes, 5 tensors)

weight f4 [500, 6]
0	0x411ea070	9.914169
1	0xbf8184ab	-1.0118612
2	0xc0b607bb	-5.6884437
3	0x410a7408	8.653328
4	0xbf31d446	-0.6946453
5	0xbf896e1f	-1.0736731
6	0xbf6c7432	-0.923648
7	0x417db60c	15.856945
8	0x417a71cc	15.652782
9	0x41768806	15.408209
10	0x4084b3fb	4.1469703
11	0xc04fd0f5	-3.2471287
12	0x4219abed	38.417896
13	0xbf826c9c	-1.0189395
14	0xbeaadb28	-0.33370328
15	0x40a5de0d	5.183356
16	0xbff02449	-1.8761073
17	0x403d504a	2.9580255
18	0xbd0ed327	-0.03486934
19	0xbf3a433f	-0.7275886
20	0xba86ee74	-0.0010294453
21	0x3debcdb2	0.11513843
22	0xbf18332c	-0.5945308
23	0xbe0250a9	-0.12726082
24	0x3dd2c596	0.10291593
25	0x4229a0c3	42.406994
26	0x41ae4bcd	21.787012
27	0x3ecd336e	0.400783
28	0xc0299fe1	-2.6503832
29	0xbfe48ff3	-1.785643
30	0x3cbaf5d9	0.022822307
31	0xbe2ac8d0	-0.16678166
32	0xbdb39cd1	-0.08770145
33	0xbbc1be75	-0.005912597
34	0x3d0123bc	0.03152822
35	0xbc51866f	-0.012788399
36	0xbf1e188a	-0.61756194
37	0xc1f4d0b3	-30.601904
38	0xc17d8d0d	-15.846936
39	0xbdf277bb	-0.11839243
40	0x3faa4fb1	1.330557
41	0x3e9c1b86	0.3048975
42	0x4004e410	2.0764198
43	0x41ff1e4f	31.8898
44	0x41756466	15.337011
45	0xc1082606	-8.509283
46	0x419c26fa	19.519032
47	0x40ecc948	7.3995705
48	0xbf053ec1	-0.5204888
49	0xbce7aa17	-0.028279347
50	0xc0d5828b	-6.6721854
51	0x3f2e91ef	0.68191427
52	0xc04c2a1f	-3.1900709
53	0xbf9f3d1a	-1.2440522
54	0x3d7de73b	0.061988097
55	0xbfbe2591	-1.4855214
56	0xc0b0ed07	-5.528934
57	0x3f3fa020	0.74853706
58	0xc064e34d	-3.5763733
59	0xc02a0d7f	-2.6570737
60	0xbf91cc3a	-1.139045
61	0x41a8ce5f	21.100767
62	0x4188e1e4	17.110298
63	0x414f2552	12.946611
64	0x405c16c9	3.4388907
65	0x3f2111d9	0.6291786
66	0xbef0b8e7	-0.4701607
67	0xc1fd23e4	-31.642525
68	0xc16512b5	-14.317067
69	0xbd4e9051	-0.0504306
70	0xc1403dc5	-12.01508
71	0x40599778	3.39987
72	0x40797fdf	3.8984296
73	0xc2296a12	-42.353584
74	0xc0fd56f8	-7.9168663
75	0xbe85039d	-0.2597932
76	0xbfd8b506	-1.6930244
77	0x3ef9dc0d	0.48800698
78	0x3f0cc617	0.5498976
79	0xc207f8f6	-33.993126
80	0xc1813a2b	-16.153402
81	0x3fb0c9fb	1.381164
82	0xc1415b09	-12.084725
83	0x41194514	9.579365
84	0x3e95709f	0.29187486
85	0xc0fb27bb	-7.8486
86	0xc0c52c86	-6.161685
87	0xc04f7db5	-3.2420475
88	0xbfccdddc	-1.6005206
89	0xbf363c17	-0.7118544
90	0x40939ea8	4.613117
91	0xc05587cb	-3.3364131
92	0xc06cd7b7	-3.7006662
93	0x3fc82d76	1.5638874
94	0xc003445b	-2.051047
95	0xbe1eee1f	-0.15520523
96	0xbe82fd68	-0.2558396
97	0xbe36469e	-0.17800376
98	0x3e14c2ee	0.14527485
99	0xbe4febca	-0.2030479
100	0xbf1ab842	-0.60437405
101	0x3e1db3a4	0.15400559
102	0xbfac11f3	-1.3442978
103	0xc206d3a1	-33.70667
104	0xc18bdabd	-17.481806
105	0x40cd57bd	6.4169602
106	0x409a86f1	4.8289723
107	0x4016f70e	2.358829
108	0x3d0f53ee	0.03499215
109	0xbf1ecf95	-0.62035495
110	0xbe51493f	-0.20438097
111	0x3da176fc	0.078840226
112	0xbe3d229d	-0.18470235
113	0xbe56410a	-0.20923248
114	0xc206eac1	-33.72925
115	0x409e85ed	4.9538484
116	0x411a3ce7	9.639869
117	0x4107170f	8.44313
118	0xc1b050a6	-22.03938
119	0xc12f28e8	-10.947487
120	0x41a923cb	21.142477
121	0x40b1d26a	5.5569353
122	0xc0f998d6	-7.7999067
123	0x417df4ff	15.8723135
124	0x3f9aa2ff	1.2080992
125	0x3ee22098	0.44165492
126	0x41406178	12.023796
127	0x40fe7bb3	7.9526
128	0x409e5276	4.947566
129	0xc06d2d5c	-3.7058935
130	0x403a5058	2.9111538
131	0x3f585ec2	0.8451959
132	0xc1ee2025	-29.765696
133	0x4027bdf3	2.6209686
134	0x4097b056	4.7402754
135	0xc018d1cd	-2.3878052
136	0xc11c38b6	-9.763845
137	0xc0922337	-4.5667987
138	0xbf549cfd	-0.83052045
139	0x420a01c6	34.50173
140	0x4168789c	14.529446
141	0x417a2731	15.634568
142	0x41bbe624	23.487373
143	0x4113fdee	9.249495
144	0x40d034cf	6.5064464
145	0x40c3635a	6.105878
146	0x3fd7ea12	1.6868308
147	0x3fa3d52b	1.2799429
148	0xc04cf29a	-3.2023072
149	0x3ed24be8	0.41073537
150	0x41157237	9.3403845
151	0x40ceee28	6.466572
152	0xc0c99263	-6.2991195
153	0xbfbb976e	-1.4655588
154	0xc00f2a8e	-2.2369723
155	0xbf3cecfc	-0.7379911
156	0xc2282f81	-42.04639
157	0x3fa18632	1.2619078
158	0xc0dd454c	-6.914709
159	0xc101c239	-8.109918
160	0x4117ea9f	9.494781
161	0x4060ae71	3.510647
162	0x40f4d277	7.6506915
163	0x3f5b2a65	0.85611564
164	0xc10d375b	-8.8260145
165	0x40eab667	7.334766
166	0x40e6a7bb	7.207975
167	0x41017c6e	8.092878
168	0x40c5da56	6.1829023
169	0xc09ce392	-4.9027796
170	0xbf2d8177	-0.6777567
171	0xbe880604	-0.2656709
172	0xbea09846	-0.31366175
173	0x3f99c92e	1.201452
174	0xb931824e	-0.00016928578
175	0xbd83305f	-0.064057104
176	0xbc8dab27	-0.017293526
177	0xbb8b1031	-0.0042438735
178	0xbd6bf179	-0.057603333
179	0x3b2fde5d	0.002683542
180	0x3fbde548	1.4835596
181	0xbfc95815	-1.5730006
182	0x40817f81	4.0468144
183	0x3f425cb8	0.7592273
184	0xc0820731	-4.063378
185	0xc0e1132b	-7.03359
186	0x3f53eadb	0.82780236
187	0xbe7896af	-0.24276231
188	0xbf0e8231	-0.55667406
189	0x3f013ad8	0.50480413
190	0xbe7b38a7	-0.2453333
191	0x3df6d95c	0.12053177
192	0xc0f03d44	-7.5074787
193	0x40afbd36	5.491847
194	0xc0e3c582	-7.11786
195	0x3f116449	0.5679365
196	0xc025a871	-2.5884058
197	0xbfa0df4c	-1.2568145
198	0x40af8f49	5.486241
199	0x407d8e6e	3.9618182
200	0xbf2372a5	-0.6384681
201	0x3d9f11b6	0.0776705
202	0x4070281e	3.7524486
203	0x3f9ffac3	1.2498401
204	0x41fd88bc	31.691765
205	0x401bc24b	2.4337337
206	0x40e1780c	7.045904
207	0x40dcbcac	6.898031
208	0xc11dee74	-9.870716
209	0x4097888f	4.7354198
210	0x3fc0bce7	1.5057648
211	0x41d972d2	27.181065
212	0x4166e5ff	14.431151
213	0xbf35ede9	-0.7106615
214	0xbfe07fb9	-1.7538978
215	0xbed7b2ae	-0.4212851
216	0xbf037c90	-0.5136194
217	0xbf99f049	-1.2026454
218	0xbf7e07e2	-0.9923078
219	0x3f1fd293	0.62430686
220	0x3f6ebbad	0.9325512
221	0x3e71eb84	0.23624998
222	0x411901cd	9.56294
223	0x40a340ea	5.101674
224	0x3e3e9e28	0.1861502
225	0xbf7f1677	-0.99643654
226	0x402809df	2.6256025
227	0xbda76cf4	-0.08175078
228	0x3f9972b9	1.1988136
229	0x41f6b701	30.839357
230	0x41bccb0a	23.59914
231	0x3f347720	0.7049427
232	0x3f529cc2	0.82270443
233	0x40edc1da	7.4299135
234	0x3eda324b	0.42616495
235	0xc21a62fe	-38.596672
236	0xc1bb23d0	-23.392487
237	0x3e983cb3	0.2973381
238	0xc116a012	-9.41408
239	0x40b4d7af	5.6513286
240	0x3e890f80	0.26769638
241	0xc2397d3c	-46.3723
242	0xc202c34e	-32.690727
243	0x3e4523d8	0.19251955
244	0xc1a7f84a	-20.996235
245	0xc111c158	-9.109703
246	0xc07b8cc6	-3.9304671
247	0xc08872ba	-4.2640047
248	0xbfe3fc40	-1.7811356
249	0x3ebecd37	0.37265942
250	0xbe486064	-0.1956802
251	0x3e8cd826	0.27508658
252	0xc1194d8f	-9.581435
253	0x3fd90edf	1.6957663
254	0x40ba84bb	5.8287024
255	0x3f284700	0.6573334

bias f4 [500]
0	0xc1ba5ab7	-23.294294
1	0xc2281c62	-42.027718
2	0xc27b3adf	-62.80749
3	0xbfe0e4c7	-1.7569817
4	0xc20e4432	-35.566597
5	0xbe91d4e3	-0.28482732
6	0xc1558db6	-13.347097
7	0xc1bef728	-23.870682
8	0xc19680fa	-18.812977
9	0xc190488f	-18.035429
10	0xc1a08b29	-20.06795
11	0xc1b3ac90	-22.459259
12	0xc22cf1e9	-43.23624
13	0xc20f748f	-35.863827
14	0xc17c40e7	-15.765845
15	0xc1634fcc	-14.206982
16	0xbfe4d1a9	-1.7876483
17	0xc22253a9	-40.5817
18	0xbf9e5539	-1.2369758
19	0xc2876e73	-67.71572
20	0xc1d27a87	-26.309828
21	0xc1ce50ea	-25.789509
22	0xc1b9acd8	-23.209396
23	0xc2318c15	-44.3868
24	0xc1989eb7	-19.077497
25	0xc1533a51	-13.201737
26	0xc25f184e	-55.773735
27	0xc1c04df5	-24.038065
28	0xc18beb27	-17.48982
29	0xbe25152d	-0.16121359
30	0xc12c56fc	-10.771236
31	0xc00771dd	-2.1163247
32	0xc13dfae0	-11.873749
33	0xc1752b04	-15.323002
34	0xc226d05f	-41.703487
35	0xc1c8a2ac	-25.07943
36	0xc08ed915	-4.4639993
37	0xc1b6238f	-22.767363
38	0xc2093d2d	-34.309742
39	0xc1858547	-16.690077
40	0xc1190eca	-9.566111
41	0xc1302f39	-11.011529
42	0xc1a60f64	-20.757515
43	0xc207bada	-33.932472
44	0xc1db5736	-27.417583
45	0xc216d530	-37.70819
46	0xc0279070	-2.6181908
47	0xc15dc929	-13.861611
48	0xbef7fd46	-0.4843542
49	0xc21a2b03	-38.542004
50	0xc22c6720	-43.100708
51	0xc21c6313	-39.096752
52	0xc1e208f7	-28.254377
53	0xc25b4dc3	-54.82594
54	0xc1ec4725	-29.534739
55	0xc17fe35f	-15.9930105
56	0xc0cc64d3	-6.3873076
57	0xc2118ce1	-36.387577
58	0xbfa38729	-1.2775623
59	0xc121d84b	-10.115306
60	0xc2264266	-41.564842
61	0xc25d01a0	-55.251587
62	0xbfbcd407	-1.4752206
63	0xc223f325	-40.987446
64	0xc2167e3b	-37.623272
65	0xc20c399d	-35.056263
66	0xc21d8237	-39.377163
67	0xc241c183	-48.438976
68	0xc1b3eee3	-22.491644
69	0xc21ffeea	-39.99894
70	0xc1af66a5	-21.92512
71	0xc1e0ed33	-28.11582
72	0xc1750b7e	-15.315306
73	0xc2990c07	-76.52349
74	0xc2533e6b	-52.810955
75	0xc23e5bcc	-47.589645
76	0xc19c09b7	-19.504744
77	0xc1bd745e	-23.68182
78	0xc224d880	-41.211426
79	0xc217a489	-37.91068
80	0xc1c27c6d	-24.310755
81	0xc1a38f13	-20.44486
82	0xc256548b	-53.58256
83	0xc197ba1c	-18.965874
84	0xc0127fe3	-2.2890556
85	0xc252ea0f	-52.728573
86	0xc1c8e279	-25.110582
87	0xc1d2cab9	-26.348986
88	0xc1e0eb22	-28.11481
89	0xc079e92d	-3.904857
90	0xc16620cd	-14.383008
91	0xbe8913b8	-0.26772857
92	0xc1a2f4ed	-20.369593
93	0xc189ec31	-17.240328
94	0xc25c9113	-55.141674
95	0xc211c5f1	-36.443302
96	0xc2197ae5	-38.370014
97	0xc2292198	-42.282806
98	0xc20774d4	-33.86409
99	0xbfcc3476	-1.595351
100	0xc22ead5f	-43.669308
101	0xc1bc9904	-23.574715
102	0xc1dbfcd4	-27.498451
103	0xc23fed97	-47.98202
104	0xc0ca67ae	-6.325156
105	0xc1aadc20	-21.357483
106	0xc180d1e0	-16.102478
107	0xc130e797	-11.0565405
108	0xc1cf6a38	-25.926865
109	0xc1719778	-15.09948
110	0xc0a76275	-5.2307687
111	0xc1be6a91	-23.802034
112	0xc0f6ab7b	-7.7084327
113	0xc1d0eef1	-26.11667
114	0xc1b3a2c9	-22.454485
115	0xc20b737e	-34.862785
116	0xc1b85118	-23.039597
117	0xc25c11b9	-55.017307
118	0xbfc0a3af	-1.5049952
119	0xc1b4b6dd	-22.589289
120	0xc1a577f1	-20.683565
121	0xc205756c	-33.36467
122	0xc21899e3	-38.15028
123	0xc1a165e1	-20.174746
124	0xc1f0a10c	-30.078636
125	0xc19269ae	-18.301601
126	0xc0caae8d	-6.3338075
127	0xc1b8c0c9	-23.094133
128	0xc2212088	-40.28177
129	0xc1102bd7	-9.010703
130	0xc221381c	-40.304794
131	0xc238c912	-46.196358
132	0xc25259ea	-52.587807
133	0xc04e6ad9	-3.2252715
134	0xc230078a	-44.007362
135	0xc20ce811	-35.226627
136	0xc21065a5	-36.099262
137	0xc08bbd90	-4.36689
138	0xc150114a	-13.004221
139	0xc1bde735	-23.737894
140	0xc1bbb376	-23.462627
141	0xc1f50ae6	-30.630322
142	0xc1dc0b1f	-27.50543
143	0xc213cd4f	-36.950497
144	0xc1caf2f8	-25.368637
145	0xc197f9de	-18.997005
146	0xc0e94b0c	-7.290411
147	0xc0d3a580	-6.6139526
148	0xc2008350	-32.128235
149	0xc239d5ee	-46.458916
150	0xc1df701b	-27.929739
151	0xc2238ff8	-40.890594
152	0xc01f0365	-2.4845822
153	0xc267c69c	-57.943954
154	0xc1b90dc6	-23.131725
155	0xc145dc2f	-12.366256
156	0xc1a12b5f	-20.146177
157	0xc143de86	-12.241827
158	0xc17c4533	-15.766894
159	0xbee59fbe	-0.44848436
160	0xc201ec75	-32.480915
161	0xc2670cd5	-57.76253
162	0xc1346666	-11.275
163	0xc1fddfcb	-31.734274
164	0xc224fd46	-41.247337
165	0xc283d335	-65.91251
166	0xc20034c0	-32.051514
167	0xc1ead73e	-29.355099
168	0xc228a614	-42.162186
169	0xc1098ff5	-8.597646
170	0xc215c747	-37.444607
171	0xbfb120d4	-1.3838143
172	0xc1948e65	-18.569529
173	0xc21f90e2	-39.891487
174	0xc242f71c	-48.741318
175	0xc12fb6e3	-10.98215
176	0xc274d034	-61.203323
177	0xc202dcd7	-32.715664
178	0xc2298e06	-42.388695
179	0xc0ea91ab	-7.3302817
180	0xc18a6881	-17.301027
181	0xc1d03566	-26.026073
182	0xc21cb684	-39.178238
183	0xc1b76dc7	-22.928602
184	0xc1eb12fa	-29.384266
185	0xbfc0abc0	-1.5052414
186	0xc2086af7	-34.104458
187	0xc1ebbc79	-29.467028
188	0xc1c44591	-24.533968
189	0xc205a3c3	-33.409924
190	0xc21a22cd	-38.533985
191	0xc20e0eee	-35.51458
192	0xc18a8eac	-17.319664
193	0xc2227ac8	-40.619904
194	0xc1ad3d22	-21.65485
195	0xc2354440	-45.31665
196	0xc1efd085	-29.976816
197	0xc090fd67	-4.530933
198	0xc23e0466	-47.504295
199	0xc184f5ed	-16.62008
200	0xc0493ab2	-3.1442075
201	0xc1255d7d	-10.335324
202	0xc2264dd6	-41.57601
203	0xc19a3233	-19.274511
204	0xc208597e	-34.087395
205	0xc2065ee8	-33.59268
206	0xc2173857	-37.80502
207	0xc12a429a	-10.64126
208	0xc04f283b	-3.2368305
209	0xc2441b50	-49.026672
210	0xc16410c3	-14.254092
211	0xc2128018	-36.62509
212	0xc12fe9c6	-10.994574
213	0xc12456e7	-10.271216
214	0xc1e2038c	-28.251732
215	0xc1e57bc7	-28.685438
216	0xc20af1c2	-34.73609
217	0xc2176e74	-37.857864
218	0xc19febb0	-19.990082
219	0xc27fb9d3	-63.93147
220	0xc19a2fca	-19.273335
221	0xc1e7792f	-28.934172
222	0xc1dd2b72	-27.646214
223	0xc2331088	-44.766144
224	0xc1ffcc9e	-31.97491
225	0xc2960624	-75.01199
226	0xc16a3af9	-14.639398
227	0xc2140281	-37.002445
228	0xc1ecb118	-29.586472
229	0xc1c75c62	-24.920109
230	0xc19d142a	-19.634846
231	0xc16e9b9e	-14.9129925
232	0xc22166dd	-40.350452
233	0xbf78e6d6	-0.9722723
234	0xc06ca7ff	-3.6977537
235	0xc1abd3e9	-21.478472
236	0xc0109f26	-2.2597136
237	0xc200c2f4	-32.190384
238	0xc1a22fb6	-20.273296
239	0xc168de96	-14.554342
240	0xc1a5b9cb	-20.71572
241	0xc22297b8	-40.648163
242	0xc2283065	-42.04726
243	0xc21c7b87	-39.120632
244	0xc04f368d	-3.2377045
245	0xc0808548	-4.0162697
246	0xc17a8e6a	-15.659769
247	0xbe5e3c2e	-0.21702644
248	0xc082e0d9	-4.089947
249	0xc19877c2	-19.058475
250	0xc2372bcc	-45.79277
251	0xc1d0cafc	-26.099113
252	0xc26185d6	-56.3807
253	0xc1dc8136	-27.563091
254	0xc296a6d5	-75.32584
255	0xc20bcf56	-34.952477

weight f4 [50, 500]
0	0xbdda3f79	-0.10656638
1	0xbdda7a71	-0.10667885
2	0xbfb5cafd	-1.4202572
3	0xbe9041e4	-0.2817527
4	0xbfb19842	-1.387459
5	0xbda1bb7b	-0.07897087
6	0xc18995cc	-17.198143
7	0xc102a5e0	-8.165497
8	0x3cd8047b	0.026369324
9	0xbeb50a56	-0.35359448
10	0xc0576a8f	-3.3658788
11	0xc0c96e3a	-6.2947054
12	0x3e5c0d73	0.21489505
13	0xbfb860b5	-1.4404513
14	0xbf4e32b9	-0.80546147
15	0xbf0c3286	-0.5476459
16	0xbe65b6c8	-0.22433007
17	0xbec91358	-0.3927257
18	0xbe0724e7	-0.13197671
19	0xbd4a15db	-0.04933725
20	0xc0d816ec	-6.752798
21	0xbf6b0470	-0.91803646
22	0xc11879a2	-9.5296955
23	0xbfd67565	-1.6754576
24	0xbd8643dc	-0.06555912
25	0xc061b603	-3.526734
26	0xbf3336f9	-0.70005757
27	0xbf4b3dbb	-0.7939107
28	0xbf216915	-0.6305097
29	0xbd6199b0	-0.05507821
30	0xbecd80f9	-0.4013746
31	0xbd5d5c11	-0.05404288
32	0xc02fa654	-2.7445269
33	0xbf191dae	-0.5981091
34	0xbfbf4271	-1.4942151
35	0xc16d4221	-14.828645
36	0xbeb6fd37	-0.35740063
37	0x3e14ff1e	0.14550444
38	0xc046099a	-3.094336
39	0xc1732daa	-15.198648
40	0xc2047560	-33.114624
41	0xbe1782b1	-0.14795949
42	0xbea4728a	-0.32118636
43	0xbe23cf66	-0.15997085
44	0xc0964493	-4.695871
45	0xbe1f2484	-0.15541273
46	0xbe638c78	-0.22221553
47	0xc19ab8f0	-19.340302
48	0xbda302cf	-0.0795952
49	0xbf1da5a6	-0.61580884
50	0xbf8ac575	-1.0841509
51	0xbf1e4193	-0.6181881
52	0xbf8e5657	-1.1120099
53	0xbf483e23	-0.78219813
54	0xc0279c2b	-2.6189067
55	0xc0b9645c	-5.793501
56	0x3da3f07d	0.08004854
57	0x3f0fd0e9	0.56178147
58	0xbde5f6f7	-0.112287454
59	0xc200c673	-32.193798
60	0xbf23411b	-0.6377122
61	0xbed4168a	-0.41423446
62	0xbd1fd79e	-0.039023988
63	0xbf67f8a6	-0.9061378
64	0xbe281f66	-0.16418228
65	0xbfa8b598	-1.3180418
66	0xbe41e7d7	-0.18936096
67	0x3f8f8fcf	1.1215762
68	0xc00b5ed5	-2.177663
69	0xbf8420b6	-1.0322483
70	0xbf291913	-0.66053885
71	0x3e4b28d9	0.19839801
72	0xbeb4884f	-0.35260245
73	0xbfc81da6	-1.5634048
74	0xbeb90dfe	-0.36143488
75	0xbe6c301c	-0.23065227
76	0xbf8721c8	-1.0557184
77	0xbe918c4e	-0.28427356
78	0x3e0dfb29	0.13865341
79	0xbe6b6cc2	-0.22990707
80	0xc07e33a8	-3.9719028
81	0x3e9b7226	0.30360526
82	0xbf4733d3	-0.7781345
83	0xbf6c6715	-0.9234479
84	0xbe90f390	-0.28310823
85	0x3dbd83e1	0.092536695
86	0xbe2a1076	-0.16607842
87	0xc10fb4c2	-8.98163
88	0x3e49e228	0.19715178
89	0xbce39d2c	-0.027784906
90	0x3cc1fc2d	0.023679817
91	0xbdd00ebd	-0.10159061
92	0xbf2a0520	-0.6641407
93	0xc0df69f7	-6.981685
94	0xbee0ba26	-0.4389202
95	0xbf49f2a0	-0.7888584
96	0xbe99931a	-0.29995042
97	0xbf977f7c	-1.183578
98	0xbec59e64	-0.38597405
99	0xbe96661f	-0.29374787
100	0xbc430197	-0.0119022345
101	0xc0a3dae2	-5.120469
102	0xc1ed1ab2	-29.638035
103	0xbd6be9d8	-0.057596058
104	0xbd8ca6a7	-0.06867724
105	0xbfcf2f50	-1.6186314
106	0x3f06661d	0.5249956
107	0xbfb3397f	-1.4001921
108	0xc114be21	-9.296418
109	0x3dcf6fc1	0.10128737
110	0xbe399bfe	-0.18125913
111	0xbf189ee6	-0.5961746
112	0xbf1fc52b	-0.6241023
113	0xbf4b9af9	-0.79533345
114	0x3ebd243d	0.3694171
115	0xbe2e3754	-0.17013294
116	0xbe846af5	-0.25862852
117	0xbf0bc47b	-0.5459668
118	0x3c472ef3	0.01215719
119	0x3e210621	0.15724994
120	0xbe308af5	-0.17240508
121	0xbef0ee14	-0.4705664
122	0xbf55671f	-0.83360475
123	0xc0963934	-4.694483
124	0xbf34cc20	-0.7062397
125	0x3c51edd5	0.012813051
126	0xbe1f71e7	-0.15570794
127	0xc11dafe9	-9.855447
128	0xbf6a01fd	-0.91409284
129	0xbd986f4b	-0.074431024
130	0xbfd4e8bc	-1.6633525
131	0xbc346d76	-0.011012426
132	0xbedbc7f3	-0.42925987
133	0xbe0ae407	-0.13563548
134	0xbf6e964d	-0.9319809
135	0xc02f4602	-2.738648
136	0xbea45fd4	-0.3210436
137	0xbd0690fc	-0.03285311
138	0xbcc74427	-0.02432449
139	0xc0d5b3bf	-6.6781917
140	0xbf3359d8	-0.70058966
141	0xbfb2802c	-1.3945365
142	0xbf605cdb	-0.87641686
143	0xc168328f	-14.512343
144	0xc0b812ca	-5.7522936
145	0xbf4d0d73	-0.80098647
146	0xbf2c26de	-0.67246807
147	0xbe63a943	-0.22232537
148	0xbe7b208d	-0.24524136
149	0xbf79d9de	-0.97598064
150	0xbf196edb	-0.5993478
151	0xbe21d902	-0.15805438
152	0xbf18c872	-0.59680855
153	0xbd846e41	-0.06466342
154	0xbf90fb1c	-1.1326632
155	0x3d513434	0.051075175
156	0xc15f0bc4	-13.940372
157	0xc1a97126	-21.180248
158	0xbd917abb	-0.07103487
159	0x3c3dc2dd	0.011582104
160	0xbf0879c0	-0.53310776
161	0xc0ff8b63	-7.985765
162	0xc003c0bd	-2.0586388
163	0x3cfe730f	0.031060724
164	0xbf8b24a2	-1.0870554
165	0x3d4887cd	0.048957635
166	0xc0936db6	-4.6071424
167	0xbee3de5d	-0.44505587
168	0xc046de5b	-3.1073215
169	0xbf5a0166	-0.85158384
170	0xc065597e	-3.5835872
171	0xbe6182b1	-0.22022511
172	0xc025f85c	-2.5932837
173	0xbe84972d	-0.25896588
174	0xbf3085d1	-0.6895419
175	0xc20c8e17	-35.13876
176	0xbec70583	-0.38871393
177	0xbe9e312b	-0.30896887
178	0xbf70efcd	-0.94115907
179	0x3c10b1d0	0.008831456
180	0xbd524260	-0.05133283
181	0xbdb1d286	-0.08682732
182	0xbf53ffb6	-0.8281206
183	0xc118dd3c	-9.554012
184	0xc0133b7b	-2.3005054
185	0xbd9c5465	-0.076332845
186	0xbec7d678	-0.39030814
187	0xbf33290c	-0.6998451
188	0xbf06fbfa	-0.52728236
189	0xbffa7f19	-1.9570037
190	0xbeb68e32	-0.3565536
191	0xc0b6f40f	-5.7172923
192	0xc0009b1c	-2.0094671
193	0xbf18fc6d	-0.5976017
194	0xbe59a947	-0.2125598
195	0xc0755a76	-3.8336463
196	0xbeed9c8a	-0.46408492
197	0xbe1262f4	-0.1429556
198	0xc016c8ab	-2.3559978
199	0xc0834341	-4.1019597
200	0xbd81c373	-0.06336107
201	0xbdb598d5	-0.08867041
202	0xbd9290b4	-0.07156506
203	0xbf8a70e0	-1.0815697
204	0xbfbcacea	-1.4740269
205	0xc008d035	-2.137708
206	0x3e03859e	0.1284394
207	0xbf1494fe	-0.58039844
208	0xbe76be45	-0.2409602
209	0xbdd648be	-0.10463093
210	0xc01a987a	-2.4155564
211	0x3e172a6d	0.14762278
212	0xbec29b60	-0.38009167
213	0xbd50bfa0	-0.050963998
214	0x3dc91db5	0.09820119
215	0x3cba0453	0.02270714
216	0xbfbcf300	-1.4761658
217	0xbfbba75c	-1.4660449
218	0xc09b6711	-4.8563313
219	0xbf0673be	-0.5252036
220	0x3ea41067	0.32043764
221	0xc11c6e72	-9.776964
222	0xc0e36705	-7.1063256
223	0x3d122652	0.035681076
224	0xbf9bcf44	-1.2172627
225	0xbe22a2ab	-0.15882365
226	0xbdab5f95	-0.0836784
227	0xbe5f705f	-0.2182021
228	0xc0882539	-4.254544
229	0xbe72c9f7	-0.23709856
230	0xbefcc993	-0.4937254
231	0xbefe31fe	-0.49647516
232	0xbf56e4e1	-0.8394299
233	0xbdd3492b	-0.1031669
234	0xbe730fd5	-0.23736508
235	0xbf4e6a62	-0.8063108
236	0xbe15e4d9	-0.1463808
237	0xbf8e59ab	-1.1121114
238	0x3de5d938	0.11223072
239	0xbf37db64	-0.7181914
240	0xbe7b89b4	-0.24564248
241	0xc0134faa	-2.3017373
242	0xbe935ec3	-0.28783235
243	0xbd8e3310	-0.06943333
244	0xbe4c74f5	-0.1996649
245	0xbed7b1f0	-0.42127943
246	0xbe757b3f	-0.23972796
247	0x3a53b9a4	0.0008076674
248	0xbd89a3b2	-0.067206755
249	0xbf3ba769	-0.7330232
250	0x3ccdeaf2	0.025136445
251	0xbf661560	-0.89876366
252	0xbe0259a4	-0.12729508
253	0xc0b50ba2	-5.65767
254	0xbdbed471	-0.09317864
255	0xbac22fbe	-0.0014815254

bias f4 [50]
0	0x40d648f8	6.6964073
1	0xbf1a99ee	-0.6039113
2	0xc05af105	-3.4209607
3	0xc190c183	-18.094488
4	0xc1e3cd26	-28.47517
5	0xbef3122a	-0.47474796
6	0x404a984b	3.1655452
7	0x418d0a61	17.630068
8	0x4101b078	8.105583
9	0x4033d022	2.8095784
10	0xc274607d	-61.094227
11	0xc192cf7d	-18.351313
12	0x41486fa5	12.527257
13	0x3f95bebe	1.1698835
14	0x411a2f35	9.636525
15	0xc1300e8d	-11.003552
16	0x415e5ae6	13.897192
17	0x40b40555	5.625651
18	0xc1262caa	-10.385904
19	0xbdcc2285	-0.099675216
20	0x3fac2e73	1.3451675
21	0x410e756f	8.90367
22	0xba0bb955	-0.0005330046
23	0xbe36c026	-0.17846736
24	0x3da36dd1	0.0797993
25	0xc0906104	-4.5118427
26	0xbff83b81	-1.9393159
27	0xc1d55eed	-26.67135
28	0xc1576cda	-13.464075
29	0xc0426532	-3.0374265
30	0xc23c649f	-47.098263
31	0x3fdbdcec	1.7176795
32	0xc0588dd7	-3.3836572
33	0x4103932c	8.223431
34	0x3fe4f531	1.7887326
35	0xc0b6c67d	-5.7117295
36	0x42246741	41.100834
37	0x407e38ac	3.972209
38	0xc1d76cc8	-26.928116
39	0x41c8d78a	25.105244
40	0x3faba8b1	1.3410856
41	0xc1432b94	-12.198139
42	0xc2310c48	-44.261993
43	0x413f6a8b	11.963511
44	0xc0bacb56	-5.8373213
45	0xc12b1a63	-10.693942
46	0xc01a37a7	-2.4096467
47	0x40ed728a	7.420232
48	0x412af612	10.685076
49	0xc2208f0e	-40.1397

weight f4 [1, 50]
0	0x410186dd	8.095426
1	0x3ff668ff	1.9250792
2	0xc01c4fc9	-2.4423697
3	0xbfb5570a	-1.4167187
4	0xbf9b5c0d	-1.2137467
5	0xbfbb9b41	-1.4656755
6	0x3faa890f	1.3323077
7	0x3fdca0d9	1.7236587
8	0xc049fa62	-3.1559072
9	0x3c8f6232	0.017502878
10	0xbf80ea4e	-1.0071504
11	0xbfb385bf	-1.4025191
12	0x3fb33688	1.4001017
13	0x3f9deaa8	1.2337236
14	0x3fa2b698	1.2711973
15	0xbfa1eaae	-1.2649744
16	0x40454de3	3.0828788
17	0x400543b6	2.0822577
18	0xc01bc979	-2.434172
19	0x3f9167c9	1.1359798
20	0x3f897dad	1.0741478
21	0x3f858d8d	1.0433823
22	0xc005df84	-2.0917673
23	0xbfed01fd	-1.8516232
24	0xc0046805	-2.0688488
25	0xc031f3d8	-2.780508
26	0xbf6f2587	-0.9341664
27	0xbf4f5637	-0.8099093
28	0xc016277c	-2.34616
29	0xc007e541	-2.1233675
30	0xbf65a0eb	-0.89698666
31	0x3f88aa8c	1.0677047
32	0xbf438c65	-0.763861
33	0x3f35609e	0.7085055
34	0x3f881168	1.0630312
35	0xc00105ff	-2.015991
36	0x406c11d4	3.6885881
37	0x3facc710	1.3498249
38	0xbf8a6000	-1.0810547
39	0x4026b9ab	2.6050823
40	0x4022219e	2.5333018
41	0xbfcb4410	-1.5880146
42	0xbf9a0955	-1.2034098
43	0x3fa18d8f	1.2621325
44	0xc00d733d	-2.2101586
45	0xbfc63906	-1.5486152
46	0x3f804337	1.0020512
47	0x3f5927d5	0.84826404
48	0x3f5b5926	0.85682905
49	0xbf58a9fa	-0.84634364
