scripts/dof9.pt (torch, 18447 bytes, 7 tensors)

weight f4 [40, 9]
0	0x3e9bccf9	0.3042982
1	0x3d149450	0.036274254
2	0x3d30ef1b	0.04319678
3	0xbeef7589	-0.4676936
4	0xbcb3302c	-0.021873556
5	0xbdbec06b	-0.093140446
6	0xbf966e5f	-1.1752433
7	0xbf609186	-0.8772205
8	0xbed35e60	-0.4128294
9	0xbfc47277	-1.5347432
10	0x3fe5c8c2	1.7951891
11	0x3fb45ca7	1.4090775
12	0xbf505ec1	-0.81394583
13	0x3f82c1bb	1.0215372
14	0x3f1b7f98	0.6074157
15	0xbe475645	-0.19466503
16	0x3e9a76c8	0.30168748
17	0x3db9f0dd	0.09079144
18	0x3cf22bd3	0.029561913
19	0xbfc24d0b	-1.5179762
20	0xbf88cfa4	-1.0688367
21	0xbd8fc23f	-0.070194714
22	0xbe259043	-0.16168313
23	0x3dcb4640	0.099255085
24	0x3f819024	1.0122113
25	0xbd7018b9	-0.058617327
26	0xbd5925e3	-0.053014647
27	0x3fe7efb2	1.8120024
28	0xc022b811	-2.5424845
29	0xbff1ea09	-1.8899547
30	0x3f414c97	0.7550749
31	0xbf9c246d	-1.2198616
32	0xbf105001	-0.56372076
33	0x3e4d18c4	0.20028979
34	0xbe184795	-0.14871056
35	0xbd3127f6	-0.043251
36	0xbd9c2e08	-0.07625967
37	0xbe906ddb	-0.28208813
38	0x3f4a1b1d	0.7894762
39	0xbdec0200	-0.11523819
40	0xbd111099	-0.03541622
41	0xbe2acd20	-0.16679811
42	0x3deb9659	0.11503286
43	0xbf3e4d09	-0.74336296
44	0xbea2b248	-0.31776643
45	0x3d8f6517	0.07001703
46	0x3e40a013	0.18811063
47	0x3ea4a0dd	0.3215398
48	0x3ca848c8	0.020542517
49	0xbfe0a487	-1.755021
50	0xbf4a5e01	-0.7904969
51	0x3d22c794	0.039741114
52	0xbe749641	-0.23885442
53	0xbd942ad5	-0.07234732
54	0x3edb6f83	0.42858514
55	0x3d033fa8	0.03204313
56	0x3e9043e6	0.28176802
57	0x3f9f4a72	1.2444594
58	0xbf116efc	-0.56809974
59	0xbed508b2	-0.41608196
60	0x3f5b117f	0.8557357
61	0xbeba3074	-0.36365092
62	0xbdfa6414	-0.1222612
63	0xbe5e48f5	-0.21707518
64	0xbd848c2a	-0.06472047
65	0xbf2ca7c3	-0.67443484
66	0xbe2f1ed7	-0.17101608
67	0xbf61ee82	-0.8825456
68	0xbfa394b6	-1.2779758
69	0xbd9a1295	-0.075230755
70	0xbe3d5a72	-0.18491533
71	0x3e115e3c	0.14196104
72	0x3e38a1d1	0.18030478
73	0xbebe0899	-0.37115934
74	0xbe98715e	-0.29773992
75	0x3efc97fb	0.49334702
76	0xbd9c4ddc	-0.07632038
77	0x3d5ab63b	0.053396445
78	0xbf77aada	-0.96745074
79	0xbfa73736	-1.3063724
80	0xbefeb19d	-0.49744883
81	0x3d574bf7	0.05256268
82	0x3ed45cbb	0.41476998
83	0x3f061ecc	0.5239074
84	0x3fdd8864	1.7307248
85	0xbfb8fe23	-1.4452556
86	0xbf485fd0	-0.782712
87	0x3e837634	0.2567612
88	0xbeaa030a	-0.33205444
89	0xbde1142f	-0.10990178
90	0xbed2acf3	-0.41147575
91	0x3d6e9578	0.058248013
92	0x3dcc1079	0.099640794
93	0xbeaae5b0	-0.33378363
94	0xbc38aa58	-0.011271082
95	0x3d5b047c	0.053471074
96	0x3f5ee7c2	0.87072384
97	0x3fb691cd	1.4263245
98	0x3f04358f	0.51644224
99	0x3d21c408	0.03949359
100	0x3ea08770	0.3135333
101	0x3f8afa26	1.0857589
102	0xbfe6438f	-1.7989367
103	0xbe1348e4	-0.14383274
104	0x3cb6a199	0.022293853
105	0xbf206bb0	-0.6266432
106	0xbc5374fd	-0.01290631
107	0xbc0ceb66	-0.008601045
108	0xbead54e8	-0.3385384
109	0x3f4aff23	0.7929556
110	0x3ee074e6	0.43839186
111	0x3fa34007	1.2753915
112	0x3fb0418b	1.3770002
113	0x3f4ca60b	0.7994086
114	0x3eb46a13	0.35237178
115	0x3e850483	0.25980005
116	0x3d719887	0.058983352
117	0x3f2056d9	0.6263252
118	0xbe65f424	-0.22456414
119	0xbc7c36b6	-0.0153939035
120	0xbe6b3422	-0.22969106
121	0xbddf59c1	-0.10905791
122	0xbf934f22	-1.1508524
123	0x3e250fb0	0.16119266
124	0xbf24f609	-0.6443792
125	0xbde09c18	-0.109672725
126	0x3e8d2cf4	0.2757336
127	0xbea4ca9d	-0.32185832
128	0xbf2055ba	-0.6263081
129	0xbff4134b	-1.9068388
130	0x3f8910b4	1.0708222
131	0x3ef20c44	0.47274983
132	0xbed69a6a	-0.41914684
133	0x3ddea1f0	0.10870731
134	0x3da96b07	0.08272367
135	0x3f2c7672	0.67368233
136	0xbfa7dd67	-1.3114442
137	0xbf1d228f	-0.6138086
138	0xbed04a18	-0.4068153
139	0x3edfc435	0.43704382
140	0x3f846a21	1.0344888
141	0xbeb66fa0	-0.35632038
142	0x3f90fd45	1.1327292
143	0x3ee2e2a9	0.44313553
144	0x3fd4d9cf	1.662897
145	0x40041eb8	2.064375
146	0x3fb53e80	1.4159698
147	0x3ee058a8	0.4381764
148	0x3f76659e	0.96248806
149	0x3eb593aa	0.3546422
150	0x3d8c0703	0.06837275
151	0x3d3d1f7d	0.046172608
152	0x3d09e4d6	0.0336655
153	0x3ee8664c	0.45390546
154	0x3e647abf	0.22312449
155	0x3e007007	0.12542735
156	0x3e08237a	0.13294783
157	0xbe62c0ce	-0.22143862
158	0x3f8514aa	1.0396931
159	0x3e2ef785	0.17086609
160	0x3efa9376	0.4894063
161	0x3e0dfef0	0.13866782
162	0xbfb0ebf8	-1.3822012
163	0xc00da67a	-2.213286
164	0xbfd08a1c	-1.6292148
165	0xbf35e9f3	-0.71060103
166	0xbf4ec8dd	-0.80775243
167	0xbeb6c5df	-0.3569784
168	0xbe861416	-0.261872
169	0xbdf0cec3	-0.11758187
170	0xbd06cf3d	-0.03291248
171	0xbf409aa3	-0.75235957
172	0xbfacb6e3	-1.3493313
173	0xbf1278d1	-0.572156
174	0x3ecb9c43	0.39767656
175	0x3eefd46e	0.46841758
176	0x3f865ad2	1.0496466
177	0x3da20d1a	0.07912655
178	0x3f83a327	1.0284165
179	0x3eb56541	0.35428813
180	0x3f4515e2	0.76986516
181	0x3e633336	0.22187504
182	0xbde59012	-0.1120912
183	0xbf8f8dd2	-1.1215155
184	0x3f454151	0.7705279
185	0x3f0c85a3	0.54891413
186	0xbd07cfa6	-0.033157013
187	0x3e75e883	0.24014477
188	0x3d43c4c8	0.047795087
189	0xbe82bc22	-0.2553416
190	0x3d960beb	0.07326492
191	0x3da713d2	0.08158077
192	0xbff993a0	-1.9498177
193	0xbfa0699a	-1.2532227
194	0xbf0a3538	-0.53987455
195	0xbc7e8124	-0.015533719
196	0xbe2062ee	-0.15662739
197	0xbc4e7a10	-0.012602344
198	0xbfd96708	-1.6984568
199	0xbe948283	-0.29005823
200	0xbe25f5b7	-0.16207014
201	0xbe9d6064	-0.30737603
202	0xbf5a8a37	-0.8536715
203	0xbf23f7d8	-0.64050055
204	0xbe9620a4	-0.29321778
205	0xbeb91bf6	-0.36154145
206	0xbdd73ab0	-0.105092406
207	0xbf382abc	-0.7194021
208	0xc00b7728	-2.1791477
209	0xbfc74dcb	-1.5570616
210	0xbee3ddef	-0.4450526
211	0xbf975003	-1.1821293
212	0xbf12043a	-0.570377
213	0xbdce6c56	-0.10079257
214	0xbe522efa	-0.20525733
215	0xbc70a03d	-0.014686641
216	0xbe59c0ce	-0.21264955
217	0x3e6f0fd8	0.23345888
218	0x3e8feef8	0.28112006
219	0xbf87d2c1	-1.0611192
220	0xbfce87a3	-1.6135143
221	0xbf4c824f	-0.79886335
222	0x3e0673ba	0.13130084
223	0xbeaecde5	-0.3414146
224	0xbd072bf0	-0.033000886
225	0x3f1e5421	0.6184712
226	0xbe11a5c5	-0.14223392
227	0xbcfb2676	-0.030657988
228	0x3fbe3430	1.4859676
229	0x3fa6472c	1.299047
230	0x3f1f95ab	0.6233775
231	0xbea9c566	-0.33158416
232	0x3e47eef7	0.19524752
233	0xbb573db7	-0.0032843181
234	0xbc006f16	-0.007838985
235	0xc044221e	-3.0645823
236	0xc019ef89	-2.405245
237	0x3cf7f087	0.03026606
238	0xbff66965	-1.9250914
239	0xbf9547c1	-1.1662523
240	0xbcd551dc	-0.02604001
241	0xbf0520a8	-0.52002954
242	0xbdd06e59	-0.10177297
243	0x3c90f444	0.0176946
244	0xbe581b7b	-0.21104233
245	0xc0065cba	-2.0994096
246	0x3e32080f	0.17385887
247	0xbfca7da9	-1.5819598
248	0xbf0f8c9c	-0.5607393
249	0x3d4202e6	0.047366045
250	0xbe3e0977	-0.18558298
251	0xbd5ac207	-0.053407695
252	0xbe7b7513	-0.24556379
253	0xbe7d2b1b	-0.24723475
254	0x3d917ea0	0.0710423
255	0xbe4ea5b9	-0.20180406

bias f4 [40]
0	0x3d8b7b62	0.06810643
1	0xbc4e2046	-0.012580937
2	0xbee9deff	-0.45677945
3	0x3f0568c9	0.52113014
4	0xbe16083e	-0.14651582
5	0x3ca97471	0.020685406
6	0xbe83e57e	-0.25761026
7	0xbdedec79	-0.11617369
8	0xbfa184c3	-1.2618641
9	0xc027827b	-2.617339
10	0xbfb2485e	-1.3928335
11	0xbfeb3c42	-1.8377764
12	0xbf33eb9e	-0.702814
13	0xbda48575	-0.080332674
14	0xc0139134	-2.3057375
15	0xbf2cabf5	-0.67449886
16	0xbed3b496	-0.41348714
17	0xbe2ca524	-0.16859871
18	0xbda4a8f9	-0.080400415
19	0xbeab4e14	-0.33458006
20	0xbdc9492a	-0.09828408
21	0xbf67e86b	-0.90589017
22	0x3ed0caf3	0.40779838
23	0x3fc1ddbc	1.5145793
24	0xc0206955	-2.506429
25	0xbf9cc51c	-1.2247653
26	0xc01e3217	-2.4718072
27	0xbfc6a095	-1.5517756
28	0x3fa1ec4f	1.2650241
29	0xbe3d9bf7	-0.18516527
30	0xbf97172d	-1.1803948
31	0xbef57720	-0.47942448
32	0x3f54d288	0.83133745
33	0xbe881fd5	-0.26586786
34	0xbeb35b98	-0.35030818
35	0xbfd0e7a7	-1.6320695
36	0x3f51cc9c	0.81952834
37	0x3e22b2b6	0.15888485
38	0xbfd38b66	-1.6526916
39	0xbfd53e0a	-1.6659558

weight f4 [40, 40]
0	0xbedf9bfd	-0.43673697
1	0x3e5e5e95	0.21715768
2	0xbf6e3399	-0.9304748
3	0xbf049ac4	-0.51798654
4	0x3d9cf71b	0.07664319
5	0xbd59c608	-0.053167373
6	0xbf194a84	-0.59879327
7	0xbe9a7698	-0.30168605
8	0xbea45746	-0.32097834
9	0xbc30bb15	-0.010786791
10	0xbef8a507	-0.48563406
11	0xbcef9511	-0.029245885
12	0xbdb14f7f	-0.08657741
13	0xbecf7904	-0.40522015
14	0x3e469648	0.19393265
15	0xbeae25d1	-0.34013227
16	0xbe9165cb	-0.28397974
17	0xbe3916a2	-0.1807504
18	0xbe8f8b94	-0.28036177
19	0xbf287a13	-0.6581127
20	0xbde4583f	-0.11149644
21	0xbd8ed361	-0.06973911
22	0x3ec433ae	0.38320678
23	0xbf34ade8	-0.7057786
24	0x3d14843e	0.03625893
25	0x3e5b89dc	0.21439308
26	0x3d85e0fe	0.065370545
27	0xbe96c4e4	-0.2944709
28	0x3eced9e8	0.40400624
29	0xbe868fde	-0.26281637
30	0x3ea09fa8	0.31371808
31	0xbe5147cd	-0.20437546
32	0xbe80da03	-0.2516633
33	0x3e618a6f	0.22025464
34	0x3ddbdabc	0.1073508
35	0x3e55c310	0.20875192
36	0x3d1e868c	0.038702533
37	0xbf3366ed	-0.7007893
38	0xbee88764	-0.45415795
39	0x3d087477	0.033314195
40	0x3f495105	0.7863925
41	0xbe3ed52f	-0.1863601
42	0x3e622f42	0.2208834
43	0xbf29a598	-0.662683
44	0xbf7765d4	-0.9663975
45	0xbf1f4c1c	-0.6222551
46	0x3f70c31c	0.94047713
47	0x3cc8c1e1	0.024506511
48	0xbf9fb199	-1.2476074
49	0xbe28fb7b	-0.16502182
50	0xbf0966e4	-0.53672624
51	0x3ebb0d7c	0.36533725
52	0x3ecd28d9	0.40070227
53	0x3ec6a6e5	0.38799205
54	0xbe8c19a8	-0.27363324
55	0x3e893426	0.267976
56	0xbe95befc	-0.29247272
57	0x3eaa8368	0.3330338
58	0x3ee7d9b2	0.45283276
59	0x3f03e57d	0.51522046
60	0xbcdd3f20	-0.02700764
61	0x3ebd2c93	0.3694807
62	0xbd80fc9c	-0.062981814
63	0xbf2de691	-0.6792994
64	0xbe67dff4	-0.22644025
65	0xbe70abe2	-0.23503068
66	0xbe0d900d	-0.13824482
67	0x3e75a296	0.23987803
68	0xbe29f0da	-0.16595784
69	0xbe50c101	-0.20386125
70	0x3c7c3f84	0.015396003
71	0xbe898897	-0.26862022
72	0xbeb197d0	-0.34686136
73	0x3f08b340	0.53398514
74	0x3e398f4c	0.1812107
75	0x3f78a109	0.9712072
76	0x3e14f97e	0.14548299
77	0x3e9b0384	0.3027612
78	0x3dba1fba	0.090880826
79	0xbb3af263	-0.0028525821
80	0x3edf5505	0.43619552
81	0x3da34335	0.07971803
82	0x3d9301f8	0.0717811
83	0x3e8230b1	0.25427774
84	0xbec69699	-0.38786772
85	0xbe201f10	-0.1563685
86	0x3ef4b0ef	0.4779124
87	0x3e8a0f8b	0.26964983
88	0xbedd95b8	-0.4327829
89	0xbeabbe8b	-0.3354381
90	0xbecfc8cb	-0.4058288
91	0x3e8b604a	0.272219
92	0x3ebb3018	0.3656013
93	0x3e0b9ae7	0.1363331
94	0x3e44c599	0.19216003
95	0xbdef4565	-0.11683158
96	0x3d57dca1	0.052700642
97	0x3e65cde9	0.2244183
98	0x3e74c1d5	0.23902066
99	0x3ea6081b	0.3242806
100	0x3d4fcc3d	0.050731886
101	0x3e8ecc6f	0.27890345
102	0x3e9bb048	0.3040793
103	0xbdbc1b6f	-0.0918492
104	0xbee8c46e	-0.45462364
105	0xbf137c4f	-0.57611555
106	0xbe0f5014	-0.13995391
107	0x3e8d9f4a	0.2766059
108	0xbf11caf6	-0.5695032
109	0xbde57e11	-0.11205686
110	0xbd3d953d	-0.046284903
111	0x3e509777	0.20370279
112	0xbda481eb	-0.080325924
113	0xbf50b6fc	-0.8152921
114	0x3e8f1dcf	0.2795243
115	0x3f186161	0.5952359
116	0x3e584a7e	0.21122167
117	0xbe5a010d	-0.21289463
118	0x3e5a6ac1	0.21329786
119	0x3e15ec95	0.1464103
120	0xbebd1ee9	-0.36937645
121	0x3f91f136	1.1401737
122	0x3cbd9bd0	0.023145586
123	0xbdf96b84	-0.1217871
124	0x3e5cc53e	0.21559617
125	0xbf6d6d31	-0.9274474
126	0xbea3e4f3	-0.32010612
127	0xbee00443	-0.4375325
128	0xbf2f763a	-0.68539774
129	0x3fc19841	1.5124589
130	0x3ee9cfd8	0.45666385
131	0xbe635e37	-0.22203909
132	0xbe9b3e12	-0.30320793
133	0xbf47d977	-0.780662
134	0xbeff1a13	-0.4982458
135	0xbf07801d	-0.5292986
136	0x3d1281e3	0.0357684
137	0xbdf6344c	-0.120216936
138	0x3daac5e0	0.08338523
139	0xbeb11d62	-0.3459273
140	0x3e6dc11e	0.232182
141	0xbdf3d54d	-0.11905918
142	0x3f880c40	1.0628738
143	0x3f337c33	0.7011139
144	0xbf80bc18	-1.0057402
145	0x3e86775e	0.26262945
146	0xbf2db4b2	-0.67853844
147	0xbed39b9b	-0.41329655
148	0xbdc9d44b	-0.09854945
149	0xbf15adfc	-0.58468604
150	0x3f26fdf0	0.6523123
151	0xbf2301f7	-0.63674873
152	0xbf303247	-0.6882672
153	0xbd21b5b8	-0.03947994
154	0x3f4039a2	0.7508794
155	0xbde4d591	-0.11173547
156	0xbff78660	-1.9337883
157	0xbf2d3424	-0.67657685
158	0x3ecd8437	0.40139934
159	0xbf1a5a31	-0.6029387
160	0xbeb041c9	-0.3442519
161	0xbf727b19	-0.9471908
162	0xbe479f9a	-0.19494477
163	0x3ec660f3	0.3874584
164	0x3e0a3395	0.1349624
165	0xbe07701b	-0.13226359
166	0x3e1b0481	0.15138437
167	0xbeb0e0ae	-0.34546417
168	0x3e75d566	0.24007186
169	0xbebf9ccc	-0.37424314
170	0xbf43d395	-0.76494724
171	0x3ea47c5c	0.3212613
172	0xbe7fdca8	-0.24986517
173	0x3d86538b	0.06558903
174	0xbec0492e	-0.37555832
175	0xbebc3a0a	-0.3676303
176	0xbd4bf9bc	-0.049798712
177	0xbe194cf3	-0.1497076
178	0x3cbbb13e	0.022911664
179	0xbed86e7f	-0.42271802
180	0xbe0a13c4	-0.13484102
181	0x3e441335	0.19147952
182	0xb99e150b	-0.00030151787
183	0x3ea9346b	0.33047804
184	0x3e6c61f2	0.23084238
185	0x3db41c9e	0.08794521
186	0xbf97f5bc	-1.1871867
187	0x3cf0d008	0.029396072
188	0xbeffb245	-0.49940696
189	0xbeadc43f	-0.33938786
190	0x3dd50a7a	0.10402389
191	0xbdc769e3	-0.09736993
192	0x3dba298a	0.09089954
193	0x3e7e0432	0.24806288
194	0x3d0d8ecf	0.03456002
195	0xbe3a1653	-0.18172579
196	0x3eb4cbdc	0.35311782
197	0xbdd8a8c7	-0.10579067
198	0xbe66e986	-0.2255002
199	0xbe5ebe60	-0.2175231
200	0xbf2ca82d	-0.67444116
201	0xbeea57e2	-0.45770174
202	0x3e6d31ba	0.231635
203	0x3f802fa1	1.0014535
204	0x3e950675	0.2910649
205	0xbf224b3a	-0.63396037
206	0x3e8e9bb7	0.27853176
207	0xbf03760e	-0.5135201
208	0x3f0a0e93	0.5392849
209	0xbf8d055d	-1.1017262
210	0xbf324282	-0.6963273
211	0xbf5237e2	-0.8211652
212	0xbe90cc9a	-0.282811
213	0xbed25b81	-0.41085437
214	0x3f74fea7	0.9570107
215	0x3e745a84	0.23862654
216	0x3e2920c0	0.165164
217	0xbe986e59	-0.2977169
218	0xbf487c59	-0.7831474
219	0xbe651924	-0.22372872
220	0x3e0d7640	0.1381464
221	0xbf71214c	-0.9419143
222	0xbfe11060	-1.7583122
223	0xbf4e8cfa	-0.80683863
224	0xbe9b72ae	-0.3036093
225	0xbeea26b4	-0.45732653
226	0xbf5f807c	-0.87305427
227	0xbe05bbf0	-0.13059974
228	0xbecc8a82	-0.39949423
229	0xbf36c3d9	-0.7139259
230	0xbde82c98	-0.113366306
231	0xbf9678bf	-1.1755599
232	0x3f4601d2	0.7734653
233	0x3ea0956a	0.31363994
234	0x3dffd336	0.12491457
235	0xbed455db	-0.41471753
236	0x3f4a81b0	0.7910414
237	0x3d9e770b	0.077375494
238	0xbf89df1c	-1.0771213
239	0xbe809c8a	-0.2511943
240	0xbe9448c4	-0.28961766
241	0x3f29f620	0.6639118
242	0xbea88c6f	-0.32919642
243	0x3e4a9975	0.19785102
244	0x3e1cda7f	0.15317725
245	0x3dfcf4ca	0.12351377
246	0xbe74ca50	-0.23905301
247	0xbe92bb77	-0.2865865
248	0x3e089cbf	0.13341044
249	0xbe8241da	-0.25440866
250	0x3e3dbb1a	0.18528405
251	0xbf257de0	-0.64645195
252	0xbd58d235	-0.052934844
253	0xbe69e8fe	-0.22842786
254	0x3e273234	0.16327745
255	0xbe626c5d	-0.2211165

bias f4 [40]
0	0x3f4e7879	0.80652577
1	0xc00580ea	-2.0859933
2	0xc0153532	-2.3313718
3	0xbf20d5d4	-0.62826276
4	0x3e17ed5a	0.14836636
5	0xbf93e901	-1.1555482
6	0x3f87682e	1.0578668
7	0x3fd8d034	1.6938539
8	0x3d36f429	0.044666443
9	0xbf929a5a	-1.1453354
10	0xbee4f353	-0.44716892
11	0xbfb49212	-1.4107077
12	0xbfcc7c76	-1.5975482
13	0xc01a70f5	-2.4131444
14	0xbfd66e85	-1.6752478
15	0x3fbd98cc	1.4812255
16	0x3fe06a1d	1.7532383
17	0x3f90740c	1.1285415
18	0xbe8f8b36	-0.28035897
19	0xbd623587	-0.05522683
20	0x3e7b7515	0.24556382
21	0xbdfc6eaa	-0.12325795
22	0xc009226e	-2.1427264
23	0x3bc39ccf	0.005969621
24	0xbf0d15e1	-0.5511151
25	0x3fa94595	1.322436
26	0xbf9f7852	-1.2458594
27	0xc00c4657	-2.1917932
28	0xbf20d228	-0.62820673
29	0x3f0dc928	0.55385065
30	0xc0b65f4d	-5.6991334
31	0xbeb6b119	-0.3568199
32	0xbf6f3555	-0.93440753
33	0xc01b0ba8	-2.4225864
34	0xbf320aea	-0.69547904
35	0x3fbfec93	1.4994072
36	0xbe3bad5a	-0.18327847
37	0xbfcb31d3	-1.587458
38	0xbf009ff8	-0.5024409
39	0x3f9d3979	1.2283164

weight f4 [40, 40]
0	0x3e284ed1	0.16436316
1	0xbdb98c79	-0.09059996
2	0xbe5fb51d	-0.21846433
3	0xbda4c620	-0.08045602
4	0xbe48f7c7	-0.1962577
5	0xbe133eec	-0.14379472
6	0x3dbf1a8c	0.09331235
7	0x3de1835c	0.11011383
8	0xbd71c94b	-0.05902986
9	0xbe69ccaf	-0.22831987
10	0xbe679158	-0.22614038
11	0x3e024d88	0.12724888
12	0xbd097773	-0.03356118
13	0xbc18c9b0	-0.00932543
14	0x3c08bcae	0.008345766
15	0x3c3db0e7	0.011577821
16	0xbda2cc50	-0.07949126
17	0xbe74fd3d	-0.23924728
18	0x3db30a7b	0.08742233
19	0xbdb4de59	-0.08831472
20	0xbdc8ab1f	-0.09798264
21	0x3d0c46e1	0.034247283
22	0xbda544b0	-0.08069742
23	0x3deee1cd	0.11664162
24	0x3e916668	0.28398442
25	0xbc2d8fa3	-0.010593328
26	0xbe15aa86	-0.14615831
27	0x3cb1631d	0.021653706
28	0x3c707f43	0.014678779
29	0xbd63ee0b	-0.055646937
30	0xbe83b437	-0.2572343
31	0xbda5bd8d	-0.080927946
32	0xbc833b66	-0.016019534
33	0xbe04b5c4	-0.12959963
34	0xbe38837e	-0.1801891
35	0xbda309f8	-0.07960886
36	0xbd2bdedf	-0.041960593
37	0xbe0c42a2	-0.13697293
38	0xbe0966ce	-0.13418123
39	0xbe6f4c60	-0.23368979
40	0xbe234c5b	-0.15947096
41	0xbebf97a1	-0.3742037
42	0x39ba5bb2	0.00035545003
43	0x3c18f48f	0.009335651
44	0xbd1dcf6c	-0.03852789
45	0x3d911c5d	0.07085488
46	0xbd91e688	-0.071240485
47	0xbd97a48f	-0.07404434
48	0xbc03fdcd	-0.008056116
49	0xbdd39d58	-0.10332745
50	0xbbd515f4	-0.006502861
51	0x3d890ebe	0.06692265
52	0x3e06cdcf	0.13164447
53	0x3da3278f	0.079665296
54	0xbda6db7d	-0.08147333
55	0x3c17695d	0.009241429
56	0x3e361e00	0.17784882
57	0x3d0c681e	0.03427898
58	0xbca63096	-0.02028684
59	0x3d156be2	0.03647984
60	0xbc7dc5e2	-0.0154890735
61	0x3d7cca02	0.061716087
62	0xbd00a525	-0.031407494
63	0xbe0806ee	-0.13283893
64	0xbdf3596f	-0.118822925
65	0xbcbd1b74	-0.02308438
66	0xbf493c17	-0.78607315
67	0xbdf6db25	-0.12053517
68	0xbd218735	-0.039435584
69	0xbd13f301	-0.03612042
70	0xbd9f55bf	-0.07780027
71	0xbd3487a4	-0.04407467
72	0xbdd9cf1b	-0.10635205
73	0xbedb45a8	-0.4282658
74	0xbcee18af	-0.029064504
75	0xbe0a5acc	-0.13511199
76	0x3e003c68	0.12523043
77	0xbdddf53e	-0.10837792
78	0x3d968eca	0.073514536
79	0x3d715e07	0.058927562
80	0x3db1f1b0	0.08688676
81	0xbe527ced	-0.20555468
82	0xbe02365c	-0.12716049
83	0xbdebf8b6	-0.11522047
84	0x3eca5be7	0.3952324
85	0xbec893e1	-0.39175323
86	0x3eac0105	0.33594528
87	0x3df4c013	0.11950698
88	0x3cc08c03	0.023504263
89	0x3b83b4c7	0.004019353
90	0xbe3c7c88	-0.1840688
91	0x3c426e9c	0.011867192
92	0xbec3163b	-0.38102898
93	0x3dcb1271	0.09915627
94	0xbdc76aed	-0.09737191
95	0xbd4d600b	-0.05014042
96	0xbe492ee0	-0.19646788
97	0xbe7ef357	-0.24897514
98	0x3dd7f984	0.10545638
99	0xbe310a68	-0.17289126
100	0x3d743ee2	0.059630282
101	0x3defdc61	0.11711956
102	0x3d944ab8	0.07240814
103	0xbd4237b2	-0.047416396
104	0xbe1f5f49	-0.15563692
105	0xbd646bca	-0.05576686
106	0x3d9bf513	0.076151036
107	0x3c5557df	0.013021438
108	0xbdddc9c3	-0.108294986
109	0x3e435628	0.19075835
110	0x3cbe76d9	0.02325003
111	0x3da44614	0.08021179
112	0xbe53c24b	-0.20679586
113	0x3c8ae32f	0.016954033
114	0xbe781805	-0.24227913
115	0xbd636071	-0.055511896
116	0x3cf340da	0.02969401
117	0xbce3d0ef	-0.027809588
118	0xbf783169	-0.96950394
119	0xbeb950f4	-0.36194575
120	0x3d6aeca8	0.0573546
121	0xbd632360	-0.055453658
122	0xbe5245d6	-0.20534453
123	0x3cf243b0	0.029573292
124	0xbd528d2a	-0.051404156
125	0xbd5fa97c	-0.054604992
126	0x3d0d2c48	0.034466058
127	0xbcf1b251	-0.029503973
128	0xbe29bf5b	-0.16576903
129	0xbe3d407b	-0.18481629
130	0xbd75724a	-0.059923448
131	0x3e0ba0e9	0.13635601
132	0x3e4670b5	0.19378932
133	0xbe0bdbd2	-0.13658074
134	0xbe7f9aa5	-0.24961336
135	0xbe9208d2	-0.28522354
136	0xbe03396a	-0.1281487
137	0x3d6cf095	0.057846624
138	0x3d1290d9	0.03578267
139	0xbe28e480	-0.16493416
140	0xbe1b4de6	-0.15166435
141	0x3d899d6d	0.0671948
142	0xbdf1f3ce	-0.1181408
143	0x3e6cb03e	0.23114106
144	0xbcf5259a	-0.029925156
145	0xbda2b004	-0.079437286
146	0xbdd0eeb1	-0.10201777
147	0xbe90eb90	-0.2830472
148	0xbe6804c5	-0.2265807
149	0xbc954103	-0.018219477
150	0x3def6bea	0.11690505
151	0xbcc2562c	-0.02372273
152	0xbd82ed58	-0.06392926
153	0xbda7adfc	-0.08187482
154	0x3db516e4	0.08842257
155	0xbe5e67c0	-0.21719265
156	0xbe101a5d	-0.14072557
157	0xbd9b3bfd	-0.07579801
158	0x3d42fdd3	0.047605347
159	0xbe9b7902	-0.3036576
160	0x3efc58d5	0.49286523
161	0xbe02caea	-0.12772718
162	0x3be863ae	0.007091961
163	0xbecefc99	-0.40427092
164	0xbd9297e8	-0.0715788
165	0xbe422dbe	-0.18962762
166	0xbb780868	-0.0037846807
167	0x3bf082fe	0.0073398342
168	0xbde59463	-0.11209943
169	0xbd5d89d7	-0.054086532
170	0xbd7158e5	-0.058922667
171	0xbcb76ada	-0.022389818
172	0xbe95030c	-0.29103887
173	0x3e49c5ca	0.19704357
174	0x3c2c1e47	0.010505266
175	0xbc959e8b	-0.018264076
176	0xbebc14c5	-0.36734596
177	0x3daeef4b	0.08541735
178	0x3cf4dcd1	0.02989045
179	0xbc6d78e2	-0.014494153
180	0xbca53cce	-0.020170595
181	0xbe2259cb	-0.15854566
182	0xbd5e2f80	-0.05424452
183	0x3df9e107	0.12201124
184	0xbd11a303	-0.03555585
185	0xbe43df65	-0.19128187
186	0x3eb10cf9	0.3458021
187	0xbe8507ea	-0.259826
188	0xbed9a467	-0.42508242
189	0x3e92c135	0.2866303
190	0xbe6e7520	-0.23286867
191	0xbd8abb42	-0.06773998
192	0xbe68c38c	-0.22730845
193	0xbc6b0ec2	-0.01434678
194	0x3dde0e0f	0.10842525
195	0xbd9e4842	-0.07728626
196	0xbda1cd05	-0.079004325
197	0x3c82c4c7	0.015962971
198	0xbe968eb7	-0.29405758
199	0xbec8c692	-0.39213997
200	0x3db50400	0.088386536
201	0x3f0e9f36	0.55711687
202	0xbd02214f	-0.031770047
203	0x3e11cea3	0.14238982
204	0x3e389e79	0.18029203
205	0x3e3301da	0.17481175
206	0xbdf7b6a4	-0.12095383
207	0xbf150228	-0.58206415
208	0xc0014857	-2.0200403
209	0xbede66e6	-0.4343788
210	0x3df3000b	0.118652426
211	0x3be48c5d	0.0069747404
212	0x3eb435cf	0.35197303
213	0xbeaa0958	-0.33210254
214	0xbcfe38bf	-0.031032918
215	0xbf251874	-0.6449044
216	0xbeb668fd	-0.35626975
217	0x3da3b497	0.07993429
218	0xbc701cf8	-0.014655344
219	0xbd8856ad	-0.06657157
220	0xbed89405	-0.4230043
221	0x3e39af70	0.1813333
222	0xbddcf800	-0.1078949
223	0xbef0fb4e	-0.4706673
224	0x3f348bbc	0.7052572
225	0xbeebf13a	-0.4608248
226	0x3c2cdbfe	0.010550497
227	0x3ebc9751	0.36834195
228	0x3e153442	0.14570716
229	0xbe0079fc	-0.12546533
230	0x3efa7bf1	0.48922685
231	0xbe0fd757	-0.1404699
232	0x3d0bd9a6	0.034143113
233	0xbee09cf4	-0.43869746
234	0x3ca7d1d9	0.020485805
235	0xbe71afbf	-0.23602198
236	0xbed90336	-0.42385262
237	0xbe2862cd	-0.1644394
238	0x3d8193f8	0.06327051
239	0xbe95665d	-0.2917966
240	0xbe7e61f9	-0.24842061
241	0xbcce4d38	-0.025183305
242	0x3e3f5088	0.18683064
243	0xbcce424f	-0.025178103
244	0x3f069912	0.52577317
245	0xbdceba19	-0.10094089
246	0x3e6ff2ca	0.2343246
247	0xbeb6d7be	-0.35711473
248	0x3e042185	0.12903412
249	0x3fbee3fa	1.4913323
250	0xbed8f152	-0.42371613
251	0x3dc7a2a1	0.09747816
252	0xbea89e1e	-0.32933134
253	0xbe61faf4	-0.22068387
254	0x3c0d5332	0.008625792
255	0x3cb0491a	0.021519233

bias f4 [40]
0	0x3d07bd96	0.033139788
1	0x3d354a85	0.04426052
2	0xbca158bc	-0.019695632
3	0xbe1b2be8	-0.15153468
4	0xbce02745	-0.027362475
5	0xbf15f2b1	-0.5857344
6	0xbf762830	-0.9615507
7	0xbe8a3a52	-0.2699762
8	0x3e997346	0.2997076
9	0xbe9ce330	-0.3064208
10	0xbdf5a8ac	-0.11995062
11	0xbfbc41b0	-1.4707546
12	0x3e85d995	0.26142564
13	0xbd3ade2e	-0.045622043
14	0x3d91c193	0.071169995
15	0xbe84031e	-0.25783628
16	0x3e87be2f	0.26512286
17	0xbddb98f7	-0.10722535
18	0xbf6e2215	-0.93020755
19	0xbe91c970	-0.28473997
20	0xbfd5fc2a	-1.6717579
21	0xbe248267	-0.1606537
22	0xbe8238a6	-0.25433844
23	0xbe439406	-0.19099435
24	0xbe3c1b66	-0.18369827
25	0xbe7882c2	-0.2426863
26	0xbdead6e8	-0.11466771
27	0xbe2fd4bb	-0.17170994
28	0xbf4bf6cb	-0.7967345
29	0x3e01a093	0.1265891
30	0xbe96d5a0	-0.29459858
31	0x3f22f8f7	0.6366114
32	0xbf2b1e78	-0.66843367
33	0xbf3e9348	-0.74443483
34	0xbe2ab61e	-0.16671035
35	0xbe31811a	-0.17334405
36	0xbdded7e7	-0.10881024
37	0x3f2d749c	0.67756057
38	0xbea4df82	-0.32201773
39	0xbfb96dbd	-1.4486614

weight f4 [1, 40]
0	0xbad82071	-0.001648916
1	0x399e964c	0.00030248088
2	0x399f9363	0.00030436655
3	0x3e071417	0.13191257
4	0xbb87d255	-0.0041449466
5	0x3e8b9a10	0.27265978
6	0x3f008a16	0.502107
7	0xbed9f5f7	-0.4257047
8	0x3f03e8d9	0.5152717
9	0x3a4124ce	0.000736785
10	0xbab605c5	-0.0013887218
11	0xbea755e8	-0.3268273
12	0xba38a955	-0.00070442754
13	0x3b052d3a	0.0020321147
14	0x3d66dc7c	0.056362614
15	0x3a3aff70	0.00071334
16	0x3ec77db0	0.3896308
17	0xbad10c13	-0.0015949033
18	0xbf05c7ce	-0.52258
19	0x38804c57	6.117735e-05
20	0xbf103c91	-0.56342417
21	0x3eb6edb5	0.3572823
22	0x3bb4e3d4	0.0055203233
23	0xbe0d47a0	-0.13796854
24	0x3e43cc08	0.191208
25	0xb9fb59f5	-0.00047941474
26	0x3ccc900d	0.024971033
27	0xba0bac9f	-0.0005328152
28	0x3ea7c83b	0.3276995
29	0xbad8e84f	-0.0016548726
30	0x3f0b2ba8	0.5436349
31	0x3f912774	1.1340165
32	0xbf3d266c	-0.7388675
33	0x3f9b5a5a	1.2136948
34	0xbc3a840c	-0.0113840215
35	0xbe4e53e9	-0.20149197
36	0x3c00d68c	0.007863652
37	0x3b7e94d9	0.0038846044
38	0x3de5ff68	0.112303555
39	0x3f6a00df	0.9140758
