scripts/dof9pos_2_layer_rel_loss.pt (torch, 111447 bytes, 5 tensors)

weight f4 [500, 3]
000000 ff 59 06 3f ee 62 12 bf 13 0e d2 be dc 1b fa 3e
       0.52481073 -0.57182205 -0.41026363 0.4884938
000010 de 6a d2 be 69 60 22 be 99 54 04 bd 62 f1 0e 3f
       -0.41097158 -0.1585709 -0.03230724 0.5583707
000020 a7 ff 20 3c 49 d2 12 bf f6 52 59 bd c8 4f 5a be
       0.009826577 -0.5735212 -0.053057633 -0.21319497
000030 64 42 f1 be b4 3a 1e 3e d3 b3 b4 3d 73 cc 34 3e
       -0.47120965 0.15452081 0.08823361 0.17656116
000040 96 b4 82 be 59 90 48 be a9 56 88 be 05 fa c5 be
       -0.255284 -0.19586314 -0.26628616 -0.38667312
000050 52 d1 71 be 25 f1 ed bd db 85 bf be 8e f3 93 be
       -0.23615006 -0.1161826 -0.3740681 -0.28896755
000060 11 a9 02 bd 62 0b 97 be 7f f7 8e 3d a0 89 29 be
       -0.031899516 -0.29500872 0.069808 -0.16556406
000070 d1 81 ed 3d cd a2 35 3e 3c 8a 07 bf 77 b5 b7 3e
       0.11597026 0.17737885 -0.52945304 0.35880634
000080 2f a3 ca be 98 e3 ea 3b 6f 7c 82 be f9 43 29 3e
       -0.39577624 0.0071682446 -0.2548556 0.16529836
000090 2d a5 a0 3b 1c 90 81 3d 2f 04 00 bf 41 06 f5 3e
       0.004902503 0.06326315 -0.50006384 0.47856334
0000a0 4d 83 83 3e 26 e8 09 3e ac d8 6d be d0 ef 32 be
       0.25686112 0.13467464 -0.23227185 -0.17474294
0000b0 1c 37 68 be 84 ef ed be 07 79 b1 be 8b 6f 80 be
       -0.22677273 -0.46471798 -0.3466265 -0.250851
0000c0 b4 06 fb be 15 b6 f4 be b4 7d a3 be 5d 64 52 3e
       -0.49028552 -0.47795168 -0.3193184 0.20546098
0000d0 99 3b d3 3e 73 3a d0 3d 31 f2 0b 3f 3e 0c a3 3e
       0.41256407 0.10167398 0.5466643 0.31845278
0000e0 c2 af 26 3e f5 e4 97 be 29 fc b0 3e b4 c2 0c be
       0.16277984 -0.29666868 0.34567383 -0.13746148
0000f0 d9 32 90 3d a5 0a 20 3d 0a ad 52 3e 14 87 d5 3c
       0.070409484 0.03907265 0.20573822 0.026065387
000100 d0 d7 95 3e d4 ec 70 bd 61 33 46 bd 64 a2 9a bd
       0.29266214 -0.058819607 -0.048388842 -0.07550505
000110 f8 ba c9 3e 5e d1 0a bf ac 96 ea be 91 93 eb 3e
       0.39400458 -0.5422572 -0.4581808 0.46011022
000120 e3 e4 9a 3e bb b7 05 3f 83 57 e8 be 52 2e 3f 3e
       0.30252752 0.52233475 -0.45379266 0.18670014
000130 da bb 92 3e f8 02 fa bd b9 b3 f2 be c3 84 24 be
       0.28658944 -0.122075975 -0.47402743 -0.1606627
000140 53 f9 6d 3e bf 04 aa be 2c 22 3e 3e ee a8 a0 3c
       0.23239641 -0.33206746 0.18567723 0.019611802
000150 82 62 be 3e 86 25 ce be c7 7f 02 3f 32 ff 7a be
       0.3718453 -0.40263003 0.5097622 -0.24511412
000160 ae 16 9d be 9e 80 1c be 47 e0 c6 bd 61 a8 c3 3b
       -0.30681366 -0.15283439 -0.09710746 0.005971
000170 c9 e9 c9 3e 25 e0 c7 3e cf f0 e0 3e 10 ae a5 3e
       0.39436176 0.39038196 0.43933722 0.32359362
000180 c9 85 4a 3e a1 82 d1 3d 71 4d 4a bb e4 98 0c be
       0.19777597 0.102299936 -0.0030868913 -0.13730198
000190 4c 19 31 3d 7d e6 fd be d5 6b d8 3d 60 21 39 be
       0.043237016 -0.4958991 0.10567442 -0.18079138
0001a0 20 31 43 3e da 9e 0d be d9 f4 98 3d d4 7a 49 be
       0.19061708 -0.13830128 0.07468576 -0.19675761
0001b0 c2 fb 9e bd 57 04 e4 be df 94 cd be de a3 8c 3d
       -0.07762863 -0.4453456 -0.40152642 0.06867193
0001c0 5b e6 08 3f 2f 4f c4 3e 3a 30 fb 3e 3a b4 94 be
       0.53476495 0.38341662 0.4906023 -0.29043752
0001d0 5a a1 68 3d 6b c1 b3 be 6b 03 a5 3e 0a 73 b3 3e
       0.0567945 -0.35108504 0.3222917 0.35048705
0001e0 54 2b bb be da 6f 71 be 86 7b 7d be 09 05 7f 3e
       -0.36556494 -0.23577824 -0.24754152 0.24904265
0001f0 3c 28 82 be 98 f9 10 3e ed b5 0c bf 3d 0d a6 be
       -0.2542132 0.14157712 -0.54965097 -0.32431975
000200 9c 57 da be c3 86 db be aa b9 1f bd e6 c3 38 3e
       -0.42644966 -0.42876253 -0.038995422 0.1804348
000210 38 42 a7 bd 86 e7 81 bd 19 5a d8 3e 0b 9b d8 3e
       -0.08166927 -0.06342988 0.4225624 0.42305788
000220 e6 f1 92 bd fa ad ed 3e 44 6e bd 3d dd be 1a be
       -0.07175045 0.46421796 0.09249547 -0.15111871
000230 f5 b9 05 3f 36 44 4a bd 29 1b f6 be 5c e2 bd be
       0.5223687 -0.049381457 -0.48067597 -0.3708676
000240 1f 05 e4 3e e4 20 8e be 86 42 f5 be e1 b6 88 be
       0.44535157 -0.2775947 -0.47902316 -0.26702026
000250 e6 cf b0 3d 14 a2 0d bf 96 e2 9e 3e 98 b2 a9 bd
       0.086334035 -0.55325437 0.31032246 -0.08286017
000260 9c 34 59 3e 95 89 f9 3e d1 66 a6 be 78 6c 4c 3e
       0.21211475 0.4873778 -0.32500318 0.19963253
000270 b0 02 fb 3e 22 76 a6 be d6 f5 6f 3e ea ff b3 3e
       0.49025488 -0.32512003 0.23433623 0.35156184
000280 0c 8c f9 3e 05 05 f2 be dc 22 e4 bd e7 4d f0 be
       0.4873966 -0.47269455 -0.111394614 -0.46934435
000290 16 e0 07 bf 76 6d 46 bd f5 ef ef 3d c7 0d 71 be
       -0.53076303 -0.048444234 0.1171569 -0.23540412
0002a0 ec d8 dd 3e 97 f1 a4 be f1 20 dd be 48 19 96 3e
       0.4332956 -0.32215568 -0.43189195 0.29316163
0002b0 9a 35 7e 3e 43 57 ea bb 74 e8 f6 3d 96 19 13 bf
       0.24825135 -0.0071515157 0.12056056 -0.57460916
0002c0 19 99 8d bd fd 6b a7 3e 61 76 19 be 01 2b 02 3e
       -0.06913967 0.32699576 -0.14986564 0.12711717
0002d0 ad 2f 42 be ad 1e 3f be 22 48 d1 3e 97 74 eb 3e
       -0.189635 -0.18664046 0.40875345 0.45987388
0002e0 0b 49 dd bd 76 bc e3 be 95 b9 4b 3d 5b aa b2 bc
       -0.108049475 -0.44479722 0.04973753 -0.021809747
0002f0 f3 c6 d6 3c ec 3a 84 3e 3f fb ff 3b 77 a6 81 3e
       0.026217913 0.25826204 0.0078119333 0.25322315
000300 ff 85 87 be 4f a4 16 be 1c 3c 6a bd b7 0d ed be
       -0.26469418 -0.14711116 -0.05718623 -0.46299526
000310 c6 f9 da be 79 b7 e6 bd f8 d8 de bd 53 cf a2 3d
       -0.42768687 -0.112654634 -0.10881227 0.079497
000320 7e 67 bd be f9 b9 5d be 15 38 0f bf a5 e4 07 bf
       -0.3699302 -0.21652974 -0.5594495 -0.5308326
000330 d0 d5 3b be e0 09 fc 3e 93 ad 55 be 4e ae e5 be
       -0.18343282 0.49226284 -0.20866995 -0.44859546
000340 cf 72 02 3f fa dd c7 3d 4e fc a7 bc 33 24 7e 3e
       0.50956434 0.097591355 -0.02050605 0.24818496
000350 e7 88 aa 3c 38 58 17 3c 83 b2 87 3e d5 b2 6c 3d
       0.020817233 0.009237342 0.2650338 0.057787735
000360 35 9a 77 3e d3 5e f9 be cb 77 e6 3e ab 92 9b 3e
       0.24179919 -0.48705158 0.4501327 0.30385336
000370 8a 84 02 3f 3e a0 c8 3e 80 61 a3 3e 6b 35 ae 3e
       0.5098349 0.39184755 0.31910324 0.3402513
000380 d4 64 bf be ac 72 8b be e4 37 a7 3d 12 f7 d5 be
       -0.37381613 -0.27235925 0.08164957 -0.41790062
000390 d6 b1 75 bd f7 52 74 3e e6 e6 53 3e 21 e9 8f 3d
       -0.05998405 0.23859774 0.2069355 0.07026888
0003a0 f8 6c 14 3c cf c0 ee 3e b0 5e 89 3e ff c2 0f 3f
       0.009059183 0.46631476 0.26830053 0.56156915
0003b0 99 03 fe be 71 f1 f2 bc 31 17 c6 3e 8a 5e 9a be
       -0.4961212 -0.029656144 0.3868957 -0.30150253
0003c0 51 68 ad be 92 70 40 be db 8c c2 3e cb ae 68 3c
       -0.3386865 -0.18792942 0.3799809 0.01420183
0003d0 04 8d 97 3e 52 e4 38 3e 1e 77 ce 3e 7e 33 e4 be
       0.29599774 0.18055847 0.40325254 -0.44570535
0003e0 17 58 11 bd 64 37 85 3e 2f 32 91 3d 43 57 ef be
       -0.0354844 0.26018822 0.0708965 -0.46746263
0003f0 4a d9 75 3e 9a ed 09 bf bf 0d b6 3e 03 19 78 be
       0.2400867 -0.53878176 0.35557362 -0.24228291

bias f4 [500]
000000 a9 92 2d be 8f 4a 1d 3e 3d cd 10 3f 9b d9 48 3c
       -0.16950478 0.15360473 0.5656317 0.012258912
000010 e7 79 9f be b3 3e 6b 3d b1 5b 9a 3e 88 2a 36 be
       -0.31147692 0.05743284 0.3014808 -0.17789662
000020 94 ab 20 3e 14 4c fe 3d e9 09 a7 3c 46 41 fc 3e
       0.15690452 0.124168545 0.020390468 0.4926855
000030 aa 2c ba be d9 50 a8 3c a3 c1 ff 3c a4 72 73 be
       -0.363622 0.020546364 0.031220263 -0.237742
000040 e6 69 09 bf c0 90 89 3e 6e 0f 90 bd 0d e8 d6 3e
       -0.53677213 0.26868248 -0.07034193 0.41973916
000050 98 e6 c4 3e 01 a7 0b be 00 bb 32 be b9 8c fe be
       0.3845718 -0.13637926 -0.17454147 -0.49716738
000060 a0 44 3f 3e 28 a2 e7 be cf a9 c0 3e d3 62 c6 3e
       0.18678522 -0.45240903 0.37629554 0.38747272
000070 cf e2 c9 bd 6b 17 51 be 12 ed c1 3e b4 4c 02 bf
       -0.098577134 -0.2041909 0.37876183 -0.5089829
000080 af 2f 03 bd 26 8e 10 bf e7 2c 03 bf 4c d9 ed 3e
       -0.032027896 -0.564669 -0.5124039 0.46454847
000090 8b 2a f1 3e e1 6b f0 3e 30 f4 62 be ee 34 01 3f
       0.4710277 0.46957305 -0.22163463 0.5047139
0000a0 2b b0 52 3c ee 67 b6 3d 9e 32 06 bf 5d 8b 63 3e
       0.0128593845 0.08906542 -0.52420986 0.22221132
0000b0 ea ab 11 3f af 59 9d bd 22 52 0e bf a0 c2 de 3e
       0.56902945 -0.076831214 -0.55594075 0.43507862
0000c0 22 7a 99 bd df 55 e0 3e f1 23 e6 be ee 58 ed be
       -0.07493998 0.43815514 -0.44949296 -0.4635691
0000d0 23 54 0e 3e b6 d8 0f 3f 83 44 2e be ad 83 31 be
       0.13899283 0.5619005 -0.17018323 -0.17335387
0000e0 da 14 eb be dc ad fb be f5 72 81 be 30 cb 08 3f
       -0.45914346 -0.49156082 -0.25283018 0.5343504
0000f0 2d d0 3c 3d 6f 11 58 be 6c 2f 13 3e 37 ee 4c be
       0.04609697 -0.211004 0.14373559 -0.20012747
000100 2e e9 0f 3e 83 3f 89 be f1 4d 00 3f e4 96 a6 3e
       0.14053795 -0.26806268 0.5011893 0.32536995
000110 32 68 fb bd a1 a4 63 be 63 bf 41 3e 4b 43 c5 be
       -0.12275733 -0.2223077 0.18920664 -0.38527903
000120 15 9b 06 3f 3f bd 4b 3e bd 3f 8a be 5d c7 19 3e
       0.52580386 0.1989641 -0.27001753 0.15017457
000130 c7 ad 9a 3e 86 41 02 bf 8d 59 01 3d 17 01 77 3e
       0.30210707 -0.5088123 0.031579543 0.2412151
000140 b0 13 60 bd 7f 96 8d 3e c7 f3 9f be 57 89 af 3e
       -0.054706275 0.27653882 -0.31240675 0.3428447
000150 25 f4 11 bf e4 6b 25 3e 6a 07 d0 3e a1 18 71 be
       -0.5701316 0.16154438 0.40630656 -0.23544551
000160 2a 5b 14 3d 4c 02 10 bf 79 b8 6e 3e b5 d1 85 be
       0.036219753 -0.56253505 0.23312558 -0.26136556
000170 4e 25 ac be 30 e6 8a 3d 7e f9 0c 3f c7 b0 85 bd
       -0.3362221 0.06782186 0.55068195 -0.06527858
000180 fb 1a cb be 61 d8 00 3f 41 5f 82 bd de b8 0c 3e
       -0.39669022 0.5033017 -0.063658245 0.13742396
000190 97 f9 65 be b2 3a ef 3e eb a1 e9 3e b2 b1 e9 3d
       -0.22458492 0.46724468 0.45631346 0.11410846
0001a0 ee 22 0a bf 9d be d7 3e 16 6e 4f 3e e4 c8 d6 3e
       -0.5395955 0.42137614 0.20256838 0.41950142
0001b0 46 30 f2 3e 93 77 0d bd 3a 14 0b bf c7 5b 87 3e
       0.47302455 -0.034537863 -0.5432774 0.26437208
0001c0 a2 2e e2 bd e7 f0 fe 3c 4c dc 02 3f f1 96 dd 3e
       -0.11044051 0.03112073 0.51117396 0.43279222
0001d0 ff 47 49 3e d3 c1 2b 3d d3 2f 61 be 2e c0 03 bf
       0.1965637 0.041932892 -0.219909 -0.5146512
0001e0 14 83 16 be 54 da c9 be 25 87 bb 3e 96 4b 64 3e
       -0.1469844 -0.39424384 0.36626545 0.22294459
0001f0 27 d6 1c be 70 49 bc 3d 34 e1 ca bc b9 85 d6 be
       -0.15316068 0.091936946 -0.024765588 -0.41898897
000200 d7 74 a7 3e 06 9a a0 bd 7e 10 a5 be 65 23 c2 be
       0.3270633 -0.07841878 -0.32239145 -0.3791763
000210 b5 22 0d be 35 a0 91 be 83 fb fb be 19 40 a0 3e
       -0.13782771 -0.2844254 -0.49215326 0.31298903
000220 cd e5 0e 3f d0 f3 05 3f c0 c6 75 3e dd fc f1 3e
       0.558194 0.52325153 0.24001598 0.47263232
000230 6d 63 27 3e e0 78 aa 3e 4b 7e 07 3f 94 9a c4 be
       0.16346522 0.33295345 0.5292708 -0.38399184
000240 13 1c ab 3e d8 cc 70 3c 1e 52 07 3f 62 a2 ee bd
       0.33419856 0.014697276 0.52859676 -0.11652066
000250 2d 9d 4d be 68 50 e5 3e 18 81 9e 3c f1 86 00 bf
       -0.20079489 0.44787908 0.019348666 -0.50205904
000260 7e ba 01 3f b6 19 fa 3e d1 e0 70 be 50 63 cf 3d
       0.5067519 0.4884774 -0.2352326 0.10126364
000270 4e e2 47 be 1d df 23 3e 06 18 da 3e 9f 92 d7 be
       -0.19519922 0.1600308 0.42596453 -0.4210405
000280 32 d0 58 be ee 23 cc bd f6 bd f5 bd 7a f6 b9 3d
       -0.2117317 -0.099677905 -0.11999123 0.09080215
000290 17 55 85 be e3 b0 9f be c7 8e 2c bd 5f ca 0f bf
       -0.2604148 -0.3118964 -0.04212835 -0.5616817
0002a0 44 03 f2 bd 60 af ef be 88 91 9a bd 42 6e 9f bc
       -0.11817029 -0.46813488 -0.07547289 -0.019461755
0002b0 94 d2 33 be dd b8 94 3e 1a e3 33 3e cb 20 52 3e
       -0.17560798 0.2904729 0.17567101 0.20520322
0002c0 17 f9 29 bd 55 52 12 3f 52 5c bc be 39 63 fe 3c
       -0.041497316 0.5715688 -0.36789185 0.031053172
0002d0 5c 6e 53 be ca bc d9 3e c1 e8 ee 3c b1 1c b0 3e
       -0.20647568 0.42526847 0.02916372 0.3439689
0002e0 81 3a cb 3e 74 89 68 bd 44 31 db 3e 18 16 fd 3e
       0.39693072 -0.05677171 0.42811024 0.4943092
0002f0 55 5b a4 bd 6e 19 d8 3e 50 8b 00 3f 85 91 e1 3e
       -0.08025233 0.422069 0.50212574 0.44056335
000300 b7 26 13 3f 4c a6 f3 3e 99 32 a5 3e 83 6a 0b 3f
       0.5748095 0.47587812 0.32265165 0.544594
000310 83 95 6b bd e7 47 87 bd 88 4a b4 3e d6 8e a0 bd
       -0.057515632 -0.06605511 0.35213113 -0.07839744
000320 10 33 cf 3e d5 1a e8 bd 7a 59 72 be 92 4e 89 3e
       0.40468645 -0.11333243 -0.23666945 0.26817757
000330 8e a5 36 be a3 d6 0f 3f f4 72 08 bd f1 aa 99 bd
       -0.17836592 0.56186885 -0.033312753 -0.075033076
000340 16 7b 0d 3f c5 9d a1 bd 34 d6 96 3d cb 7a fa 3e
       0.5526594 -0.0789142 0.07365075 0.4892181
000350 1e 7e 55 3e 66 93 d2 3e 7a 01 07 be c4 3a d3 be
       0.20848891 0.4112808 -0.13184157 -0.41255772
000360 85 62 9a 3e ec b3 f3 3e 0a 1a 4e 3e fd 5d 89 bd
       0.3015329 0.47598207 0.2012712 -0.0670738
000370 ca 20 35 3e 66 53 83 be 0f 11 14 be be c8 54 be
       0.1768829 -0.25649565 -0.14459632 -0.20779702
000380 50 a7 08 bf 97 ce ed be 3a d7 b6 be 00 74 d2 be
       -0.533803 -0.46446678 -0.3571108 -0.41104126
000390 42 8f 8e 3e fd d4 9b be da 1a 08 3e 89 38 b2 be
       0.27843672 -0.30435935 0.13291493 -0.34808758
0003a0 87 d2 b0 3e 10 25 75 3e fb 4d 41 3e c5 06 7e be
       0.3453562 0.2393992 0.18877403 -0.2480727
0003b0 93 54 06 bf 89 00 e8 3c 98 76 5a 3d 94 94 02 3f
       -0.524728 0.028320568 0.053335756 0.5100796
0003c0 93 56 42 bd fc 51 ee 3e 9d 69 dc be c5 a0 eb be
       -0.047445845 0.46546924 -0.43049327 -0.46021095
0003d0 55 95 e5 3d c8 c1 ea be 50 2a f6 be ca 91 cd be
       0.112101234 -0.45850968 -0.48079157 -0.4015029
0003e0 22 76 69 be 63 96 40 3e 1b 34 5f be f4 50 b5 3d
       -0.2279897 0.18807368 -0.2179722 0.08853331
0003f0 b3 70 eb 3e 1d 47 ab be ea 86 04 bf de fe 11 be
       0.4598442 -0.33452693 -0.5176836 -0.1425738

weight f4 [50, 500]
000000 07 86 2e bd ec f0 c1 3c ef 9b c8 3b cc 87 18 3d
       -0.042608287 0.02367445 0.0061221044 0.03723888
000010 5d 46 11 3c ba 30 81 3c 74 54 ef bc 70 61 e4 3c
       0.008866874 0.015770305 -0.029215075 0.027878493
000020 e0 d7 32 bd 2c 00 d4 bc 56 2e 1a bd 41 eb 3f bd
       -0.043662906 -0.025878988 -0.037641846 -0.046855215
000030 44 f8 ed bc f0 55 a7 bc c6 10 4e 3b fb 48 b4 3b
       -0.029049046 -0.02042672 0.0031443103 0.005501864
000040 e4 bd 71 3b 4a cc a8 3b b9 bf b6 3b ab db 1e bd
       0.0036886865 0.0051513063 0.0055770543 -0.03878371
000050 b6 9d f9 ba f5 cf 08 3d 9b 77 5b bc 76 6c b7 3c
       -0.0019044194 0.03340145 -0.013395215 0.022390585
000060 f9 40 88 3c 41 0d d3 bb a1 78 a9 bc 01 00 78 bc
       0.016632544 -0.006440789 -0.020687403 -0.01513672
000070 c1 62 a5 bc a1 b4 97 bc de cb 80 3c dc 73 1b 3d
       -0.020188691 -0.018518748 0.015722211 0.03795229
000080 04 12 04 bd b6 bd bc 3c a0 fb 23 3c c0 5d f9 bc
       -0.032243744 0.02303968 0.010008723 -0.030440211
000090 1c b2 83 3c a1 5f 4a bc 71 44 10 bc e5 b6 d7 bc
       0.01607614 -0.012351901 -0.00880538 -0.026332328
0000a0 7d 2a b9 3a 8c 3b a0 3b 6e 40 e3 bb 8c 69 43 3c
       0.0014127042 0.004889911 -0.006935171 0.01192702
0000b0 e1 75 06 3b 98 bc 0d 3d c5 0e e4 bc 76 22 03 3d
       0.0020517039 0.034603685 -0.027839074 0.032015286
0000c0 fc 87 03 3d e2 91 10 3d 6a 7d 0b 3d fd d2 20 bc
       0.032112107 0.035295375 0.03405515 -0.0098159285
0000d0 43 63 28 bd dc 56 ad 3c 86 df 20 ba 49 16 1a 3c
       -0.04111029 0.021159582 -0.0006136823 0.009404727
0000e0 d5 3c c2 3c 00 53 8c bc 42 69 ad bc 57 d2 81 3c
       0.023710648 -0.017129421 -0.021168355 0.015847368
0000f0 97 5d 6a 3c 44 12 03 3d 55 43 37 3c 6d 06 f2 ba
       0.01430454 0.03199984 0.011185487 -0.001846505
000100 09 8b 34 bd e5 21 de 3c 67 5a 22 bd fd 60 b5 bc
       -0.044077907 0.027115772 -0.039636996 -0.022140974
000110 4c 5d 95 39 a1 7e d5 3c e9 c0 c9 bc 86 fb f4 3c
       0.00028489006 0.026061358 -0.02462812 0.029905092
000120 98 aa 43 ba 8a ab 21 3d 50 3f 95 bc 35 f1 1d 3d
       -0.000746408 0.039470233 -0.018218666 0.03856011
000130 85 a8 66 bc 0b a3 ad 3a cb 8d 94 3c ce 8a 41 3c
       -0.014078264 0.0013247443 0.018134018 0.011812879
000140 0b 0d 0b bd 61 de 6e bb d1 54 58 3c 3a f5 ad 3b
       -0.033947986 -0.0036448466 0.013203816 0.0053087743
000150 01 69 bf 3a dd d1 6e bc 9a 16 fb bc 37 35 c8 bc
       0.0014603437 -0.0145764025 -0.030650426 -0.024439437
000160 ef 15 aa bc 72 35 08 bd 3a 85 cd bc c7 0d fb bc
       -0.020762412 -0.033254094 -0.025087941 -0.030646218
000170 d3 da 8f bc 86 a5 17 3d 93 d9 17 bd e0 c0 e0 bb
       -0.017560398 0.03702309 -0.03707273 -0.00685893
000180 d8 0c 29 3c 20 59 d3 3a 33 09 09 bd ac 05 ea 3c
       0.010318004 0.0016124584 -0.03345604 0.028567158
000190 cb 6e bf 3c 7f 21 01 3c cd d7 94 3b 21 d9 1a bc
       0.02336826 0.007881521 0.004542327 -0.009451182
0001a0 2b dc 18 3d 37 4b 9e 3b 87 cc c6 ba be 18 08 bb
       0.037319344 0.0048307437 -0.0015167155 -0.00207667
0001b0 77 25 e2 bc fe 4f 63 3c 54 6f 8d 3b 95 6d 31 bd
       -0.027605755 0.013874052 0.00431625 -0.043317396
0001c0 e0 d2 18 bc cf f0 d7 3c db ae 69 3c 0b 11 97 bc
       -0.00932762 0.026359944 0.01426288 -0.018440744
0001d0 d6 5e eb 3b 8e fa 15 3c c1 ef 88 bc 6d eb 0d bd
       0.007182936 0.009153975 -0.016715886 -0.034648348
0001e0 02 69 28 3c 72 90 33 3d 50 b4 40 3c 79 45 60 bc
       0.010278942 0.043838926 0.01176174 -0.013688439
0001f0 f7 1c 11 bd e1 8d 2a bc 61 6f 2f ba 7e d2 28 bc
       -0.035428014 -0.010409803 -0.0006692317 -0.0103040915
000200 c5 75 02 3d 24 79 0c bd 17 ce bd bc 03 8a a7 bc
       0.031850595 -0.034295216 -0.02316956 -0.020451551
000210 83 8f cd bc 86 96 3e bc 77 4a ad bc e9 71 40 bd
       -0.025092846 -0.011632567 -0.021153672 -0.046983633
000220 1e 14 6f 3c cd 82 7c bc a1 25 fd 3a 6b 13 9c bb
       0.014592199 -0.015412045 0.0019313582 -0.004763057
000230 ce fb b8 ba 14 b9 5b 3c af 43 a6 3b ef b3 9f 3c
       -0.001411313 0.013410825 0.0050739865 0.019494979
000240 c2 ae 71 3b 3e 66 28 bd 1e be 41 3c 3f 92 25 bc
       0.0036877845 -0.04111313 0.011825113 -0.010105669
000250 06 30 ff 3c 16 d2 18 3c f3 e7 15 3b fd a0 0c bd
       0.031150829 0.009327432 0.0022873848 -0.034333218
000260 93 0f f6 3c 2d 7f 13 bd ed c6 12 bd b4 33 1c ba
       0.030036723 -0.036009956 -0.03583424 -0.0005958632
000270 e4 b5 2a bd 88 51 e7 3c cf 2e 3b bc 09 1e 07 bd
       -0.04167737 0.02823712 -0.011424734 -0.032987628
000280 e5 4a 88 3c 33 a8 c9 3c 4b 8b 20 3d c6 d4 22 3c
       0.016637275 0.024616336 0.03919534 0.009938424
000290 91 2f df bc 08 79 2f 3a f8 d9 35 bc 7d 6d e1 3c
       -0.027244361 0.0006693755 -0.011099331 0.027518028
0002a0 16 c5 23 bc 94 61 e7 3c 77 6c 83 3b ad 7a 25 3d
       -0.009995719 0.028244771 0.0040107328 0.040400196
0002b0 76 a9 e5 3c 84 76 eb 3c f3 a6 cd bc 5d ad 33 bc
       0.028034907 0.028743036 -0.025104022 -0.010966626
0002c0 9f 6c 22 bc 5b 87 3f bb 8f 4c 16 3d 05 77 11 bd
       -0.009913593 -0.0029224965 0.036694106 -0.035513896
0002d0 84 57 c9 bb 60 e0 02 bd 57 c8 9a bc 63 a0 85 3c
       -0.006144466 -0.031952262 -0.018894358 0.01631183
0002e0 f1 47 9e 3c 16 93 af 3c a3 5b a5 bc 26 87 d4 bc
       0.019321414 0.02143244 -0.020185297 -0.02594335
0002f0 86 dc e5 3b 53 b8 09 3d ca 46 e2 3b 51 4d b1 bc
       0.007014814 0.03362305 0.0069054114 -0.021643313
000300 dd 30 3f bc 56 cc de bc 37 b3 cd bc 76 d8 27 3b
       -0.011669365 -0.027197044 -0.02510987 0.0025611199
000310 04 a5 37 bc 5f 35 13 3b 71 47 cc ba 98 e4 fa 3c
       -0.011208776 0.0022462232 -0.0015585256 0.03062658
000320 7d 20 c3 3c 03 f2 29 bd 7f fd 2b bc 65 71 e4 3b
       0.023819203 -0.041490566 -0.01049745 0.0069715255
000330 b5 a5 6e bc 44 dd 00 3d 91 59 02 bd 67 62 2f bc
       -0.014565875 0.031461015 -0.0318237 -0.010704613
000340 b7 01 c7 3c b4 14 e4 3b 71 31 98 bc a1 e9 8b 3c
       0.02429281 0.006960476 -0.018578263 0.017079176
000350 60 d2 ae 3b 5f 13 bc 3c 92 14 9f 3c ec 2c 4a bc
       0.0053351372 0.022958456 0.019418988 -0.012339812
000360 d7 d9 7e bc b3 8f 0e bc 45 07 a4 3c bd 52 3a bd
       -0.015554867 -0.008701253 0.020022998 -0.04548906
000370 f7 c5 24 3d 7f 58 04 bd 53 af 17 bc 49 a8 c2 bc
       0.040227856 -0.03231096 -0.009258109 -0.023761885
000380 70 b1 d2 3a 0e 02 33 bd c8 b7 ae bc e0 ae 56 3c
       0.0016074609 -0.04370313 -0.021327868 0.013103217
000390 a8 11 05 3d 65 af f3 bc ad 2e b1 3c d4 42 ec bc
       0.03248754 -0.02974672 0.021628702 -0.02884046
0003a0 91 23 6a 3c 72 1e 94 3c 8a 86 e3 bc b8 23 09 bd
       0.014290706 0.018080924 -0.027774114 -0.03348133
0003b0 94 06 e9 3c 5e 2c 93 bc 8d c4 27 3c 64 29 b2 3b
       0.02844552 -0.017965492 0.010239732 0.005437063
0003c0 ed 17 bf 3b 2c ec 2e 3c 5f 6b 10 bc d7 40 0f 3d
       0.0058317096 0.010676425 -0.008814662 0.034973945
0003d0 3f a7 e3 3c fe 05 bb 3b ab 9f b4 3b 01 19 05 bd
       0.02778971 0.0057075014 0.005512198 -0.03249455
0003e0 fe 04 0e bc 1b b1 89 bc d0 13 c8 3c ae d4 d6 bc
       -0.008668182 -0.016808083 0.02442351 -0.02622446
0003f0 16 84 99 bc 5b c7 9f bb 98 2d ef 3c 67 b1 2d 3d
       -0.018739741 -0.00487606 0.029196545 0.042405512

bias f4 [50]
000000 1d 41 33 bd 0a 6d a0 3c 10 b8 35 bd 1e c0 37 bd
       -0.04376327 0.019583244 -0.04436499 -0.04486095
000010 73 d8 62 bc 9d 80 d9 3c b6 e0 57 bc f2 61 7d bc
       -0.013845551 0.026550585 -0.013176134 -0.0154652465
000020 de 53 0b 3d 2c a5 37 bd 86 05 31 bd c5 aa fc 3c
       0.03401553 -0.044835255 -0.04321816 0.030843148
000030 77 00 b3 bc b6 26 53 bb 88 32 b7 bb c1 95 29 bc
       -0.021850808 -0.0032219118 -0.0055907406 -0.0103506455
000040 36 fc ec 3c 48 23 03 bd 1b 4b 66 3b a5 80 8c 3c
       0.028928857 -0.03201607 0.0035139981 0.017151186
000050 db e5 46 bd 4e 98 35 bd 10 96 26 bd 16 32 c2 bc
       -0.04855905 -0.044334702 -0.040670455 -0.023705523
000060 a5 0b 37 bd 6e bc 34 3c 8c 54 45 bd 5e e2 88 bc
       -0.04468884 0.011031253 -0.048176333 -0.016709503
000070 db 6e 06 bd c3 5f c3 bc 5c 45 9a bc d4 3e c7 bc
       -0.032820564 -0.023849374 -0.018831901 -0.024321951
000080 de 47 48 bd 16 81 98 3c 66 32 b8 bc e6 c8 22 bd
       -0.048896663 0.01861624 -0.02248497 -0.039742373
000090 15 91 55 3c ba 3c c4 3c a1 23 8d bc ae 2d 7e bc
       0.0130350785 0.023954738 -0.017228903 -0.015513821
0000a0 f0 92 15 3c 97 0a 19 bd 30 0d bc bc 49 7b 3f bb
       0.009129271 -0.037363615 -0.022955507 -0.002921777
0000b0 48 98 9f bc 07 83 2e bc 98 55 20 bd 76 72 9f bc
       -0.019481793 -0.010651357 -0.03914413 -0.019463759
0000c0 f9 b9 32 bd f0 82 10 3d
       -0.04363439 0.03528112

weight f4 [1, 50]
000000 a9 54 c9 bb 1b 55 19 bc 62 21 8c 3b 79 ac 07 3d
       -0.0061441255 -0.00935867 0.0042764405 0.033123467
000010 42 f4 81 3b fc 9a 31 3c 07 ca 4a 3d 8a 44 46 bd
       0.0039658854 0.010840174 0.049509075 -0.048405208
000020 39 ac 69 3b 57 39 67 bd 8b e4 e5 bd e9 2e fb 3d
       0.0035655631 -0.056451168 -0.11225232 0.12264807
000030 0b 2b a9 bd 0a 4b e8 3d c0 4f b9 bd 76 c8 05 3e
       -0.08260163 0.113424376 -0.09048414 0.13064751
000040 a5 c4 61 bb 2b df 9e bd 19 7e bc bd 48 e8 19 bd
       -0.0034449485 -0.0775741 -0.09203739 -0.037575036
000050 2d 94 02 3d 62 34 fb 3b c8 42 7b 3d d7 6f f3 3c
       0.031879593 0.0076661566 0.061342984 0.029716415
000060 4d d9 8d bd b2 ec 88 bd 78 77 2c 3c 33 e9 63 3a
       -0.069262125 -0.06685771 0.01052653 0.0008694112
000070 ca 4b 0b 3b 56 03 bb bd 86 13 c6 bd 91 ca 4c 3b
       0.002125489 -0.09131496 -0.096716926 0.0031248669
000080 8e 05 29 3d ff e2 be 3d db 87 ea 3a 2d de f0 3b
       0.041265063 0.0932064 0.0017893271 0.007350704
000090 77 73 84 3c 56 f1 cd 3c 18 60 af 3b e2 e1 4a bb
       0.01616834 0.025139492 0.0053520314 -0.003095739
0000a0 f5 4c cf bd ad 97 91 bc 77 01 0e bc b0 6b 55 3d
       -0.101221 -0.01777252 -0.008667341 0.052104652
0000b0 51 de 55 bd 2f c7 90 3b 2f bb b8 bb be ca 6e 3b
       -0.05221397 0.004418276 -0.0056375484 0.0036436762
0000c0 db 47 0e 3b f9 e8 a1 bc
       0.002171031 -0.01976441
