scripts/dof9sphere.pt (torch, 123479 bytes, 5 tensors)

weight f4 [500, 9]
00000000: ccb5 3d3f 803b f63f 04d7 bf3f 8a7e 9dbf
00000010: d14d 943e 3e6b d83d 73de a1be 718e 963d
00000020: 4f6e 6b3c 151a 5f3f 4aa1 c6bf 14cd 8ebf
00000030: 3146 c7bf 0ae4 d8bd 5709 393c 3e69 4abd
00000040: 5cad a0bb efa0 1f3c fd96 76bf 87e2 6abf
00000050: 60ed 49bf f589 27bf d7e9 babe 1d78 e63c
00000060: 984b 6f3f 2888 0f3f d5f5 583e f21e f5bf
00000070: f4a7 4abd 7102 cd3b 8e5c 983d 7e82 573d
00000080: 5587 abba 00ce df3d dda5 f63c 2d2d cb3c
00000090: 4abe e73f 59e4 1740 fb86 f43f b00c eb3d
000000a0: 9565 ac3e aa80 0f3d 0c69 6cbc 9e27 193d
000000b0: 7622 703c a979 a73e d7a1 45bf db9b 2abf
000000c0: 0fd0 52bf 2251 35bf 6008 1fbf b257 653f
000000d0: 5791 6e3c 63e9 d63c 5a32 eebe 8bdc 0f3f
000000e0: 870a 2bbf b9da 27bc 277d 4e3b 769e afbd
000000f0: 182c ad3b d2f4 d7ba 6e55 a1bb 896a 293e
00000100: f87f 723e d6bb 87bd d90b 853e b9fc c5bf
00000110: 5d57 323e 298a 51bb 5db2 e63d 847e 0c3d
00000120: 2462 a63e e175 25bf 669d 28bf 2d9e 1fbf
00000130: fa05 753e 27c9 013e 5a1f 573f 3a95 a23f
00000140: 41c7 b93e 948c 14be 98a9 eb3f c9ea dd3f
00000150: c9e7 333f a5b0 003f 80e7 713e 74fb 82bf
00000160: a195 c13f 1b32 223f 2274 863e 6b96 23c0
00000170: 8dff 12c0 e9d6 2b3f 6753 c3bf 4156 66bf
00000180: c0c3 893e f152 0abf 631d 21bc 4d3d 7abf
00000190: d6e9 903f 207d 833f ee1c 4abf 1f9d 903f
000001a0: 3481 763f 270f 9ebf 08dc 8bbe 31b7 0cbe
000001b0: 26d1 ab3f 4c07 393f 3f09 5b3f a4a2 bb3f
000001c0: 5d54 5bbf 5be3 03be 0060 0dbd ebd0 0d3d
000001d0: e1fb b33b f90a dabf d61e 2d40 f40a 983e
000001e0: bc13 ae3b 733e a93c c8ac 193c 0c7f c9bc
000001f0: bf06 163d 3836 9e39 197b 7bbf f93f 3cbf
00000200: 0c75 20bf eb4b 3a3f d5aa 12bf 5d76 1cbf
00000210: 867d bd3e 16c3 a4be c3ae c7bd 52dc 9cbf
00000220: 4ec7 06bf 4102 22bf a8e4 a03d 4378 c9be
00000230: 8a09 01bf 5185 ca3e 50a3 4f3e 99ad b73c
00000240: 83ac a2bd 01f0 8cbd e22b 35be f33b 9c3d
00000250: 269f 91be 849d 0bbd 9e7e b03b a4fc 3d3f
00000260: 9ccf a93f d417 943d f3ed 893c 7a5e 5cbf
00000270: 39b2 15be 289c 4abf 106e 22bf f801 673c
00000280: 8dec 37be f9bd 6bbd 7765 75be f34b e13f
00000290: d019 a33f 97bd 5abf ae22 2a3f b694 c13e
000002a0: 40ad 11be 03f8 053e 67db bbbc cee3 4b3d
000002b0: c0dd 35bf 1b39 2ebe db3e c63d 2499 573f
000002c0: 6688 e8be 3dba 1abe bcab 173f 99a6 2d3e
000002d0: 7101 6bbf dd8a adbe 0e0a 48bf 12fc 823e
000002e0: daef 3ebe 3161 7fbe 59b0 9ebc 1e95 0bbe
000002f0: bcc8 b3bc 2a6b ae3f 7e7d 1bbf 2718 2ebf
00000300: 9ca0 253f 5555 73bf 5552 d5be 156d c6bd
00000310: 0218 50bd 8f5b 1fbc 85fa 903e 142b 923f
00000320: 5da3 ff3d d1b3 c8bf cef4 35be 8e83 70be
00000330: 85d9 393c f7af 23bd 91ce 57bd e41d 42bc
00000340: eb50 2640 2726 c53f ab1d 99bd 7183 9e3f
00000350: 9b4d 683f 6a78 523d e057 fd3e ca04 8e3d
00000360: 8085 7fbf 47c2 2dbf 3706 2c3e 397c 80bf
00000370: 57b8 adbc d173 173d 3c63 f3bd 1370 cbbb
00000380: 9cb0 b23c 7e10 933e 5379 94bf 34cb 07bf
00000390: 75c1 a5bf 1d3a c5be 3c1d 80be 0a75 4fbf
000003a0: 5368 0abe 4a74 3f3d bcfb 78bd adac cabe
000003b0: 8103 27bf 3428 a7bd 4cbc 59bf 43cb 9ebf
000003c0: 2a8d 19be 3b2e b5bf 0e1e b1bf d010 ca3f
000003d0: a0c1 543f 25a6 473f bb68 c53f b65b 0840
000003e0: d0c6 493e a6f4 2c3b ad8c b83d 06b8 58bd
000003f0: 10d4 7e3f de88 7f3f 3c8a c63e 84f7 a73f
0.74105525 1.9236908 1.4987493 -1.2304242 0.2896562 0.1056733 -0.31615028 0.07351387
0.014369561 0.87149173 -1.5517972 -1.1156335 -1.5568296 -0.1059037 0.011293731 -0.049416773
-0.0049034785 0.009742959 -0.9632414 -0.91751903 -0.7887783 -0.6544488 -0.3650653 0.028133446
0.9347472 0.5606713 0.21187527 -1.9150069 -0.04947658 0.0062563946 0.074395284 0.05261468
-0.0013086597 0.10927963 0.030108387 0.024801815 1.8104947 2.3733122 1.9103693 0.11477029
0.3367125 0.035034813 -0.014429342 0.037391298 0.014656654 0.32710007 -0.77200073 -0.66644067
-0.8234872 -0.70826924 -0.62122154 0.8958694 0.014561019 0.026234334 -0.4652279 0.56195897
-0.6681294 -0.010245019 0.0031507702 -0.08575146 0.0052847974 -0.001647616 -0.004923514 0.16544546
0.23681629 -0.06627624 0.25985602 -1.546775 0.17416139 -0.003197322 0.11264489 0.034300342
0.3249675 -0.64632994 -0.6586517 -0.6235073 0.23928061 0.1267439 0.84032214 1.270179
0.3628483 -0.14506751 1.8411131 1.7337276 0.7027555 0.5026954 0.23623466 -1.0232987
1.5123788 0.63357705 0.26260477 -2.5560558 -2.2968476 0.671248 -1.5259827 -0.89975363
0.26907158 -0.5403281 -0.0098336665 -0.9774979 1.1321361 1.027256 -0.78950393 1.129795
0.962909 -1.2348374 -0.27316308 -0.13741757 1.3423202 0.7227676 0.85560983 1.4659009
-0.85675603 -0.12879698 -0.03451538 0.034623068 0.005492673 -1.7034599 2.705007 0.29695857
0.005312411 0.02065966 0.009379573 -0.024596713 0.036627527 0.00030176505 -0.9823471 -0.73535115
-0.626786 0.7277209 -0.5729192 -0.6111811 0.3700983 -0.3218009 -0.0975013 -1.2254736
-0.52647865 -0.6328469 0.07856113 -0.39349565 -0.5040518 0.39554837 0.20277143 0.022421645
-0.0794306 -0.068817146 -0.17692521 0.07628622 -0.28441733 -0.034085765 0.0053861877 0.74213624
1.3266482 0.07231107 0.016837096 -0.8608166 -0.14618768 -0.79144526 -0.6344919 0.0140995905
-0.1796133 -0.05755422 -0.23964487 1.7601303 1.2742252 -0.8544554 0.66459167 0.3780877
-0.14226246 0.1308289 -0.022931768 0.0497778 -0.7104149 -0.17013972 0.096799575 0.8421805
-0.45416564 -0.15110107 0.5924642 0.16958083 -0.91799074 -0.33895007 -0.7814034 0.2558294
-0.18646184 -0.2493942 -0.019371198 -0.13631102 -0.021946304 1.3626454 -0.6073836 -0.68005604
0.64698195 -0.9505208 -0.41664377 -0.096887745 -0.050804146 -0.009726419 0.2831613 1.1419396
0.12482331 -1.5679876 -0.17769167 -0.23487684 0.011343365 -0.039962735 -0.05268723 -0.011847947
2.5986888 1.5402268 -0.07476362 1.2383863 0.90743417 0.051384367 0.49481106 0.06934507
-0.9981308 -0.6787457 0.16799246 -1.003791 -0.021206064 0.036975686 -0.11884162 -0.0062084286
0.02181273 0.2872352 -1.1599525 -0.5304444 -1.2949663 -0.385209 -0.25022304 -0.8103796
-0.13516359 0.04674176 -0.060786948 -0.39584866 -0.6523972 -0.08161965 -0.85052943 -1.240578
-0.14995256 -1.4154733 -1.3837297 1.5786381 0.8310795 0.7798789 1.5422586 2.1305976
0.19704747 0.002639094 0.09011207 -0.052909873 0.9954233 0.9981822 0.3877734 1.3122411

bias f4 [500]
00000000: a921 bf3f 5a89 f3bf 3fff bd3f 485e 07c0
00000010: 0492 b3bf df03 8dbf 22b8 4b3f 0dc6 313d
00000020: 8451 a83f d0c0 0e40 8865 37c0 bb99 a23f
00000030: 95dc 043d 425a c93f e1a5 203f 7ce9 d03e
00000040: 6221 3abe b849 8c3f 70bb 0340 49bb 62bf
00000050: f26f 75be b007 01c0 10d4 af3f f64b 903f
00000060: bb72 b63e 8e02 aabf a96a 23bf c122 e33e
00000070: 765d 8d3f 4c85 a73f 072d a6be 5bba 89bf
00000080: e7fb 56bf fecd ce3f 49ef f73f 436c a1bf
00000090: 7fa3 dc3e 33ac 76be be35 933d a841 97be
000000a0: 6ff9 0ec0 4c4f 6a3f d1e3 683e a6ea ebbe
000000b0: 20f8 2140 70f9 a13f 7088 9f3e 3bbe ecbf
000000c0: 3afc 49be 51d5 f03d f3e4 cb3e e9d1 0b3f
000000d0: c31b 6fbf cbbc 6fbe 18e9 db3f 8071 6540
000000e0: 0a6f 95bf 3a04 673e c8cb 3a3f 1d38 4f3f
000000f0: d045 f1bf 3414 b93d 78e4 bdbe 87ab 9ac0
00000100: 4822 833e 460c afbf ef58 9cbf 304d 803f
00000110: 09dc d33e ac51 54bf c754 103e 9bc8 0c3f
00000120: a795 30c0 501e d13f c876 39c0 0bae 7bc0
00000130: 2482 90be 03ed c8be a9bf 4b3e acf4 a3be
00000140: 7470 883d e39c 8e3f 7236 3040 1ae0 5bbf
00000150: f051 c33f f0cd ce3e ed3a 5a3f 0969 4c3f
00000160: 5fca c53f 906b b23e 1a8a 13c0 a1ea 15c0
00000170: 3929 903f 665d 9fbf 6a21 9fbe 4bbd 06bf
00000180: dde2 c5bf ab4e 0e3f fd79 bdbf e0e0 1240
00000190: 8f24 69c0 c19a c7bf 0577 20be f223 6b3f
000001a0: 05ac 2cbd d19e 6c3e 2031 38bf 31d7 8cbd
000001b0: 91ac d0be 6b83 4340 34de 0dbe 9bc5 1ac0
000001c0: eaab 97bf 4263 6e3e 6ed3 5b3f 0d8c fd3f
000001d0: af75 52bf 938c b3bd 0a2d ad3d 6f26 ae3e
000001e0: 78d1 04c0 1f4a 46c0 06b6 523e d6f4 f03f
000001f0: 6c83 c9bd c833 cb3e 3cf1 f0bf 58dd a6bf
00000200: 7af7 0040 e90c 69bf 2e00 1c40 22ba aabf
00000210: 6040 4bbf fe2c 17be 4ff4 463f f838 38c0
00000220: 8696 aabe 1304 32be bdb5 ef3e af28 d83f
00000230: e4c2 bc3f f0c0 50bf afb5 6bbf faf1 5940
00000240: 6bc6 a83f 7697 c0be 5a69 2dbf afca 61bc
00000250: 3bd9 1440 5ae2 d33f 7a1b 393e 17b6 a03d
00000260: 696a 93bd ae76 263f f04f 0abf e115 8b3f
00000270: 110f 8c3f da99 05bd b2f8 7abd b8ff 0a40
00000280: 083a a8bf c989 a9bf 0d67 2040 e642 08c0
00000290: cb4b 57be a4dd 6c3e ee16 0cbf 9781 e93f
000002a0: 7e26 333f daf0 ab3f 22a4 c9bf 0f86 0340
000002b0: bde4 543f e8c3 b43e 2c5b 82be 5476 cd3e
000002c0: e45f 11be 5c68 b6bf f64d 803f 1f09 e0bd
000002d0: a158 2f3f 0aa9 8bc0 a448 7ebe 51fa e43f
000002e0: 7e97 33be e46c d03f 9be1 a43f 1f2a b9be
000002f0: b3a5 343f 5d38 15bf 662b 1140 7e1c 303f
00000300: db59 e33d a01f 9cbf 8b86 4140 bbaf 7d3f
00000310: 4705 7f3f 1f3d 2c3f 3d3c 943d af5e 603f
00000320: b4f7 1ebf c92d 09bf 37f2 4e3f f03a eabe
00000330: 0cec a53f 098f 13c0 3d3e 0d40 9b81 0c40
00000340: 3646 14bf 1221 933d d1e8 02be 97dd 5ec0
00000350: 9454 3abf f913 aa3e ce4c 18c0 1215 edbf
00000360: 3226 3dc0 4f9b 1140 ffe7 4d40 ee4c cf3e
00000370: 4d2f 1240 3d33 42bf 5d0a 2640 eb80 0640
00000380: dff3 0fbf 1ce1 0340 56c4 493f 099a 573e
00000390: 528e c7bf c9eb eabf 9b60 34bf c49a 273c
000003a0: 7560 fb3f 9ca5 da3e 8b4e c6be 1db7 2ebf
000003b0: 73f2 f93f 6aa3 85bc 0976 24bf 4d77 2640
000003c0: 70a4 2f40 119b 1f3f 50bd 823c 2200 0bbe
000003d0: 749e 6abd a047 0840 f64d 7cbf 00f1 9abf
000003e0: 222d 92bf d4a8 2bbf ba2d 0d3f b2e4 0a40
000003f0: a1de 1ebe 4b96 aebf 2e17 3240 7f9a 723e
1.4932147 -1.9026291 1.484352 -2.1151295 -1.4028935 -1.1016806 0.7957784 0.043401767
1.3149877 2.2305183 -2.865572 1.2703165 0.032436926 1.573067 0.6275311 0.40803134
-0.18176797 1.0959997 2.0583153 -0.88567024 -0.23968485 -2.0160942 1.3736591 1.1273181
0.35634407 -1.328203 -0.63834625 0.44362453 1.1044147 1.3087554 -0.32456228 -1.0759996
-0.8397812 1.6156614 1.9369899 -1.2611164 0.43093488 -0.24089126 0.07187985 -0.2954228
-2.2339742 0.9152725 0.22743155 -0.4607746 2.5307693 1.2654247 0.3115878 -1.8495554
-0.19725123 0.11759437 0.39823112 0.5461717 -0.93401736 -0.23411863 1.718051 3.5850525
-1.1674511 0.22560206 0.72967196 0.80945 -1.884943 0.090370566 -0.3708837 -4.8334384
0.25612092 -1.367562 -1.221464 1.0023556 0.4137881 -0.8293712 0.1409484 0.549936
-2.759134 1.6337376 -2.8978748 -3.9324977 -0.2822429 -0.39243326 0.19897331 -0.32022607
0.06662074 1.1141628 2.753323 -0.85888827 1.525938 0.40391493 0.85246164 0.7984777
1.5452384 0.3484769 -2.305304 -2.3424456 1.126258 -1.2450378 -0.3108018 -0.5263259
-1.5459858 0.5558879 -1.4802853 2.2949753 -3.6428564 -1.5594102 -0.15670402 0.91851723
-0.042156238 0.23107459 -0.7194996 -0.06876982 -0.40756658 3.054896 -0.13854295 -2.4183109
-1.1849339 0.23280051 0.8586949 1.9808365 -0.8221082 -0.08767047 0.08455856 0.34013698
-2.075285 -3.098274 0.20577249 1.8824718 -0.0983952 0.39687943 -1.8823619 -1.3036299
2.0151048 -0.91035324 2.437511 -1.3338053 -0.79395103 -0.14763257 0.77716535 -2.878477
-0.33317965 -0.17384367 0.46818343 1.6887416 1.4746976 -0.815444 -0.920741 3.405394
1.3185552 -0.37615556 -0.6773888 -0.013781234 2.3257587 1.6553452 0.18076888 0.07847231
-0.071980305 0.6502484 -0.54028225 1.0866052 1.0942098 -0.032617427 -0.06127233 2.1718578
-1.314271 -1.3245174 2.5062897 -2.1290832 -0.21025006 0.23131424 -0.5472249 1.8242673
0.6998061 1.3432877 -1.5753214 2.0550573 0.83161527 0.35305715 -0.25460184 0.4012934
-0.14196736 -1.4250598 1.0023792 -0.1093924 0.6849461 -4.3643847 -0.24832398 1.788889
-0.17538258 1.6283231 1.2881349 -0.36164948 0.70565337 -0.5828913 2.2682738 0.68793476
0.11101123 -1.2197151 3.0238369 0.9909627 0.9961743 0.67280763 0.07238052 0.87644476
-0.62096715 -0.5358549 0.8083834 -0.4574809 1.2962661 -2.3056052 2.2069237 2.1954105
-0.57919633 0.07184042 -0.12784125 -3.4822748 -0.72785306 0.33218363 -2.3796878 -1.8522055
-2.9554563 2.2751043 3.217285 0.4048838 2.284137 -0.75859433 2.5943825 2.1016185
-0.5623149 2.0606146 0.7881521 0.21054853 -1.5590308 -1.8353206 -0.7045991 0.01022977
1.9638811 0.42704475 -0.387318 -0.6824816 1.9527115 -0.016313273 -0.6424261 2.6010315
2.7444115 0.6234599 0.015959412 -0.1357427 -0.05728002 2.1293716 -0.9855646 -1.2104797
-1.1420023 -0.67054486 0.551479 2.1702085 -0.15514614 -1.3639616 2.7826648 0.23691748

weight f4 [50, 500]
00000000: 5f4f e9be 41ec 923e 6a63 2e3e a45a 7640
00000010: eacb 3cc0 b0ce 0d3f 2d5c 6d3e 29ab 1bbf
00000020: 0660 b03e 52b6 20bf 168f 923e 1317 7e3e
00000030: f2e2 99bd 9601 adbf 6709 163e 2115 673e
00000040: 36e0 3bbf 6ea3 273e c5dd 05bf 6c67 1bbf
00000050: 416e 03bd 2683 f43e 4daf 9abd 2485 183e
00000060: b642 75be d442 163d 6f08 8cbd 5593 9abf
00000070: 0ef6 5f3e 4a0b 103e c30c 913e 4f21 663e
00000080: 33a4 b03e 9df0 983d 4cd1 07bf 9e81 99bd
00000090: beb4 47bd 0a27 6a3e 0acc 9c3f 7ffe f4bc
000000a0: 272a 6bbe a149 4abc 0820 5cbe 638d 5b3d
000000b0: ba44 33be 7357 3fbe e132 c7be 4fa4 c33e
000000c0: 0e82 663d 6b98 eabe fc3e 36bd 3225 143e
000000d0: d029 fbbe 31c4 573e c1a7 e43e 7ace 69bf
000000e0: 719a 8cbe bdcc 5dbb 68fd 4bbe 7a1a 223f
000000f0: ae33 b2be 9d77 2b3e c26a 813e 9297 ab3d
00000100: 1373 51be 233d 38ba 067f 3cbf 66f6 3abe
00000110: 3183 963d 6014 0a40 ba8c 973e 6556 eabe
00000120: e7da 35c0 2c18 963e 1367 dfbd 0637 9fbc
00000130: 6155 2e3e ba97 b7bf 0f6d cd3c 6cfc 323e
00000140: 3e77 df3d ce4a e13d c530 183e c345 bfbd
00000150: 02bb b8be 0fe7 8bbe 7dee 073d 95de abbe
00000160: b98e 993e c1de f9bd bf3f debe 3043 febe
00000170: 4cde 8e3e 9c4d 2b3c 5020 133d e3c9 5e3d
00000180: 16b8 7bbd 3b9e 93be 7f8e e5bd 03cb b43e
00000190: a07f ba3e 2171 583e 70a5 303e 6f2c 83bc
000001a0: a590 82be 8609 30be 88b8 52be 2d98 62be
000001b0: 7dcf 843e 1b41 3c3f 2ceb 90bc aebe 1ebe
000001c0: 5660 a33d 72ad 1a3e 0a00 343e d2a1 16bf
000001d0: a9e3 dabe 8320 09be d766 3fbd 5fa9 803e
000001e0: b95a 7c3e 0b71 a43f 0d65 99be b83b 80be
000001f0: 0e68 5dbe 0eae 59be b8d6 f7be b328 34bf
00000200: e4fe 90bd 258f b53e b4ba 29be 4a35 1dbf
00000210: 55d8 df3e 85cc b53e 597c 82bc f6d8 b9be
00000220: f3a1 09be 1ec9 553e 47c1 e5bd 46fd 023c
00000230: e45c b3bf 420f 6dbd de1f 5d3f aa5e debc
00000240: 1661 c83e acec ee3d 6fd3 e2bf 183f 11bf
00000250: c7c6 a0bf 944e 94bf 5a5e 88bc 359c 403e
00000260: 6581 c3bb 33bf 29be 30ed c43e 02ec 0fbb
00000270: a39b eebd 8958 8d3e b909 a33e c92b 4b3e
00000280: 59e6 85be 205f d93e 6a3d 57be e4ce dc3e
00000290: b091 613e 601a 88be a590 c6bd 9bd5 2c3d
000002a0: ad42 18bf 9550 553d 941b 0d40 8b8c 673f
000002b0: 4227 a6be f59c 0e3d 668f a3be ccfc b2be
000002c0: 06bc e83d c11f e8bf 3c31 dc3b d613 713e
000002d0: 57df 2e3e 3631 f43f 3ba4 263e c0af 873e
000002e0: 0c09 c73e efd0 c6be e0be 6b3f 6a8c d23e
000002f0: b12d 903d 6d78 933e 9270 2fbf 9c85 e93d
00000300: de25 21be 0c8a c83d d8e0 1c3f 3dc0 a1bf
00000310: 6abd fe3e 0d2c 9b3e c10b df3e e76f 05bf
00000320: 8971 453f 51f1 5dbe 103c 9bbb 83aa 2bbe
00000330: 6f1c 97bf 94cf a0be d249 cb3d b781 90bf
00000340: 3159 1dbf ad6e 35be a571 a73c e97a 033f
00000350: bf75 963e ab30 943c 141e d1bd 267c 453d
00000360: 4b46 bf3e 2ed7 d43e 6822 813e 113e 73bd
00000370: 9fa4 02bf 6a13 bfbd 0f90 143e e093 3b3c
00000380: fe74 d63d 1e43 973e 5cb2 8abf 9b7b b23e
00000390: 6837 2abe bdae b33e 116c 06ba ddd0 9e3e
000003a0: 28b1 a93e f4f5 99be 93c8 2d3d e97c 633f
000003b0: a409 22be 0d8a 503e 8b94 11be 72c9 12bd
000003c0: 07a9 513e 052f 5b3e 9633 be3d 051c 2d3e
000003d0: 0abb 4bc0 60e2 883e 07ec 29c0 be35 cb3e
000003e0: dde9 9abf 5120 f8be 44df 2b3c c917 2abe
000003f0: 2506 80bd 5b8e 1fbf c3e1 90be d3db 4cbd
-0.45568368 0.28695872 0.17030111 3.8492823 -2.949946 0.55393505 0.23179694 -0.60808045
0.3444826 -0.627782 0.2862479 0.2481349 -0.075139895 -1.3516109 0.14652024 0.22566654
-0.73388994 0.16370937 -0.5229152 -0.60704684 -0.03208757 0.47756308 -0.07552967 0.14894539
-0.2395123 0.036684826 -0.06837546 -1.2076212 0.21871206 0.14066806 0.2833005 0.22473644
0.34500274 0.07467768 -0.53053737 -0.07495426 -0.048756354 0.22866455 1.2249768 -0.02990651
-0.22965299 -0.012346656 -0.21496594 0.053601634 -0.17506686 -0.18685703 -0.38906005 0.38211295
0.056276374 -0.4581941 -0.04449366 0.14467314 -0.49055338 0.21070935 0.44659236 -0.91330683
-0.2746158 -0.0033843957 -0.19920886 0.6332165 -0.34805053 0.16744848 0.25276762 0.08378519
-0.20454054 -0.0007028153 -0.7363132 -0.18258056 0.073492415 2.1574936 0.29599553 -0.4576904
-2.8414857 0.29315317 -0.10908332 -0.019435417 0.17024757 -1.4343178 0.025076417 0.17479104
0.109114155 0.11000596 0.14862354 -0.09339478 -0.36080176 -0.2732472 0.033186425 -0.33568254
0.299917 -0.1220069 -0.4340801 -0.49660635 0.27903974 0.010455515 0.035919487 0.054391753
-0.061454855 -0.28831658 -0.112088196 0.35311136 0.36425495 0.21136905 0.1725061 -0.016012399
-0.2550098 -0.17191133 -0.20578206 -0.22128363 0.2593955 0.73536843 -0.017690264 -0.15502426
0.07977359 0.15105227 0.1757814 -0.5884067 -0.42751816 -0.13391308 -0.046728935 0.2512922
0.24643983 1.2846998 -0.29959908 -0.25045562 -0.21621725 -0.21257803 -0.48406005 -0.703746
-0.070798665 0.35460773 -0.16575128 -0.6140944 0.43719736 0.355076 -0.015928434 -0.3629834
-0.13440685 0.20877501 -0.11218505 0.007994955 -1.4012723 -0.05787588 0.8637675 -0.027144749
0.3913657 0.11666235 -1.7720774 -0.567369 -1.2560662 -1.158648 -0.016646553 0.18809588
-0.0059663528 -0.16576843 0.3846221 -0.002196074 -0.11650779 0.2760661 0.31843355 0.19840921
-0.26152304 0.42455387 -0.21019521 0.43126595 0.22028232 -0.26582623 -0.096955575 0.042195898
-0.5947674 0.052078802 2.2048082 0.90448827 -0.32451826 0.034817655 -0.31945342 -0.34958494
0.113639876 -1.813469 0.0067197364 0.23542723 0.17077385 1.9077518 0.16273586 0.26501274
0.3887409 -0.3883128 0.9208813 0.41122752 0.07039965 0.28802815 -0.68531144 0.11402437
-0.15737101 0.09791955 0.61280584 -1.2636791 0.49753886 0.30307046 0.43563655 -0.52123874
0.77126366 -0.21674086 -0.0047373846 -0.16764264 -1.1805552 -0.3140837 0.099261895 -1.1289586
-0.6146422 -0.17718 0.020439932 0.5135942 0.29386708 0.018089613 -0.10210815 0.0482141
0.37358317 0.4157042 0.25221562 -0.059385363 -0.5103244 -0.09329875 0.14508079 0.01144883
0.10471533 0.29543394 -1.0835681 0.34859928 -0.16622698 0.35094252 -0.00051277975 0.31018725
0.33142972 -0.3007046 0.04242761 0.8886247 -0.1582399 0.20365162 -0.14216821 -0.035836644
0.20474635 0.21404655 0.09287183 0.1690522 -3.183291 0.2673521 -2.655031 0.3968944
-1.210262 -0.48462155 0.010490242 -0.16610636 -0.06251172 -0.6232659 -0.28297243 -0.05001433

bias f4 [50]
00000000: e984 5b3c 956c 203d 0b13 453f 9359 b3be
00000010: ff8f fc3e aeb5 333e ed2c 803e b052 113f
00000020: af1d e13e 2862 05bf 7e2f fe3c be66 e73d
00000030: 8342 23bf 2335 363f 9b16 a1bc 02d0 d53e
00000040: 4f15 63bf cdbe bf3e 3919 8a3e bb2f 1e3d
00000050: bcfc dfbc 9619 a8be 9010 c53e 9665 a13d
00000060: 5d54 fa3d 066c 013c 0c84 25bf c026 d73e
00000070: 546c 663d a6d2 3e3d 4e40 a23e 522d 973c
00000080: 578e e53e 22ef 603f da79 843e 496d c33d
00000090: af0c 463f 0fd9 0a3f 3805 d03e c09d 1d3f
000000a0: eaed b53e 03bc 4cb7 8b22 ff3e 36c8 f23e
000000b0: 6396 e3be ed4b d13e 2411 343f 6804 503c
000000c0: 99d0 093f c2a3 1cbf
0.0133983875 0.039166052 0.7698218 -0.35029277 0.4932861 0.17549774 0.25034276 0.56766796
0.4396796 -0.521029 0.031028505 0.112988934 -0.63773364 0.7117483 -0.0196641 0.4176026
-0.8870439 0.37450257 0.26972368 0.038619738 -0.027342193 -0.3283202 0.384892 0.07880704
0.12223122 0.00789929 -0.6465461 0.4202175 0.056255654 0.04658761 0.31689686 0.018454228
0.4483516 0.8786489 0.25874215 0.09542329 0.77363104 0.54237455 0.40628982 0.6156883
0.35533077 -1.2203122e-05 0.49831042 0.47418374 -0.44450673 0.4087824 0.70338655 0.012696363
0.5383392 -0.61187375

weight f4 [1, 50]
00000000: 8a7a d8bf 92bd d83c 9ff7 0040 38bd 7bbf
00000010: 62aa 7a3e 3286 fc3b df9b ab3f d5f6 4f3f
00000020: f8de 963e f5cb 0cc0 d7cd 11bd 1162 e63f
00000030: 6549 febf 6113 d73f c3a7 d03c fa56 643e
00000040: ba56 53c0 fcbe 0ac1 cee7 8cc1 0f4a 2040
00000050: d4c7 5dbf f2cb 99bf 6c92 bd3e 98f8 6cc0
00000060: 8f85 103c c635 a83a 4554 afbf d1b3 2e3e
00000070: 1074 10c0 8538 c63f 664d 1fc1 7a71 143b
00000080: 7161 b53e 802f 70c1 0026 3bc0 dc55 6aba
00000090: e389 2140 00fe 833f a576 b63f c277 cd3e
000000a0: c3f2 79c1 9cb1 14bd b44a 053f 647f a93e
000000b0: 8910 d8bf 984a 303e 786b fa3f d156 ec3c
000000c0: e1e3 1f3f 982d c0bf
-1.6912396 0.026457582 2.0151136 -0.983356 0.24479058 0.007706427 1.3406943 0.8123601
0.29466987 -2.1999485 -0.035596695 1.7998677 -1.9866148 1.6802789 0.02547062 0.22298804
-3.3021684 -8.671627 -17.613186 2.5045202 -0.8663304 -1.2015364 0.37025774 -3.702673
0.008820905 0.0012833409 -1.3697592 0.17060782 -2.257084 1.5485998 -9.956396 0.0022650645
0.35425904 -15.011597 -2.9241943 -0.00089391856 2.524041 1.031189 1.4254957 0.4013043
-15.621768 -0.036302194 0.5206711 0.33105004 -1.6880046 0.17215955 1.9564047 0.028849991
0.6245709 -1.5013914
