scripts/entire_model.pt (torch, 15183 bytes, 7 tensors)

weight f4 [40, 9]
0.16855985 -2.4552038 -0.6344399 -0.13321663 -0.55638975 0.10532644 -0.0010968518 0.6026105
0.21565895 0.033187956 1.0052521 1.4966729 -0.21635118 1.2087402 -1.1664307 0.1509335
-0.49039719 -0.103585795 0.06265728 1.8151913 1.6709609 0.08898272 1.6485409 2.0298393
0.2638164 2.0331194 0.809549 -1.7512009 0.7145604 0.7437589 0.5862781 0.100134216
-0.08266733 0.074714504 -0.052042563 -0.0014728906 -0.9978634 -0.68048865 0.08281867 0.4337421
0.55953485 0.40622184 -0.12734988 -0.00017104445 -0.040267877 -1.2267181 0.8703444 0.43701607
-1.2776228 -1.1511557 -1.5660069 0.115217485 -1.690547 -0.63050157 0.006084842 -0.3571377
-1.1982573 -0.82265115 -0.35971707 0.38644725 -0.05480507 0.4375109 0.18646564 -0.132654
-0.20169389 -0.21264282 -0.9547936 1.4529455 1.6356024 0.07656904 1.2920133 0.43893978
0.056372948 -1.8950146 -1.5328583 -0.23586407 -1.3066298 -1.1525807 -0.16157408 -0.95320475
-0.37495038 0.03837788 1.9442103 2.4125721 0.05131642 -0.50241584 -0.75219303 -0.15696305
-0.38605392 -0.098245814 1.8013561 0.48342893 -0.019579345 1.1475201 -0.9782495 -1.6179843
0.008579346 -1.6603895 -0.6572427 -1.4999537 -0.5298027 -0.5063261 0.525982 -0.41034096
-0.24120185 0.32766557 -0.0027434824 0.028624073 -0.0034789287 1.0769559 1.3131001 -0.26225382
1.2252632 1.5113555 -0.042884953 0.6839123 0.19336921 0.5539179 1.7011924 0.9048867
-1.5858922 1.4145766 0.8078843 0.32444203 0.29280016 0.064968474 0.09575208 0.7933373
0.98599225 -1.4919395 -1.2456423 -0.8634271 -0.18584903 -0.476613 -0.1501205 0.092410386
0.13208745 0.13013458 -0.07736038 -0.037807725 0.021744885 1.2682388 1.7669706 0.64039934
-0.7237745 0.8137428 -0.21631943 0.5910517 1.5068461 1.4288219 -0.17426947 0.6261663
0.105698496 -0.097142875 0.25690636 -1.6186805 -0.14047934 -1.2603877 -0.4862703 0.021520184
-0.21041025 -0.0740302 0.8654098 -1.3787347 0.54873514 0.3094959 1.034128 0.6874917
-0.14093553 0.041878376 -0.060356434 -0.36366054 1.1795368 1.2376053 0.41745922 1.0338589
1.2715802 1.4683448 -0.087923355 -0.21290031 0.14990826 0.52936715 0.7503794 1.6931207
-1.575709 -0.82112825 0.3181405 -0.33913103 -0.099402934 -0.28765598 -0.003067668 -0.08476508
-1.0711789 -1.9729059 -0.2719001 0.22961244 0.053711865 0.012787236 -0.11658743 -0.19144051
-0.36812085 -2.5522149 0.30488747 0.0824941 -0.2519551 0.11913142 0.035030145 -1.8584546
1.1185656 0.9598125 -0.95824987 1.0182096 0.55293185 0.22153936 0.19928151 0.051066693
0.24085967 -0.027373116 0.04143096 0.65994316 0.9510834 1.3390666 -1.0133988 0.25680378
-0.029898597 0.11154907 -0.75675 -0.9282165 1.7703346 1.4158791 1.002807 0.23405795
0.5692095 0.14929709 -0.24783847 -0.016538942 0.020708553 0.063837774 -0.085559286 0.033903692
-1.2048672 1.755999 0.6846268 0.18129627 0.2543377 0.29927814 1.230111 -1.2523495
-0.5742878 -0.8916537 0.09831032 0.091170914 0.6869816 -2.2059367 -1.6865807 -0.8434139
00000000: f49a 2c3e 0f22 1dc0 a76a 22bf f169 08be
00000010: 8f6f 0ebf 63b5 d73d 3dc4 8fba af44 1a3f
00000020: b3d5 5c3e 18f0 073d 1aac 803f fa92 bf3f
00000030: 2a8b 5dbe 00b8 9a3f 9a4d 95bf 508e 1a3e
00000040: 5715 fbbe ca24 d4bd 7652 803d 3058 e83f
00000050: 0ce2 d53f 933c b63d 6303 d33f e3e8 0140
00000060: f112 873e a11e 0240 9a3e 4f3f 5a27 e0bf
00000070: 6eed 363f fc66 3e3f 5216 163f 2b13 cd3d
00000080: 7d4d a9bd eb03 993d 952a 55bd 020e c1ba
00000090: fa73 7fbf 8134 2ebf d69c a93d 7213 de3e
000000a0: ad3d 0f3f 4ffc cf3e 0268 02be 655a 33b9
000000b0: eeef 24bd 1905 9dbf e4ce 5e3f 92c0 df3e
000000c0: 2589 a3bf 1259 93bf ea72 c8bf 25f7 eb3d
000000d0: d863 d8bf 8d68 21bf 5b63 c73b c1da b6be
000000e0: 7f60 99bf 4499 52bf d62c b8be 6adc c53e
000000f0: 487b 60bd 6e01 e03e d9f0 3e3e 73d6 07be
00000100: d888 4ebe 0abf 59be 5a6d 74bf 1efa b93f
00000110: 6b5b d13f 3bd0 9c3d b160 a53f b7bc e03e
00000120: 52e7 663d d78f f2bf b334 c4bf 5a86 71be
00000130: a53f a7bf c487 93bf ad73 25be 3a05 74bf
00000140: 7ff9 bfbe 2032 1d3d e2db f83f 9567 1a40
00000150: 2b31 523d 539e 00bf b98f 40bf ecba 20be
00000160: dca8 c5be 1a35 c9bd d692 e63f ff83 f73e
00000170: dd64 a0bc f0e1 923f 8f6e 7abf 1c1a cfbf
00000180: 6390 0c3c a587 d4bf 0f41 28bf 7cfe bfbf
00000190: 26a1 07bf 969e 01bf c2a6 063f 3618 d2be
000001a0: 9efd 76be c8c3 a73e ffcb 33bb 087d ea3c
000001b0: bdfe 63bb b1d9 893f aa13 a83f 2246 86be
000001c0: 6dd5 9c3f 1974 c13f 22a8 2fbd e014 2f3f
000001d0: 9402 463e 90cd 0d3f acc0 d93f a8a6 673f
000001e0: 84fe cabf d910 b53f 81d1 4e3f 441d a63e
000001f0: e7e9 953e 310e 853d ab19 c43d 2718 4b3f
00000200: fd69 7c3f e0f7 bebf 3571 9fbf 8f09 5dbf
00000210: 354f 3ebe 9e06 f4be 30b9 19be a841 bd3d
00000220: ef41 073e 0042 053e 1e6f 9ebd 46dc 1abd
00000230: 5422 b23c a655 a23f 182c e23f 36f1 233f
00000240: 4949 39bf 7351 503f d782 5dbe 2a4f 173f
00000250: 55e0 c03f a3e3 b63f b273 32be 6f4c 203f
00000260: 7478 d83d d8f2 c6bd 3b89 833e ec30 cfbf
00000270: d1d9 0fbe 6254 a1bf 6cf8 f8be 194b b03c
00000280: c975 57be 259d 97bd 7f8b 5d3f 617a b0bf
00000290: e879 0c3f 3f76 9e3e 4e5e 843f 75ff 2f3f
000002a0: 6751 10be a988 2b3d 4f38 77bd b731 babe
000002b0: 10fb 963f da69 9e3f 37bd d53e 7d55 843f
000002c0: 24c3 a23f b9f2 bb3f 2911 b4bd 8a02 5abe
000002d0: 8d81 193e 9b84 073f dd18 403f 2eb8 d83f
000002e0: d5b0 c9bf 7635 52bf 50e3 a23e 95a2 adbe
000002f0: c493 cbbd a547 93be ee0a 49bb 5099 adbd
00000300: 641c 89bf 2e88 fcbf 7d36 8bbe 861f 6b3e
00000310: f900 5c3d 8e81 513c 64c5 eebd fb08 44be
00000320: 567a bcbe 7d57 23c0 361a 9c3e abf2 a83d
00000330: 4200 81be 2dfb f33d c57b 0f3d d7e1 edbf
00000340: 282d 8f3f 46b6 753f dd4f 75bf b154 823f
00000350: f18c 0d3f 37db 623e 7410 4c3e 4f2b 513d
00000360: eba3 763e 963d e0bc 83b3 293d 09f2 283f
00000370: 347a 733f 8966 ab3f 0db7 81bf c97b 833e
00000380: e7ed f4bc d773 e43d 5eba 41bf 999f 6dbf
00000390: 539a e23f 873b b53f fb5b 803f e3ac 6f3e
000003a0: b7b7 113f 56e1 183e 5ec9 7dbe ad7c 87bc
000003b0: fca4 a93c 61bd 823d b539 afbd 99de 0a3d
000003c0: 1739 9abf 93c4 e03f b443 2f3f bba5 393e
000003d0: 8d38 823e fc3a 993e 4774 9d3f fd4c a0bf
000003e0: 8604 13bf 6b43 64bf ec56 c93d d1b7 ba3d
000003f0: 07de 2f3f 112e 0dc0 e0e1 d7bf f9e9 57bf

bias f4 [40]
-2.8594146 -1.7278445 -0.29796755 -0.102546856 -0.99760336 -0.20494233 -0.37764233 -0.050111525
-2.5449712 -2.301426 -0.003825795 -0.13959637 -3.0553288 0.008903968 1.1161935 -0.036820654
-1.431422 -1.7514713 -1.2738832 -0.04047056 0.062876865 0.020328483 -3.6359055 -3.4006026
-0.05221325 0.37911078 0.02411998 0.009790727 0.1993505 0.08255556 -1.2272432 0.36550936
-1.6916251 -3.3984215 0.04489838 -3.503521 -0.11050787 -0.052258223 -0.073557094 -1.5732287
00000000: a600 37c0 022a ddbf 348f 98be 1604 d2bd
00000010: ef62 7fbf 67dc 51be 565a c1be be41 4dbd
00000020: cfe0 22c0 904a 13c0 30ba 7abb 5af2 0ebe
00000030: 828a 43c0 f3e1 113c 6edf 8e3f 41d1 16bd
00000040: d638 b7bf 3630 e0bf 9b0e a3bf 75c4 25bd
00000050: 96c5 803d eb87 a63c adb2 68c0 79a3 59c0
00000060: 90dd 55bd cf1a c23e 4497 c53c 4969 203c
00000070: 8a22 4c3e e412 a93d 4e16 9dbf 0b24 bb3e
00000080: 2c87 d8bf bd7f 59c0 5de7 373d b039 60c0
00000090: f351 e2bd b80c 56bd 1aa5 96bd 8f5f c9bf

weight f4 [40, 40]
0.19668192 -0.4908432 0.5024349 -1.3958498 -1.2665094 -1.2581905 -0.14236057 -2.219323
-0.81468904 0.60643977 1.014404 -1.0432284 -0.9140983 0.8166306 -1.0818611 1.5510615
-0.11647092 -0.019189406 1.0426307 0.22822192 0.615583 -1.819322 1.2898675 -0.50249124
0.9241707 1.0613564 -1.740089 1.5446398 0.9939388 0.9042574 0.062273204 -1.9579284
-0.7471702 -1.2608172 1.6144232 -0.8704398 -1.4048252 1.3206373 -0.48402336 -0.5822425
-0.24068305 0.040798288 0.5168016 0.57211554 0.22434111 -0.17256482 -1.1005738 -0.59001684
-0.7085534 1.322211 -0.20881882 -1.0813724 1.0774288 0.334907 -1.4365089 0.3023261
-0.5099613 -0.3858965 -0.223515 0.31767538 0.37897527 -2.3798149 -0.82270706 0.5447351
0.7179124 0.06474752 -0.33520567 0.37884888 -0.84164804 -0.26931375 -0.38829088 -0.6580465
0.16288465 0.85941255 -0.22837171 -0.41994062 -0.872425 0.3927681 -0.20800371 0.566347
-0.5882334 1.3568368 1.4475381 -0.11060245 -0.41253185 -0.07378273 -1.4359996 -1.0952357
-1.5337815 1.3297362 -0.2207872 -0.4998648 2.1288602 -0.1878144 -1.4653242 -0.0016651778
0.2326986 -0.24483408 0.17699365 0.40957293 -0.8588472 0.21181867 1.8567871 0.813493
0.62059236 -0.7200094 -0.055549234 -0.3452771 -1.2374502 -1.2728021 -1.509985 -1.0418267
1.2830063 1.0167555 0.132399 -1.1345642 -0.43127367 0.17071469 0.14321491 0.9649208
-0.2128116 -0.28072006 -0.016983429 -1.7265707 0.13302112 0.29341975 0.9056 0.14533979
-0.26810002 -0.3169635 0.82354116 0.9737255 -0.1774486 -0.85012585 -0.59318286 0.24826619
-0.17689511 0.1760751 0.7422416 0.031048348 -0.64995736 0.23147611 -0.075844385 1.9414039
-0.34863067 0.028953722 -0.010048421 0.48793098 -0.60541326 0.8437214 0.2469752 -0.27601513
0.75526154 0.5375671 -0.97371215 0.0084622465 -0.15977785 -0.30420414 -0.044985365 -0.31447145
-0.735423 -0.2385084 -0.06998707 1.0588138 0.48579496 -0.25778565 -0.4301288 -0.6636623
0.48255843 0.15247577 0.5446606 0.5002024 -0.087634385 -0.24094889 0.07338167 0.09875549
-0.5094706 0.24175534 -0.36228094 0.03125748 -1.11927 0.5629964 -0.18422395 0.11442806
-0.0049648155 0.3332295 -0.63393146 -0.0071850396 0.36513677 -0.18272488 0.07920641 0.12690453
0.092899665 0.0884354 -0.10372441 0.24892549 0.049596764 -0.2536813 -0.062211312 0.3263725
0.71732324 0.925523 0.53087056 0.5807856 0.21372326 0.2089971 0.6638784 -0.94148415
0.11769738 -0.4496383 -0.015431136 -0.75275654 -0.24358763 -0.39686224 -1.4227659 1.0735915
-0.5904943 0.43883222 0.048411574 0.037425663 -0.13699986 -0.52646655 -0.34453973 -0.56009936
-0.17400947 0.7966126 -1.2817146 1.1147377 0.41620377 0.5616043 0.52652824 -0.10339384
-0.07488503 0.42959967 0.09818201 -0.14142081 0.08041716 -0.6981363 0.16568628 -0.5525523
-0.66512954 0.52371687 0.27928722 0.018863492 -0.7810451 -0.75431067 -0.28396508 0.96772397
0.09637066 -0.44536766 0.7593603 -1.1069555 0.21940729 0.24900591 0.19263536 -1.1449192
00000000: fc66 493e cd4f fbbe 939f 003f 35ab b2bf
00000010: fb1c a2bf 630c a1bf f8c6 11be 6309 0ec0
00000020: 768f 50bf a33f 1b3f fed7 813f 8288 85bf
00000030: 5902 6abf b40e 513f 6d7a 8abf 2f89 c63f
00000040: 4e88 eebd 1a33 9dbc ec74 853f 02b3 693e
00000050: d996 1d3f 8bdf e8bf 611a a53f 44a3 00bf
00000060: 7396 6c3f 87da 873f 3dbb debf c2b6 c53f
00000070: c672 7e3f 6a7d 673f 3012 7f3d 669d fabf
00000080: 8c46 3fbf 7562 a1bf 6ba5 ce3f 25d5 5ebf
00000090: 50d1 b3bf a50a a93f e9d1 f7be d80d 15bf
000000a0: 9e75 76be 1b1c 273d 1c4d 043f 2a76 123f
000000b0: adb9 653e d5b4 30be 9adf 8cbf 580b 17bf
000000c0: c163 35bf 363e a93f 9ad4 55be 696a 8abf
000000d0: 30e9 893f ee78 ab3e 86df b7bf 7dca 9a3e
000000e0: d38c 02bf 3a94 c5be 1ee1 64be 59a6 a23e
000000f0: 0c09 c23e e34e 18c0 ee9c 52bf c273 0b3f
00000100: 1bc9 373f 599a 843d 14a0 abbe 7bf8 c13e
00000110: 3f76 57bf 7ee3 89be 10ce c6be bc75 28bf
00000120: 3ccb 263e 7602 5c3f 46da 69be 7502 d7be
00000130: 3f57 5fbf e718 c93e edfe 54be 1efc 103f
00000140: 7796 16bf d4ac ad3f ee48 b93f 8a83 e2bd
00000150: 6037 d3be 661b 97bd d6ce b7bf af30 8cbf
00000160: f452 c4bf cc34 aa3f 0a16 62be 47ee ffbe
00000170: 3f3f 0840 6b52 40be be8f bbbf 1842 daba
00000180: 8b48 6e3e c9b5 7abe d33d 353e 8bb3 d13e
00000190: 69dd 5bbf fee6 583e 33ab ed3f 1441 503f
000001a0: 24df 1e3f 8952 38bf 9887 63bd 29c8 b0be
000001b0: c564 9ebf 2eeb a2bf 3047 c1bf 945a 85bf
000001c0: 8d39 a43f 0b25 823f 9a93 073e 6639 91bf
000001d0: e7cf dcbe d5cf 2e3e eea6 123e 0d05 773f
000001e0: 49eb 59be 8aba 8fbe d520 8bbc 4500 ddbf
000001f0: b036 083e 1d3b 963e 67d5 673f f4d3 143e
00000200: 6844 89be 0a49 a2be 98d3 523f 1346 793f
00000210: 16b5 35be d9a1 59bf d5da 17bf 7e39 7e3e
00000220: fe23 35be 084d 343e 8c03 3e3f 1b59 fe3c
00000230: 9b63 26bf 1308 6d3e 4d54 9bbd ec7f f83f
00000240: b87f b2be 5b30 ed3c 22a2 24bc 17d2 f93e
00000250: 5dfc 1abf 20fe 573f 11e7 7c3e db51 8dbe
00000260: d258 413f ff9d 093f 3345 79bf 3ca5 0a3c
00000270: ce9c 23be a5c0 9bbe 9342 38bd 6702 a1be
00000280: af44 3cbf 8c3b 74be 6255 8fbd 3687 873f
00000290: 1eba f83e 7bfc 83be d839 dcbe c6e5 29bf
000002a0: e611 f73e 9c22 1c3e e16e 0b3f 440d 003f
000002b0: a879 b3bd 4ebb 76be 2149 963d 5140 ca3d
000002c0: aa6c 02bf b68e 773e e37c b9be d807 003d
000002d0: 3d44 8fbf 8820 103f 34a5 3cbe 4259 ea3d
000002e0: e4af a2bb 0f9d aa3e 5549 22bf 7b70 ebbb
000002f0: 35f3 ba3e 3b1c 3bbe f836 a23d 43f3 013e
00000300: 2e42 be3d 9e1d b53d 776d d4bd 53e6 7e3e
00000310: fa25 4b3d 84e2 81be 4ad1 7ebd 4c1a a73e
00000320: 7fa2 373f 13ef 6c3f 22e7 073f 5dae 143f
00000330: 45da 5a3e 5603 563e eff3 293f 1b05 71bf
00000340: 530b f13d fe36 e6be e0d2 7cbc a7b4 40bf
00000350: 096f 79be 8731 cbbe 311d b6bf 726b 893f
00000360: a22a 17bf 9eae e03e 374b 463d a74b 193d
00000370: b149 0cbe 83c6 06bf 8367 b0be ac62 0fbf
00000380: 8a2f 32be ceee 4b3f 390f a4bf baaf 8e3f
00000390: a918 d53e 4dc5 0f3f 8eca 063f 26c0 d3bd
000003a0: 535d 99bd 7df4 db3e a613 c93d 9ed0 10be
000003b0: c1b1 a43d 10b9 32bf aaa9 293e 1174 0dbf
000003c0: ee45 2abf 4f12 063f bcfe 8e3e 9c87 9a3c
000003d0: 92f2 47bf 811a 41bf df63 91be c2bc 773f
000003e0: fb5d c53d 3b07 e4be 7065 423f b8b0 8dbf
000003f0: 4eac 603e 68fb 7e3e 3442 453e b68c 92bf

bias f4 [40]
0.10208159 -1.729744 -2.7997575 -0.64326006 -0.65035385 -0.9518282 -0.14224571 -0.75506604
-2.2055767 -0.9045095 -0.90933025 -0.22294451 -1.2680959 -2.0322115 0.005050906 -1.0798222
-0.18172131 -0.97012615 0.3568568 -0.20554976 -0.3740581 -0.87783426 -0.23502137 1.0976468
-0.47171715 -0.6744359 -0.057613574 -0.34745654 0.12626353 -0.60602623 -0.34098378 -0.62917125
-1.5593109 -0.15669346 -0.21093193 -0.99190855 -0.15420105 -0.6782653 -0.35584906 -1.5426737
00000000: 2710 d13d 4068 ddbf 3a2f 33c0 b1ac 24bf
00000010: 977d 26bf 03ab 73bf dca8 11be 024c 41bf
00000020: 2b28 0dc0 ef8d 67bf dec9 68bf 914b 64be
00000030: f750 a2bf c10f 02c0 1282 a53b 9d37 8abf
00000040: 2715 3abe 305a 78bf efb5 b63e a37b 52be
00000050: 8b84 bfbe bfb9 60bf 71a9 70be b17f 8c3f
00000060: e984 f1be d5a7 2cbf 36fc 6bbd d3e5 b1be
00000070: 3a4b 013e 8924 1bbf 6d95 aebe 5e11 21bf
00000080: 8097 c7bf 4074 20be 8afe 57be b8ed 7dbf
00000090: e1e6 1dbe cba2 2dbf d931 b6be 5576 c5bf

weight f4 [20, 40]
-0.31963086 -0.09023014 -0.08830154 0.7042483 0.15955915 -0.39356127 0.09177152 0.07889304
-0.25765365 -0.17446944 -0.02036351 -0.044300754 -0.14332283 -0.19226483 -0.14568858 -0.009252481
0.31509763 -0.07743251 -0.5732668 -0.17033052 0.15798467 0.08731991 0.07207453 -0.13048778
-0.19882849 -0.3535577 0.092393175 -0.19358815 -0.62998396 -0.5623935 0.17472234 -0.15993236
-0.081382036 -0.14565028 -0.35847157 -0.15360534 0.14064853 -0.063626155 -0.08188878 -0.09020906
-0.01617781 -0.093041465 0.10594753 -0.058428425 0.071029216 -0.97304404 -0.80381143 -0.787078
0.032918345 0.24364136 -0.84326386 -0.12822275 0.08415457 -2.5311236 -0.12303294 -1.4942389
0.25368938 0.007084829 -0.06676058 -0.26130804 0.09908448 0.092988454 0.071315266 0.5510706
-2.7126043 -0.52845895 -0.022079175 -0.037974402 0.41756803 -0.69942415 -0.09644301 -0.6758304
0.05688478 -0.120579794 -0.5434462 -1.3601902 0.09862763 0.1125698 0.15442315 -1.731655
0.34582624 -0.83947957 -0.46106905 -0.5119332 0.6799881 0.057769943 -0.022242587 -0.104249865
-0.2577715 -0.90329576 0.59734845 0.18611716 -0.02046715 -0.2557365 0.14471887 -0.20124717
0.01205356 -0.023456851 0.7248894 -0.35331303 0.21397808 -0.3257881 -0.57200444 0.0069317413
0.5344956 0.28396237 0.0376412 -0.12817323 -1.5586613 0.10812773 -0.2804362 0.04099609
-0.1443236 0.3997905 -0.012308819 -0.46592113 0.10033962 0.028951589 -0.042960577 0.10839784
-0.57949066 -0.1702044 -0.91526186 -0.5836336 0.2969365 0.22058438 -0.34138125 0.10141661
0.03736401 -0.4735496 -0.4892185 -0.09340128 -0.6484465 0.10713681 -0.09032733 0.002922128
-0.949865 0.4894301 0.24178284 -0.024355061 0.46736908 0.4318859 -0.53517425 -1.393564
0.0045770714 0.20661104 -0.065362155 0.054467253 -0.91092664 -0.42851287 -0.26148415 -0.61580217
-0.21910542 -0.21030028 -0.3115477 -0.7127226 -0.0062367674 -0.949571 -0.0010420561 -0.24596201
0.35143623 -0.10021786 -0.07303592 -0.29020888 -0.5360222 0.01580098 0.42232293 -0.7180871
-1.0052346 0.15924509 0.22573929 0.13263428 0.141425 0.009683795 -0.08845023 0.31298515
0.45870125 0.11991444 -0.6215451 -1.4441864 -0.13678084 -1.2965797 0.50416565 0.1948552
0.4293374 -0.030339008 0.06218031 -0.055843562 -0.6217229 0.21658549 -0.020696381 -0.6009609
-0.4199449 -0.20359966 -0.07526372 -0.41877106 0.016158603 -0.042005576 0.29046184 -0.87667936
0.09569388 0.014505839 -0.37245935 0.8786435 -0.06037282 0.48093557 -1.3696747 -0.45750967
-1.1587126 0.3712453 0.89108646 -0.40723443 0.06682426 -0.6383021 -0.11243569 -0.90892744
-0.1266543 -0.24904235 0.24097073 -0.10495809 -0.060641438 -0.20405765 -0.41182786 0.046041682
-0.38655213 0.9788981 -0.10485408 0.27190325 -0.060287826 0.59078205 0.091756135 -0.25635073
-0.35002774 0.21360163 -0.24355115 -0.22403985 -0.06819859 0.29523355 0.2718512 -0.4125844
-0.32407057 0.04860528 0.09987409 -0.24895236 -0.0013779916 -0.11829169 -0.027190175 -0.066950396
-0.6638804 -0.38133302 -0.21496588 -0.14292872 0.05580102 -0.0335085 0.1462382 0.27776855
00000000: a8a6 a3be 94ca b8bd 70d7 b4bd 9e49 343f
00000010: 7963 233e dd80 c9be b5f2 bb3d ad92 a13d
00000020: 2eeb 83be 1ea8 32be 60d1 a6bc b574 35bd
00000030: 38c3 12be 12e1 44be 632f 15be b897 17bc
00000040: 7a54 a13e f094 9ebd 9dc1 12bf 206b 2ebe
00000050: bcc6 213e c8d4 b23d d09b 933d 979e 05be
00000060: b299 4bbe 8405 b5be a238 bd3d f93b 46be
00000070: a146 21bf 05f9 0fbf 6aea 323e 4fc5 23be
00000080: a0ab a6bd 5925 15be 9689 b7be b84a 1dbe
00000090: 2b06 103e 6e4e 82bd 4eb5 a7bd 87bf b8bd
000000a0: 5487 84bc 868c bebd 05fb d83d a552 6fbd
000000b0: c477 913d 6a19 79bf 96c6 4dbf f27d 49bf
000000c0: 63d5 063d 1f7d 793e 24e0 57bf d34c 03be
000000d0: 3b59 ac3d eefd 21c0 b2f8 fbbd 3843 bfbf
000000e0: 93e3 813e da27 e83b c5b9 88bd 2bca 85be
000000f0: ceec ca3d bb70 be3d bd0d 923d f612 0d3f
00000100: 4f9b 2dc0 1649 07bf 63df b4bc 0c8b 1bbd
00000110: 7acb d53e 760d 33bf ea83 c5bd 3903 2dbf
00000120: 0400 693d 8af2 f6bd 4a1f 0bbf b61a aebf
00000130: 48fd c93d ff8a e63d 1a21 1e3e dfa6 ddbf
00000140: 2310 b13e 22e8 56bf 3e11 ecbe 0e0e 03bf
00000150: b313 2e3f 2da0 6c3d 1636 b6bc f480 d5bd
00000160: a0fa 83be 643e 67bf d4eb 183f 7f95 3e3e
00000170: b9aa a7bc e5ef 82be 2f31 143e bd13 4ebe
00000180: 4c7c 453c 9528 c0bc 5a92 393f 72e5 b4be
00000190: 121d 5b3e b3cd a6be e26e 12bf a923 e33b
000001a0: b4d4 083f 8463 913e a92d 1a3d d83f 03be
000001b0: 3782 c7bf 1272 dd3d 5595 8fbe 84eb 273d
000001c0: 91c9 13be 57b1 cc3e eeaa 49bc 378d eebe
000001d0: dc7e cd3d e22b ed3c 6ef7 2fbd b0ff dd3d
000001e0: 8059 14bf 104a 2ebe 9a4e 6abf 0369 15bf
000001f0: 1008 983e dfe0 613e 86c9 aebe 83b3 cf3d
00000200: 010b 193d 1875 f2be d97a fabe 2c49 bfbd
00000210: 9700 26bf 8b6a db3d 89fd b8bd 2c81 3f3b
00000220: 5a2a 73bf 9596 fa3e ec95 773e 4484 c7bc
00000230: 004b ef3e 2620 dd3e 2e01 09bf 4e60 b2bf
00000240: 42fb 953b d891 533e 98dc 85bd 0e19 5f3d
00000250: 7d32 69bf 0a66 dbbe 40e1 85be 36a5 1dbf
00000260: 2c5d 60be f558 57be 2e83 9fbe fd74 36bf
00000270: cc5d ccbb 1617 73bf 9a95 88ba 77dd 7bbe
00000280: 73ef b33e 053f cdbd db93 95bd 4296 94be
00000290: c038 09bf 0f71 813c b63a d83e 8ed4 37bf
000002a0: 87ab 80bf 2511 233e 3328 673e 48d1 073e
000002b0: b7d1 103e c8a8 1e3c 6525 b5bd 973f a03e
000002c0: e4da ea3e b495 f53d 941d 1fbf 1adb b8bf
000002d0: 4710 0cbe 53f6 a5bf 0011 013f 1f88 473e
000002e0: 1dd2 db3e 8389 f8bc c8b0 7e3d 38bc 64bd
000002f0: 3b29 1fbf 96c8 5d3e 758b a9bc 93d8 19bf
00000300: 0503 d7be 6e7c 50be dd23 9abd 2969 d6be
00000310: 0c5f 843c 0a0e 2cbd 6ab7 943e 0f6e 60bf
00000320: 27fb c33d e6a9 6d3c feb2 bebe c8ee 603f
00000330: 7d49 77bd 303d f63e 8051 afbf b53e eabe
00000340: b250 94bf dd13 be3e 3e1e 643f 0881 d0be
00000350: 28db 883d c467 23bf af44 e6bd 78af 68bf
00000360: aab1 01be f504 7fbe 08c1 763e 44f4 d6bd
00000370: 2863 78bd 7df4 50be 1adb d2be 3496 3c3d
00000380: 29ea c5be 1199 7a3f bcbd d6bd e736 8b3e
00000390: 5ef0 76bd 7e3d 173f a4ea bb3d 6740 83be
000003a0: d636 b3be 63ba 5a3e 7965 79be b46a 65be
000003b0: b4ab 8bbd da28 973e 1530 8b3e 433e d3be
000003c0: 94ec a5be 5516 473d c98a cc3d 5eed 7ebe
000003d0: ba9d b4ba ea42 f2bd eebd debc 4a1d 89bd
000003e0: 11f4 29bf 153e c3be 0420 5cbe e85b 12be
000003f0: 9c8f 643d 3540 09bd 77bf 153e ae37 8e3e

bias f4 [20]
0.35027328 0.037419707 -0.65051943 0.83893615 -0.560213 -1.6012547 -0.059630252 0.47928292
0.3692001 -1.2011378 -1.4791814 -1.1207081 -0.51771367 -0.36294904 -0.09311214 0.49475834
-0.7206897 -1.2090522 0.85644954 -2.3394337
00000000: 0557 b33e 6845 193d 7188 26bf 85c4 563f
00000010: 1f6a 0fbf eaf5 ccbf da3e 74bd 9264 f53e
00000020: cc07 bd3e e2be 99bf d155 bdbf 5d73 8fbf
00000030: e288 04bf 75d4 b9be 94b1 bebd f750 fd3e
00000040: 1f7f 38bf 39c2 9abf 4740 5b3f 48b9 15c0

weight f4 [1, 20]
0.4021744 -0.45208633 0.46515816 -0.3260155 -0.46356803 0.4738207 0.5371554 0.5300127
-0.8092759 -0.57384306 0.2839847 -0.7246224 0.37468782 -0.048817847 -0.4961513 0.50318724
0.24024461 0.34921628 0.6292338 0.29764205
00000000: cee9 cd3e dc77 e7be 3629 ee3e 81eb a6be
00000010: ca58 edbe a098 f23e 0483 093f eaae 073f
00000020: b52c 4fbf 61e7 12bf 7166 913e db80 39bf
00000030: 15d7 bf3e 39f5 47bd 8b07 febe e1d0 003f
00000040: af02 763e 7acc b23e 7715 213f 8a64 983e
